vertex-custom-ml/pytorch/custom_jobs/pytorch_tabular/prediction/tabular_random/model.ckpt (torch, 57670 bytes, 38 tensors)

_backbone.linear_layers.0.weight f4 [32, 28]
000000 46 88 22 3c 0f c6 8d 3e 42 a3 ce 3e 18 2b 99 3e
       0.009920185 0.2769017 0.4035893 0.2991569
000010 20 00 99 3e f4 71 93 3e 96 d4 b4 3e bf cf 4d be
       0.29882908 0.28797877 0.3531844 -0.2009878
000020 b1 3f 23 bf 5e 53 7a 3e 1f ac ea be 31 3f c0 3e
       -0.6376906 0.24445865 -0.45834443 0.3754821
000030 ac ff 0c 3e f8 73 fc 3e 39 9e f7 be de 77 9a 3d
       0.13769406 0.49307227 -0.48362902 0.07542394
000040 8a fa fb 3e 9f 96 f2 3e 16 9a 1d 3e 7d c0 1c 3f
       0.49214584 0.4738054 0.1539081 0.61231214
000050 da d9 a3 3e 5a 84 ad bf 67 1b ac 3e 81 26 0a 3f
       0.32002145 -1.3556015 0.33614656 0.53965
000060 d2 2b 3b 3f 00 1c d6 be e0 5a 52 3f 98 e1 99 3e
       0.7311374 -0.41818237 0.82169914 0.30054927
000070 cb e6 98 3e c8 84 08 bf 9f b5 6d bc eb 49 41 3e
       0.2986358 -0.5332761 -0.014508634 0.18875854
000080 cd d5 ab 3e 22 7e e2 be 80 9b e9 3d 54 80 02 3e
       0.33561555 -0.44236857 0.114066124 0.12744266
000090 c2 97 2d bf a4 ca 28 3e 76 d1 8c bf f8 ca 1a 3f
       -0.6780969 0.16483551 -1.1001422 0.60465956
0000a0 03 c8 bb bd 2a 48 79 3f 84 56 b9 be a2 48 57 bf
       -0.091690086 0.9737574 -0.3619882 -0.84095204
0000b0 9f 33 b1 be e3 d8 4b be e0 f2 75 3f 9c 8a d5 be
       -0.34609696 -0.19906954 0.9607372 -0.41707313
0000c0 2e ce 66 bf ac 87 ac be 96 89 10 bf c1 1f 79 bf
       -0.90158355 -0.3369726 -0.5645994 -0.9731408
0000d0 6b bc 6b 3e 78 15 03 3f 9d 7c 81 3e 64 f6 c8 3d
       0.23021095 0.51204634 0.25290385 0.0981262
0000e0 d6 2c 2e be 3c 47 1d 3f 59 3f 8e 3d 0d cb d0 be
       -0.17009291 0.6143682 0.06945676 -0.40779915
0000f0 9c f6 6d bf d2 e1 58 3e 4e ab 44 3f 84 b3 85 3f
       -0.9295442 0.21179894 0.7682389 1.0445409
000100 e7 3c 95 3e 48 90 53 3f 55 42 d7 be 3d 73 79 3f
       0.29148027 0.8264203 -0.42042795 0.97441465
000110 78 88 11 3d 92 3f 98 3f 94 d3 c0 3f df 3f 9d bf
       0.035530537 1.18944 1.5064569 -1.2285117
000120 cf e3 4f be d8 95 26 bf ce d6 01 3e af cc 45 3d
       -0.20301746 -0.65072393 0.12679598 0.048290905
000130 cd 50 96 be af 6b 8e 3e d5 fa e8 be 39 2d 2b be
       -0.2935852 0.2781653 -0.4550387 -0.1671647
000140 b6 db e5 be ad 9a 98 3e b5 29 52 3e 8b 73 2f 3f
       -0.4489419 0.29805508 0.20523722 0.6853568
000150 a7 da 86 3f a4 b1 1f 3f 20 30 69 be 6d c1 78 bd
       1.0535477 0.62380433 -0.22772264 -0.06073134
000160 55 4e 00 c0 7f 78 c7 bf 4d 1f d1 be 15 c2 bf 3d
       -2.004781 -1.5583647 -0.40844193 0.0936319
000170 aa 4f 80 be e7 4e 5f be 99 37 bd be 8a 1d 1b 3e
       -0.2506078 -0.21807443 -0.3695648 0.15147987
000180 0b a5 14 3e c7 5f 66 3f 05 b9 4d 3e 5b bc b3 bf
       0.14516084 0.89989895 0.2009011 -1.4041857
000190 77 b7 03 3e 26 90 2d 3f 75 f9 d5 3d d8 10 f6 bd
       0.12862955 0.6779808 0.10447971 -0.120149314
0001a0 68 f7 0b be 32 37 71 bf c7 05 c3 be 93 ad 6b bd
       -0.13668597 -0.94224846 -0.38090345 -0.05753858
0001b0 a6 c9 52 3f 1b 3c 38 bf 34 cd 8f 3f 60 b8 18 40
       0.8233894 -0.71966714 1.1234498 2.3862534
0001c0 c5 0e 3d 3f c9 45 13 c0 97 16 d3 3e 3f c4 96 bf
       0.7385066 -2.3011343 0.41228172 -1.177864
0001d0 c1 4a 70 bf 54 d7 14 bf 3b 17 bc 3e a6 19 9b bf
       -0.93864065 -0.58141065 0.36736473 -1.2117202
0001e0 8c e0 f5 be 33 46 78 bf b3 1e f7 3e 7f b0 8a 3f
       -0.48022878 -0.96982116 0.4826561 1.0835112
0001f0 e4 44 08 3f 5f 20 91 3f f4 80 31 3f ad 0b 03 bf
       0.5323012 1.1338004 0.6933739 -0.5118969
000200 f3 b5 09 3e d9 55 bc be d9 51 b0 be f6 ba 82 be
       0.13448314 -0.36784247 -0.34437445 -0.25533265
000210 37 dd 5d be aa ee ca bf 3e e6 f5 bc 28 94 a3 3d
       -0.21666418 -1.5854084 -0.030017015 0.07987243
000220 08 56 fb be c5 40 de 3e cb 3d 88 bd ae 08 e9 bc
       -0.49089074 0.4340879 -0.06652411 -0.028446522
000230 e3 a0 2b 3f e8 39 d5 3d 12 14 ec 3e c7 bb e8 3d
       0.6704237 0.10411435 0.46109062 0.11363941
000240 53 2c e7 3e dd 65 ab be 05 73 95 be 6d 4b 89 be
       0.45151004 -0.33476153 -0.29189315 -0.26815358
000250 05 f1 15 bf f5 0b c0 be fd f4 83 be af 90 41 3f
       -0.5857089 -0.37509122 -0.2577285 0.75611395
000260 32 6b 65 bf b6 e0 e0 3e 79 7c 2c be 3e d4 21 bf
       -0.8961669 0.4392144 -0.16844358 -0.6321448
000270 b9 ad 55 bd fd 2e 2c 3f d0 65 a9 3b 23 7f 10 3f
       -0.052167628 0.672592 0.0051696077 0.56443995
000280 fd 48 f9 be 2d 27 e2 be 48 75 db 3e 22 a6 f4 be
       -0.48688498 -0.44170514 0.42862916 -0.47783
000290 b3 ea 0f 3f 1f 18 94 be 58 62 d7 3e 14 89 0a bd
       0.562175 -0.28924653 0.42067218 -0.033822134
0002a0 62 27 8f 3e bd 0d af bf ea 0a f0 3e 86 a4 24 be
       0.27959734 -1.3676068 0.46883327 -0.16078386
0002b0 d1 74 48 bb 8a a0 4e bf ab 55 8c bd 0f e5 c9 3e
       -0.0030587206 -0.80713713 -0.06852277 0.3943257
0002c0 08 4c 46 bf d2 0e 2c be aa 1f 67 3d e5 99 85 3f
       -0.77459764 -0.16802529 0.05642668 1.043759
0002d0 7e 99 12 3f a5 22 82 3e 6f a0 89 bf 1a 7e 6e bf
       0.5726546 0.25417057 -1.0752085 -0.93161166
0002e0 8b 8b ac 3e 5d 24 14 3f 6f 68 ec bd e8 49 a1 be
       0.33700213 0.57867986 -0.115433566 -0.31501698
0002f0 8b f6 25 bf 6f ed 21 bf a8 1b 80 bf bc 67 85 bf
       -0.6482932 -0.6325292 -1.000844 -1.0422282
000300 74 1e fa 3e 08 93 71 3f d3 7f 3c 3f d1 b7 42 bf
       0.4885136 0.94364977 0.73632544 -0.7606173
000310 1d df 1f 3f 6b 87 12 40 04 c4 ef be 9c df 5c 3f
       0.6244982 2.2895153 -0.46829236 0.862787
000320 b4 ea 87 3e 44 5a 02 3e 80 0a bd be 86 ff b6 bf
       0.26546252 0.12729746 -0.36922073 -1.429673
000330 ba 40 0d bf 3e 90 ff be 48 42 60 3f 7d 15 bf be
       -0.5517689 -0.49914736 0.8760114 -0.37321082
000340 3e cc f2 3d 62 7c 96 3e 9c 40 06 bf da 0d ee 3e
       0.11855362 0.29391772 -0.52442336 0.46494943
000350 90 02 1d 3f ac c2 c1 3e af f1 59 bf 95 47 33 3f
       0.61332035 0.37843835 -0.85134405 0.700311
000360 9e e9 b8 3f ec 96 96 3d 1c 56 0d 40 43 cd ae 3f
       1.4446294 0.07353005 2.2083807 1.3656391
000370 3e 13 98 bc 67 66 a8 3c fe 86 d3 bc bb 8d b3 3e
       -0.018563863 0.020556642 -0.025821205 0.3506907
000380 25 60 98 be 5b be f7 3f 53 ed 5a 3c 12 47 ab 3f
       -0.29760852 1.9354967 0.013362247 1.3381064
000390 53 9a a4 be 10 0f 85 3d 77 4d 86 3d 3e 56 2e c0
       -0.3214899 0.064970136 0.06557744 -2.7240138
0003a0 3a fe c7 3e 1b 46 7e be 90 da 15 bf c5 6b 58 bf
       0.39061147 -0.2483143 -0.58536625 -0.84539443
0003b0 e6 a1 4a 3f 7a 1d 86 be 3a f4 40 3e f9 8e 45 3f
       0.7915329 -0.26194364 0.18843165 0.77171284
0003c0 60 64 2d be fa ca 03 be 74 64 98 3e 4d 35 a7 3e
       -0.16932821 -0.12870398 0.2976414 0.32657853
0003d0 ee 51 c5 3f 33 7c b2 3e bc 36 b0 3e ec 99 1d 3f
       1.5415628 0.3486038 0.3441676 0.6156299
0003e0 25 bc 26 40 25 e9 f3 3e e8 7c f1 3e bb c6 ee be
       2.6052334 0.47638813 0.47165608 -0.46635994
0003f0 5b 86 88 3f 14 fc 81 bf 2a cf aa be 40 19 d5 bd
       1.0666002 -1.0155053 -0.3336118 -0.10405207

_backbone.linear_layers.0.bias f4 [32]
000000 43 32 60 bf f2 2e a0 be 3b 97 c3 3c d8 d4 e5 bf
       -0.87576693 -0.31285816 0.023875823 -1.795558
000010 1c 16 fd bd 51 fe c6 be 00 64 47 be 01 fd b6 be
       -0.12357733 -0.38865903 -0.1947174 -0.35739902
000020 d6 7f b0 be 54 58 3d bf a2 34 67 bf d0 09 20 bf
       -0.3447253 -0.73962903 -0.90314686 -0.6251497
000030 6d f8 05 bf c7 2e 1d bf 0d 8d 99 be 61 92 d1 3c
       -0.5233219 -0.613995 -0.29990426 0.025582494
000040 e2 2a 1f bf 62 9a 2c bf eb 3e c8 3e 32 9e 4a bf
       -0.6217481 -0.6742307 0.39110503 -0.79147637
000050 7f 1c e2 be 01 50 00 bf 70 cc 45 bf 71 5d 4d bf
       -0.44162366 -0.50122076 -0.7726507 -0.80220705
000060 6f 7e 84 bf 78 1d 42 bf 10 3d 72 bf 5e 2e 2e bf
       -1.0351084 -0.75826216 -0.94624424 -0.680395
000070 ef c8 0f 3d c9 a5 23 bf c1 2a 40 bf 05 9f e9 3b
       0.035103735 -0.63924843 -0.7506524 0.0071295523

_backbone.linear_layers.3.weight f4 [16, 32]
000000 5c 82 c9 3e ed 23 8e be 5f 71 cd be 84 8f db be
       0.3935727 -0.27761784 -0.40125558 -0.4288293
000010 d7 a8 0b bf 7a ab 0b bf 6a ee 37 bf d1 24 ab bf
       -0.54554504 -0.5455853 -0.71848166 -1.337061
000020 ed 5f 14 c0 73 f9 4b bf a1 34 b9 be b6 bc 46 c0
       -2.3183548 -0.79677504 -0.36172965 -3.105268
000030 62 17 fd bf 9f 7a 5f bf 0b b0 78 be d7 52 e7 3e
       -1.9772761 -0.8729648 -0.24285905 0.4518039
000040 3b 2c 40 bf 09 1a b8 bf 9e 8c 19 bf 30 af 0e c0
       -0.7506749 -1.4382945 -0.5998019 -2.2294426
000050 75 f9 c0 bf 19 dc 90 be 12 24 69 bf 64 69 2f c0
       -1.5076128 -0.2829292 -0.91070664 -2.7408075
000060 98 10 9a bf 01 a7 d3 be 81 74 f0 bf b9 42 9e bf
       -1.2036314 -0.4133835 -1.8785554 -1.2364112
000070 a8 02 a3 bd 6c 73 53 bf 1b bb 35 bf 19 e1 7a be
       -0.07959491 -0.82597995 -0.70988625 -0.2449993
000080 c9 fe 7d bc 79 e7 fa bd 89 83 3f 3f b2 34 b5 3e
       -0.01550264 -0.12251181 0.7481008 0.35391766
000090 d0 18 7e 3f 8e a6 b6 be d0 0e f6 3d c7 c8 f4 be
       0.9925661 -0.35673946 0.12014544 -0.4780943
0000a0 2f c6 78 bf 98 b8 aa be ff 37 95 be 3c cc f7 bd
       -0.97177404 -0.3334396 -0.29144284 -0.120995015
0000b0 62 8b 3b bf b6 b7 f6 bd 87 4c 6b 3f b7 9e 8c 3e
       -0.73259556 -0.12046759 0.91913646 0.2746484
0000c0 47 89 cd be 8c 3e 7e bf ca 80 02 be 10 35 e2 be
       -0.40143797 -0.9931419 -0.12744442 -0.44181108
0000d0 1f 17 1a bf e1 16 03 bf 66 6f 2a bf 86 11 5f bf
       -0.6019153 -0.51206785 -0.6657623 -0.87136114
0000e0 d8 6b 81 bf 24 16 10 bf 89 27 cb 3d c9 27 81 3e
       -1.0111036 -0.56283784 0.0991965 0.25225666
0000f0 ca 5e 4e 3e 31 40 bc be bd 63 b6 bd d7 7a d0 3e
       0.20153347 -0.36767724 -0.08905742 0.4071872
000100 fe a0 cc be 27 ab b8 bf da 57 92 be a1 60 dd 3e
       -0.39966577 -1.4427232 -0.2858265 0.43237785
000110 ae 44 28 be 41 95 6f 3f 7a f9 35 bf 50 a1 97 bf
       -0.16432449 0.9358712 -0.71083796 -1.1846104
000120 db 7d ac bf 5b 3f 56 bf d6 ef 37 bf 43 ba 1e bf
       -1.3475908 -0.8369042 -0.71850336 -0.6200296
000130 b5 f9 0f be ef 05 52 bf 36 6f 23 3f 58 55 1f bf
       -0.140601 -0.82040304 0.6384157 -0.622396
000140 c6 26 41 bf bb 34 79 bf 85 cd e3 be 8d 69 d6 be
       -0.7544979 -0.97346085 -0.44492736 -0.41877404
000150 fe 96 9a bf 6e 03 83 be a4 8a f9 be 0c 0c b5 bf
       -1.2077329 -0.25588554 -0.48738587 -1.4144301
000160 11 48 c7 be 62 96 05 be a3 67 cf bf 15 85 65 bf
       -0.3892217 -0.13045648 -1.6203502 -0.8965619
000170 18 51 0b bf 14 de 8f bf 6e 7b d4 be 8e 10 95 3f
       -0.54420614 -1.1239648 -0.4150042 1.1645677
000180 aa 4e 4d bf 54 ca 35 bf 21 4d 1d bf 2d aa 0f bf
       -0.80198157 -0.71011853 -0.61445814 -0.5611904
000190 9e 10 cc bd 7d 52 5d bf 9c 5f f1 bd cc 53 e2 be
       -0.09964107 -0.8645399 -0.11785814 -0.44204557
0001a0 c6 eb 4e bf 66 ca 0a bf 8b 6d 07 bf 3c 08 80 bf
       -0.8082851 -0.54215086 -0.52901524 -1.0002513
0001b0 52 28 cc be 5e c2 e5 be 63 53 0d 3d 49 c2 88 3d
       -0.39874512 -0.44874853 0.034503352 0.06677682
0001c0 64 10 17 bf 2d f6 9a be f2 9f 53 bf a6 2a df be
       -0.59009385 -0.30265942 -0.8266593 -0.43587226
0001d0 65 a6 ed be 24 75 78 bf 4c a2 b4 be a7 58 40 bf
       -0.4641601 -0.9705374 -0.35280073 -0.7513527
0001e0 3b 5f 0a bf 4c 45 ee be f9 4a 5f bf 70 45 32 bf
       -0.5405156 -0.46537244 -0.87223774 -0.69637203
0001f0 11 ea 17 bf 13 b9 61 be bc 3d 27 be ea a3 32 bc
       -0.5934153 -0.22043256 -0.16332144 -0.010903338
000200 6f 76 db bc c3 32 3e bf 4c d7 82 bd 9f 66 a4 be
       -0.026789872 -0.74296206 -0.06388721 -0.32109544
000210 c9 a8 dd be b7 11 88 3f dd 8b 28 bf dc 66 f1 be
       -0.43292835 1.0630406 -0.65838414 -0.47148788
000220 94 89 ae be 49 1b 9b be 01 e7 af be 1d e7 dc be
       -0.3408934 -0.30294254 -0.3435593 -0.43145075
000230 0e 27 86 bf 9c e6 9c be e5 7c 09 3f 87 c4 82 be
       -1.0480669 -0.3064469 0.537062 -0.25540563
000240 c7 f1 45 bf 32 81 0f bf 21 e4 09 bf d2 67 f7 be
       -0.7732205 -0.5605651 -0.5386372 -0.48321396
000250 83 97 d6 be bf 47 ca 3d 99 24 16 be 3a e7 6a bf
       -0.4191247 0.09876966 -0.14662398 -0.91759074
000260 a7 5c da be 95 ef b6 be 61 9d 50 bf ea 69 c9 be
       -0.42648813 -0.35729662 -0.8149014 -0.3933862
000270 6f 3a 17 bf 3b f1 fb be 1a d6 af bd 88 f7 ac 3f
       -0.5907354 -0.49207482 -0.085857585 1.351304
000280 51 7d d4 be 02 9f 54 bf 83 34 0c bc ce 0e 42 bf
       -0.4150186 -0.83055127 -0.008557442 -0.7580384
000290 3e 83 96 be ec 90 c7 be c7 73 92 bf b3 8b ed bf
       -0.29397005 -0.38977754 -1.1441582 -1.8558258
0002a0 4d 12 0f c0 2f 87 8b be 8d d3 06 bf 1f ae bb bf
       -2.235492 -0.27251574 -0.5266655 -1.4662513
0002b0 8b 2c 71 be 01 f2 8e bf aa da 35 bf 50 a2 82 bd
       -0.23552148 -1.1167604 -0.7103678 -0.06378615
0002c0 79 24 8b bf 2c cf 10 c0 cd 80 98 bf 5d 97 9b bf
       -1.0870506 -2.2626448 -1.1914307 -1.2155567
0002d0 b1 8c e8 bf df 19 5a bf 59 72 d7 be e4 9e bc bf
       -1.8167936 -0.85195726 -0.42079428 -1.473599
0002e0 8a 66 42 bf 7e c8 31 bf 53 df 20 c0 8b ea 9d bf
       -0.7593771 -0.6944655 -2.5136306 -1.2337202
0002f0 f2 c8 b5 be 1c 3d 9e be 90 41 90 be c8 41 9f 3e
       -0.35504872 -0.30905998 -0.2817502 0.31104875
000300 4c 7f 37 bf e0 78 ca bd 6b 5a ce be d8 0f 5a be
       -0.71678615 -0.09886336 -0.40303358 -0.21295106
000310 20 c5 02 bf bd a8 dd 3e 9d c1 25 be 5c 73 71 3e
       -0.5108204 0.432928 -0.16187139 0.23579162
000320 b1 5e e9 3e 8d 34 81 be fa ab 25 3f 8a 8b 07 3f
       0.45580056 -0.25235406 0.6471554 0.52947295
000330 1c 27 e9 3e 7e f2 93 3f 7d 68 1e bf eb bb bf be
       0.4553765 1.1558378 -0.61878186 -0.37448058
000340 53 59 bd 3f c3 88 d0 3e c7 e4 d9 be e3 38 7e 3f
       1.4792885 0.4072934 -0.42557356 0.9930555
000350 19 73 a8 be da 89 4a be 40 06 5f 3f 1a fc 88 3f
       -0.32900313 -0.19779149 0.8711891 1.0701935
000360 e3 7c b1 3e 5b 2f e6 3e fb 25 b2 3e a2 20 0c 3e
       0.34665594 0.44958004 0.34794602 0.13684323
000370 35 70 ce be df 5f 0d 3f 01 0d aa bf 47 ab 23 bf
       -0.40319982 0.5522441 -1.3285218 -0.63933223
000380 e5 a4 c4 be 15 32 3d be af e7 37 bc 33 3a 2b bf
       -0.38407055 -0.18476136 -0.011224671 -0.6688568
000390 27 b6 00 3f 2c aa 02 c0 52 d0 2b be 61 87 50 bf
       0.5027794 -2.0416365 -0.16778687 -0.8145657
0003a0 93 fd 17 bf a6 b5 ac bf 21 56 f7 bf 4e 7a b0 bf
       -0.593713 -1.3492935 -1.932316 -1.3787324
0003b0 00 4b f5 bf b5 c2 83 3e d4 05 ec be 6d 3a 1a 3f
       -1.9163513 0.25734487 -0.46098197 0.602454
0003c0 5d 58 c7 bf ea 12 c1 bf 52 d1 ad bf 79 b3 bc bf
       -1.5573841 -1.5083897 -1.3579504 -1.4742271
0003d0 df 11 ae bf 86 22 ab bf fe 4d 92 bf 36 2d 79 bf
       -1.3599204 -1.3369911 -1.1430051 -0.9733461
0003e0 7d 9a 1b c0 22 63 42 bf 04 19 55 3e a7 00 7a be
       -2.4313042 -0.75932515 0.20810324 -0.24414311
0003f0 93 b8 6a 3f 29 2a e1 bd c6 73 84 bf 76 8e 2c be
       0.9168789 -0.109943695 -1.0347831 -0.1685122

_backbone.linear_layers.3.bias f4 [16]
000000 48 99 37 be 2f 13 e9 3e ee c0 39 bf 73 f9 11 bf
       -0.17929566 0.45522448 -0.7256001 -0.57021254
000010 c4 11 a7 be b4 04 92 bf b1 3c a3 3e 12 ac 81 3f
       -0.32630742 -1.1407685 0.3188224 1.0130637
000020 20 b2 0d bf bf 44 bd be 30 88 fb be b5 e3 ee be
       -0.5534992 -0.36966512 -0.4912734 -0.46658102
000030 75 5f 15 bf 32 f1 1a bf 4b 79 e0 be be dc b2 bf
       -0.5834878 -0.60524285 -0.4384254 -1.3973615

_embedding_layer.cat_embedding_layers.0.weight f4 [5, 3]
000000 31 af aa be 42 07 aa be 48 7e 08 3f 73 59 86 bf
       -0.33336785 -0.33208662 0.5331769 -1.0496048
000010 71 a1 b1 bf 9b 4e ca 3e 28 18 61 be fd 3f a3 bf
       -1.3877393 0.39513096 -0.21981871 -1.2753903
000020 c9 70 cf 3e 00 f7 d1 be bb 9f d3 bf 2f d9 18 3f
       0.40515736 -0.4100876 -1.6533121 0.59706396
000030 47 24 dd 3e df 71 d4 be c2 0e 1a bf
       0.4319174 -0.41493127 -0.6017877

_embedding_layer.cat_embedding_layers.1.weight f4 [5, 3]
000000 89 54 9c bd d6 6f c3 3e 2b 15 a7 3f d3 62 eb 3e
       -0.07633311 0.38171262 1.3053335 0.45973834
000010 00 9d 69 3d 73 e3 b5 3f 06 31 17 be ad a2 04 3d
       0.057034492 1.4210037 -0.14764795 0.032381702
000020 1c 21 29 3f 1e 81 65 bf 8d bd 6f bf 45 2c db 3d
       0.66066146 -0.8965014 -0.93648607 0.10701803
000030 27 3b 1f be 40 2a 81 3f 20 3b 22 bc
       -0.15549909 1.0091019 -0.009901792

_embedding_layer.cat_embedding_layers.2.weight f4 [5, 3]
000000 70 14 66 be cf 88 a8 bf 27 18 31 3f 1d 4f 05 bf
       -0.22468734 -1.3166751 0.6917748 -0.5207384
000010 7e 93 4e bd fd 05 cd bf 62 76 5c 3f a8 9b 9d 3f
       -0.05043363 -1.6017452 0.8611814 1.2313128
000020 5a 3d 93 3e 73 da 1a 3f e8 67 14 3f e2 03 7f bf
       0.28757745 0.6048958 0.5797105 -0.996153
000030 e9 1d 23 c0 b1 a0 d9 bf b9 ef c4 3f
       -2.5487006 -1.7002164 1.5385658

_embedding_layer.cat_embedding_layers.3.weight f4 [5, 3]
000000 41 bd 93 3f ec 8f 90 3f 94 2d 4f be 79 2b 10 bf
       1.1542131 1.1293921 -0.2023223 -0.56316334
000010 e3 a7 a6 3c 81 a7 5f 3e ab a1 61 3e f4 2d bc be
       0.020343727 0.21841241 0.22034328 -0.3675381
000020 f1 89 4b bf eb 68 aa 3f 55 86 aa 3c 8a 75 6f 3e
       -0.79507357 1.3313268 0.020816008 0.23384681
000030 bb 5c 08 bf 72 b1 04 bf 8c bf f8 bd
       -0.53266495 -0.5183326 -0.1214591

_embedding_layer.normalizing_batch_norm.weight f4 [16]
000000 f5 2b a8 3e ef 13 03 40 35 06 2e 3e f7 be 25 40
       0.32846037 2.0480917 0.16994555 2.5897806
000010 30 e3 a6 3e d7 93 e3 3d 6a af bd 3e 6c 94 e5 3f
       0.32595205 0.111121826 0.37047893 1.793592
000020 d0 cd 5d 3e 95 8c e9 3e a0 c3 0c 40 bd ce 61 3d
       0.21660542 0.45615068 2.19944 0.0551288
000030 b2 51 a2 3e e4 b3 88 be ef c2 73 3e a4 41 a7 3d
       0.31702954 -0.26699746 0.2380483 0.08166817

_embedding_layer.normalizing_batch_norm.bias f4 [16]
000000 8f 2c 0e bf ca c1 77 bf ec 74 c5 bd 7f 17 2e be
       -0.5553674 -0.96780074 -0.09641442 -0.1700115
000010 b6 ce 18 3f a3 bf 70 3e 37 51 8d 3c f5 46 7e 3e
       0.59690416 0.23510604 0.01725064 0.24831755
000020 35 bc 5e 3e cc eb fb 3d 57 e0 c4 3e 6a 08 0c bf
       0.21751483 0.12300834 0.38452408 -0.5470034
000030 03 f5 7f bd b6 e7 00 bf 75 07 1e 3c 63 a8 30 3f
       -0.06248952 -0.5035356 0.009645333 0.6900694

_embedding_layer.normalizing_batch_norm.running_mean f4 [16]
000000 e0 af 88 3b 5a 0c d6 3a fb 37 bd 3a 33 bc 97 38
       0.0041713566 0.0016330585 0.0014436239 7.235296e-05
000010 98 5b d7 3a db 0a e6 3a af 45 9d 3a a2 0b bb 3a
       0.0016430495 0.0017550843 0.0011998917 0.0014270435
000020 3d 7d 02 bb eb 35 7d bb 23 5b bc 38 d9 e3 be 3a
       -0.0019911074 -0.0038636874 8.981514e-05 0.0014563754
000030 25 5a a7 3b 50 be e4 3b 60 9c 90 ba 50 14 16 bc
       0.0051071816 0.006980695 -0.0011032932 -0.009160116

_embedding_layer.normalizing_batch_norm.running_var f4 [16]
000000 f5 bc 7e 3f fc 46 7f 3f 15 2d 7e 3f 06 0d 80 3f
       0.99507076 0.9971769 0.9928754 1.0003974
000010 b7 2a 80 3f 4d 53 80 3f 40 e7 7d 3f b5 58 80 3f
       1.0013036 1.0025421 0.99180984 1.0027071
000020 75 c9 80 3f 08 88 80 3f 5a b9 80 3f c8 7d 7e 3f
       1.006148 1.0041513 1.0056565 0.99410677
000030 23 c5 7f 3f 11 87 7f 3f e5 38 80 3f 2e 41 7f 3f
       0.9991018 0.9981547 1.0017363 0.9970883

head.layers.0.weight f4 [2, 16]
000000 0c 23 52 3f 8d 6a da 3c 20 43 a1 3e 70 b6 27 3f
       0.8208473 0.026662135 0.31496525 0.6551275
000010 8f c6 0a 3f ed 5c 9b 3f ff a4 09 3e 26 91 91 3e
       0.54209226 1.2137734 0.13441847 0.28431052
000020 26 5b 31 be 1a 98 fc be ea 1d e7 3e 03 e4 24 3f
       -0.17319927 -0.49334794 0.4514001 0.6441042
000030 58 36 c7 3e a9 b8 44 3e ef 14 00 bd 31 df 65 3f
       0.38908648 0.19211067 -0.031269964 0.8979369
000040 0b 26 b1 bd 8d 32 b8 be 60 3c 01 3c 85 06 6b be
       -0.08649834 -0.35976067 0.00788793 -0.22951706
000050 0f 00 2e be ee 65 53 3c d5 f6 78 3e 7d 52 ba 3b
       -0.1699221 0.01290272 0.24312909 0.005686103
000060 a8 86 b5 3e 13 17 a4 3d 30 df ac bc f9 05 98 be
       0.35454297 0.080122136 -0.021102518 -0.29692057
000070 0b 42 8f 3e c5 d1 f7 be 53 ec cb 3e 1b 12 a7 bf
       0.27980074 -0.4840223 0.3982874 -1.30524

head.layers.0.bias f4 [2]
000000 29 7c 22 3e 65 03 3c be
       0.15867676 -0.1836067

exp_avg f4 [32, 28]
000000 72 ee 11 b7 43 49 61 38 f4 79 33 b6 fb d4 57 b7
       -8.698191e-06 5.371241e-05 -2.6744065e-06 -1.2864587e-05
000010 e4 0b 71 b7 ee 84 2f 34 12 ed b8 36 80 1c 8b 37
       -1.4367488e-05 1.6346505e-07 5.511226e-06 1.6583363e-05
000020 97 86 0e 37 b5 4c db 36 eb ba c5 b7 9d 18 da 36
       8.495196e-06 6.5356385e-06 -2.357127e-05 6.4997716e-06
000030 e1 ea b9 36 78 d0 7c 37 5b 9c 4b 37 82 d7 f7 b6
       5.540773e-06 1.5068908e-05 1.2136147e-05 -7.386262e-06
000040 98 54 d1 34 0a 79 5a 37 4d 1c c1 b5 97 0b 3e 35
       3.8990834e-07 1.3021994e-05 -1.4387857e-06 7.079738e-07
000050 c0 85 48 b6 54 7c b5 b6 fc 0c 0b b7 59 c6 0a b7
       -2.9880175e-06 -5.408694e-06 -8.288069e-06 -8.271622e-06
000060 9e 3a 42 36 dc 93 39 37 41 81 a4 b6 08 a5 3c b7
       2.8942372e-06 1.10612855e-05 -4.902628e-06 -1.1244098e-05
000070 80 df 3c 39 8e 8e ab ba 4e 4a 7d 38 fe c2 a2 3a
       0.00018012337 -0.0013088749 6.0389102e-05 0.0012417731
000080 ce a7 01 38 c5 99 05 b8 ca 46 64 39 b9 09 7d ba
       3.0912277e-05 -3.185288e-05 0.00021770145 -0.0009652633
000090 b3 63 34 39 11 84 d6 b8 5f cc 24 ba e1 ab 53 39
       0.00017203279 -0.000102289145 -0.0006286557 0.00020186558
0000a0 f7 b4 c7 38 6b 88 3b 39 d0 91 35 39 ea 90 88 b9
       9.522767e-05 0.0001788453 0.00017315825 -0.0002604791
0000b0 bb 2e 97 b9 a7 8f 0f 3a c5 4e cc b9 8e 1f 34 39
       -0.0002883578 0.0005476423 -0.000389686 0.00017177893
0000c0 d0 ea 05 39 8b 4c 87 37 76 2c 01 3b 6d 93 cc 3a
       0.00012771343 1.6128897e-05 0.0019710339 0.0015607901
0000d0 e6 1b 0d bb 8f 4a 94 39 6e 56 25 38 ea bb 16 b9
       -0.0021531521 0.0002828431 3.941956e-05 -0.00014375118
0000e0 68 f4 53 b6 ad 0d 30 38 a6 f2 1d b8 5f 0c b3 3a
       -3.1583713e-06 4.1974406e-05 -3.76577e-05 0.0013660303
0000f0 8f 46 2f b9 57 a9 01 b8 0a bf d4 38 0d 02 f5 38
       -0.00016715586 -3.0913707e-05 0.000101445316 0.00011682892
000100 55 ec a9 b8 9b 86 43 37 5f c4 8b 3a e8 26 4a 38
       -8.102568e-05 1.1654246e-05 0.0010663382 4.8196787e-05
000110 f8 fe 09 b8 56 c1 e8 38 5b cd f8 b7 15 37 30 b8
       -3.2900803e-05 0.00011098634 -2.965953e-05 -4.201297e-05
000120 42 db a4 39 b2 2c f7 38 10 e1 43 38 85 8a 5f b9
       0.00031443877 0.00011786203 4.670123e-05 -0.0002131854
000130 3c c7 c8 37 93 5f ba b9 bb 11 85 b9 85 1b 5e b9
       2.3934634e-05 -0.00035547893 -0.00025380947 -0.00021181822
000140 a4 6a 32 b9 2a d5 cb 38 1b 60 7d b8 03 bc 0a b9
       -0.0001701513 9.719499e-05 -6.0409406e-05 -0.00013230745
000150 4d c5 82 b7 7f e3 e3 37 ce 4c 12 b7 53 c8 7e b8
       -1.5589083e-05 2.7166445e-05 -8.720161e-06 -6.0744886e-05
000160 5a 6d b2 37 22 28 3f b5 2c 54 c7 36 55 1a 50 38
       2.1270174e-05 -7.1211446e-07 5.940461e-06 4.9615588e-05
000170 0d e9 e7 b5 d6 a1 8b 36 d3 4e 90 b8 3d d0 59 b7
       -1.7278668e-06 4.161363e-06 -6.881137e-05 -1.2982692e-05
000180 d4 4d 0f b7 53 7c c6 b7 a6 d9 4c b6 77 64 d6 37
       -8.541585e-06 -2.3661332e-05 -3.0525057e-06 2.555757e-05
000190 16 23 59 b7 d9 c0 5e b8 65 fc 7f 37 9a ed 65 b7
       -1.2942377e-05 -5.3108528e-05 1.525795e-05 -1.3704785e-05
0001a0 83 b8 6e 37 0f 5a 10 36 4e b9 9a b8 d7 17 3d b8
       1.4228865e-05 2.1510093e-06 -7.377808e-05 -4.5083314e-05
0001b0 35 76 a9 37 eb fb a5 36 ae de cb b6 28 26 a5 35
       2.0201414e-05 4.9467103e-06 -6.0757948e-06 1.2304563e-06
0001c0 dc 3e 62 b7 32 5b 52 3a 3a 01 f6 36 6c d0 99 b9
       -1.3485285e-05 0.00080244534 7.331514e-06 -0.0002933772
0001d0 9b aa 64 38 5b c8 d2 b7 66 24 0d 39 3a 00 8a b7
       5.4518325e-05 -2.5127249e-05 0.00013460367 -1.6450987e-05
0001e0 3f 41 1c 39 59 5f d5 b8 f4 33 3a b9 19 32 4b 38
       0.00014901625 -0.00010174391 -0.00017757696 4.844563e-05
0001f0 64 8c d8 b8 78 b2 8b 39 2f 72 49 38 fa 24 cb b8
       -0.000103258324 0.00026645116 4.8028476e-05 -9.686682e-05
000200 8f 11 28 39 94 b5 90 39 08 34 68 b9 bd 16 7e b8
       0.0001602827 0.00027601107 -0.00022144627 -6.0579496e-05
000210 a0 f4 25 39 52 4a 72 b9 63 fd d0 38 f8 14 b0 38
       0.00015826756 -0.00023106605 9.96541e-05 8.39624e-05
000220 b8 4c 9b b6 35 36 2a b8 4e af 9d b8 93 39 9b b8
       -4.628291e-06 -4.0581643e-05 -7.5189964e-05 -7.4017e-05
000230 7f d5 02 b7 04 34 23 b6 6b 41 4d b6 49 67 b2 b7
       -7.798312e-06 -2.431917e-06 -3.0585459e-06 -2.126735e-05
000240 52 b8 2b 37 b7 2b ef 35 28 66 9f 35 b9 6a df 37
       1.023531e-05 1.781961e-06 1.1876155e-06 2.6633368e-05
000250 dc b3 0d 36 41 7f 26 b7 5f 1c 79 b8 8a 4e 26 b7
       2.111533e-06 -9.924e-06 -5.939265e-05 -9.912657e-06
000260 76 ee 76 b5 3a 69 74 b7 00 24 64 36 ae 8e 9a 37
       -9.198915e-07 -1.4568033e-05 3.3995602e-06 1.8424671e-05
000270 5d 33 2c b7 c2 49 19 b8 55 f3 72 37 50 49 35 b5
       -1.0263958e-05 -3.6546735e-05 1.4480979e-05 -6.753444e-07
000280 73 1a 90 37 d4 78 11 37 75 e0 39 37 c8 4d 8f 37
       1.7178454e-05 8.670806e-06 1.107912e-05 1.7083148e-05
000290 6c dc 0d b8 89 a3 94 36 cb 9e 1a b7 43 0e 1f b7
       -3.3822304e-05 4.4297817e-06 -9.216087e-06 -9.480459e-06
0002a0 b0 aa bb 39 ee 54 4d b9 e8 c7 51 38 3f 3c 29 39
       0.00035794592 -0.00019581962 5.001566e-05 0.0001613954
0002b0 70 f9 bc b9 ab 0d 12 b9 f3 b4 3e 35 3f 12 8d ba
       -0.00036044 -0.00013928737 7.104383e-07 -0.0010762884
0002c0 43 2a 2c b9 6a 81 56 b9 51 c3 02 ba 4c 80 86 39
       -0.00016418942 -0.00020456841 -0.0004988211 0.0002565406
0002d0 0a aa 0f 39 c8 ab 45 39 03 8b ce 38 fa 76 85 b9
       0.00013700887 0.00018851378 9.8487384e-05 -0.0002545638
0002e0 ba 1c 65 37 95 ff ee 39 7d 9e 46 b9 10 fb 43 39
       1.3656152e-05 0.0004558532 -0.00018941793 0.00018690177
0002f0 93 88 3e 39 b0 a0 01 b9 26 a7 b4 3a 8c 39 8a 3a
       0.0001817069 -0.0001236226 0.0013782724 0.0010545715
000300 b4 bc 7a ba 07 9a 8b b7 ed 28 72 38 9c f6 07 b8
       -0.0009564862 -1.6641816e-05 5.773541e-05 -3.241618e-05
000310 ed 2c dd b9 05 55 9c 39 4a d0 d3 b8 47 f6 eb ba
       -0.00042185877 0.00029817983 -0.00010100061 -0.0018002474
000320 75 25 2e 3a 02 d1 4d 39 05 5b 73 b8 9c f2 90 3a
       0.0006643155 0.00019628185 -5.8020483e-05 0.0011058631
000330 b3 86 66 37 a4 9a 91 b7 18 29 07 bb 52 44 bc b9
       1.374043e-05 -1.7357357e-05 -0.002062386 -0.00035909057
000340 30 66 93 b8 c3 72 49 b9 db 48 14 38 17 7f df 39
       -7.02854e-05 -0.00019211606 3.53538e-05 0.00042628564
000350 de f3 58 b9 69 fd 96 ba fc 46 bd 39 12 ab b1 b7
       -0.00020690213 -0.0011519614 0.00036101777 -2.1179705e-05
000360 c8 7a 33 3a 66 b9 c7 39 a0 5a ed 39 64 45 30 3a
       0.0006846604 0.0003809437 0.00045271683 0.0006724207
000370 1b fa 11 ba cb 5d a9 39 ef 22 65 b9 ab 63 9f b9
       -0.00055685797 0.00032304073 -0.00021852156 -0.00030401102
000380 ce 7f 89 37 47 a4 ad b8 0f 8d 57 b8 82 5b f5 b9
       1.6391186e-05 -8.279882e-05 -5.1391366e-05 -0.0004679822
000390 a4 c6 30 39 fb e9 26 37 2b 60 f3 37 9c 3c f5 b8
       0.00016858667 9.948849e-06 2.9012639e-05 -0.000116938
0003a0 ff 47 18 37 b4 e3 68 b9 37 29 e2 39 47 0b a5 b7
       9.076669e-06 -0.0002221007 0.00043136787 -1.9674784e-05
0003b0 52 ef 25 36 a5 c1 3f b8 db 66 b3 b8 01 7b c7 38
       2.4726219e-06 -4.5718294e-05 -8.5545435e-05 9.511971e-05
0003c0 b0 06 dc b8 41 be 22 39 00 b0 a9 b8 c7 9d 49 b9
       -0.00010491663 0.00015520399 -8.0913305e-05 -0.0001922763
0003d0 8d af 8c 37 3b 35 95 b9 6d cc 86 ba c9 04 85 ba
       1.6771048e-05 -0.00028459154 -0.0010284312 -0.0010148521
0003e0 49 ed 16 b9 29 03 84 b9 82 06 a2 b8 c6 11 34 b9
       -0.0001439351 -0.00025179356 -7.725974e-05 -0.00017172759
0003f0 13 9f e7 b6 a0 6a f4 b7 0b ba a2 b6 a1 3c b0 b8
       -6.902855e-06 -2.9136718e-05 -4.8496345e-06 -8.403627e-05

exp_avg_sq f4 [32, 28]
000000 43 e2 93 33 9d 4e 0e 35 81 68 36 34 40 d3 8a 34
       6.886378e-08 5.301352e-07 1.6988089e-07 2.5858208e-07
000010 2a a9 21 33 53 28 8d 33 31 56 ba 33 19 b0 cc 34
       3.7639587e-08 6.573159e-08 8.676978e-08 3.812609e-07
000020 8d b2 bb 32 d1 67 80 34 b7 9a a8 34 b7 56 58 33
       2.185086e-08 2.3917394e-07 3.1405008e-07 5.0370286e-08
000030 08 c0 1b 34 87 81 bd 33 c1 6c 5f 34 bb 21 61 33
       1.450536e-07 8.824559e-08 2.0808058e-07 5.2417573e-08
000040 ac 19 07 36 c4 36 05 36 8c 4b 7d 35 37 e2 0c 36
       2.013151e-06 1.9850422e-06 9.435978e-07 2.09933e-06
000050 60 57 d9 33 4b 7f b1 33 93 a5 28 36 49 f4 85 35
       1.0120743e-07 8.265359e-08 2.5130328e-06 9.980369e-07
000060 8d 79 10 35 be 63 d7 34 87 f6 be 34 7e f4 8d 34
       5.382106e-07 4.0119443e-07 3.556963e-07 2.6441188e-07
000070 a9 08 0b 34 f6 8e 8d 35 75 71 07 34 30 f7 42 36
       1.2948534e-07 1.0546926e-06 1.261413e-07 2.9052135e-06
000080 d9 f5 7e 34 cc 89 c2 33 a0 22 c9 34 22 55 38 36
       2.3745032e-07 9.058894e-08 3.746436e-07 2.746769e-06
000090 71 07 ea 33 25 7a 52 34 d3 1e 18 36 93 1f a6 34
       1.0897828e-07 1.960221e-07 2.2667707e-06 3.0942883e-07
0000a0 fa ee 59 34 64 6c 78 34 da bf 84 34 14 cf d8 34
       2.0296639e-07 2.3136232e-07 2.4726506e-07 4.0383804e-07
0000b0 5a e4 d1 35 33 e6 3b 36 8b 89 63 35 2f 08 03 36
       1.5638172e-06 2.7999165e-06 8.476424e-07 1.9525285e-06
0000c0 2c 97 93 34 b6 75 92 35 bd 08 43 36 4b 70 b1 35
       2.7490876e-07 1.0912106e-06 2.906235e-06 1.3220209e-06
0000d0 ca 9b a1 35 7c 9b 5e 35 3f 16 1a 35 7d 1e ca 34
       1.2040775e-06 8.2927704e-07 5.7401843e-07 3.7647615e-07
0000e0 cd 60 d9 33 38 34 db 34 a4 5e 19 34 eb ea 25 36
       1.0122458e-07 4.0829923e-07 1.4283665e-07 2.4723656e-06
0000f0 97 06 c9 33 89 a1 93 33 86 f3 99 33 d3 03 ad 35
       9.3609906e-08 6.874604e-08 7.168914e-08 1.2890617e-06
000100 1f bc 67 34 d8 c7 68 33 3e 27 56 35 53 89 10 34
       2.158199e-07 5.4198466e-08 7.977832e-07 1.3461003e-07
000110 8d 94 93 33 4d 80 09 34 38 a5 e7 32 68 90 67 34
       6.872242e-08 1.2805795e-07 2.6967072e-08 2.1566086e-07
000120 96 27 e1 34 b9 8e b6 35 08 ca b3 34 cd 45 b2 33
       4.1938318e-07 1.3601594e-06 3.3488345e-07 8.3014676e-08
000130 90 ee 14 34 6c 5f af 34 18 49 66 35 14 4a d5 34
       1.3870363e-07 3.266572e-07 8.578804e-07 3.972824e-07
000140 fe cc dd 34 97 8c 9f 34 7f 71 8a 34 a1 e2 0e 34
       4.131361e-07 2.971835e-07 2.5787082e-07 1.3307228e-07
000150 f6 3f 8b 33 98 8b e3 33 be 70 ef 33 77 87 cd 34
       6.484326e-08 1.0595903e-07 1.11498125e-07 3.828279e-07
000160 01 7f 1c 33 5d 99 96 32 31 af c6 32 c5 84 57 34
       3.643709e-08 1.753204e-08 2.3129902e-08 2.0071737e-07
000170 96 8d 72 33 ed d0 17 33 0b 02 69 34 d8 29 5e 33
       5.6473787e-08 3.5347444e-08 2.1700559e-07 5.172646e-08
000180 5a 2d 7f 33 77 32 c2 33 e2 6a 47 33 d2 b9 81 33
       5.941306e-08 9.0430085e-08 4.6430507e-08 6.040831e-08
000190 b1 1c c6 33 c1 70 7b 34 4e fe 5b 34 24 ae f5 33
       9.2253124e-08 2.3417216e-07 2.048848e-07 1.14403775e-07
0001a0 5f 4e ea 33 67 fd 1a 33 a3 02 00 35 14 1a 8d 34
       1.091073e-07 3.6086387e-08 4.768755e-07 2.628227e-07
0001b0 22 44 8b 34 e7 6b 4a 33 6e 4f 0a 33 e3 a2 ef 32
       2.594034e-07 4.7129927e-08 3.220287e-08 2.7897334e-08
0001c0 18 7f 69 34 51 a9 8e 36 71 20 3d 34 0c bf 83 36
       2.1746052e-07 4.251641e-06 1.7613799e-07 3.926345e-06
0001d0 35 d9 f2 34 d9 8c e0 33 3e 4b e5 33 78 54 ba 35
       4.5234052e-07 1.0456433e-07 1.067733e-07 1.3882664e-06
0001e0 b0 62 d4 34 3a 76 f5 33 ff 4f 51 36 68 77 d8 34
       3.9559882e-07 1.1430207e-07 3.118999e-06 4.0320015e-07
0001f0 a9 e3 59 33 ca a0 a5 34 12 70 4a 34 a9 09 ec 34
       5.0731305e-08 3.0850634e-07 1.8853487e-07 4.3965454e-07
000200 64 4a 8c 35 59 bb 42 36 3c 6a a7 35 34 b7 82 35
       1.0452463e-06 2.9017303e-06 1.2473388e-06 9.739074e-07
000210 e4 5c e2 34 78 f3 36 35 1e 21 ee 35 05 b0 52 35
       4.2163367e-07 6.8154577e-07 1.774202e-06 7.848724e-07
000220 46 6a a8 35 a0 70 dd 34 1f 6e 5e 35 e3 7b b6 34
       1.2547905e-06 4.1246403e-07 8.286169e-07 3.399028e-07
000230 f7 ab b1 32 e8 c7 ea 34 4e c0 6b 32 44 9e 31 34
       2.0683713e-08 4.3731347e-07 1.3722525e-08 1.6541986e-07
000240 75 42 e2 32 36 d2 83 32 da 1d 38 33 c3 97 1e 34
       2.6340084e-08 1.5346e-08 4.286799e-08 1.4770107e-07
000250 d5 29 83 32 16 c6 77 33 18 97 43 35 0f fb e0 32
       1.526943e-08 5.7689327e-08 7.286303e-07 2.61912e-08
000260 d2 be cc 32 2a f0 40 33 65 28 8e 32 c1 0c 1d 32
       2.38355e-08 4.492191e-08 1.6549345e-08 9.141503e-09
000270 04 82 a7 34 64 4e ae 34 4c 7d 70 36 8a 50 54 34
       3.1200773e-07 3.2467062e-07 3.583572e-06 1.9773339e-07
000280 ea 64 87 32 e8 0d d2 34 12 63 be 34 2c 57 3f 35
       1.5761959e-08 3.9125666e-07 3.546234e-07 7.1279896e-07
000290 63 c8 e4 33 54 9e d2 34 6d 80 3b 34 44 78 3b 34
       1.06535275e-07 3.9230747e-07 1.7462453e-07 1.7459485e-07
0002a0 da df ca 33 25 6e ba 34 1c 6d c0 33 83 0a 8f 35
       9.4470764e-08 3.472534e-07 8.9605436e-08 1.065739e-06
0002b0 4e f2 b1 33 59 42 1c 33 98 60 19 34 d2 1b 49 35
       8.28628e-08 3.6381923e-08 1.4284376e-07 7.491882e-07
0002c0 6f a2 c9 33 53 69 9d 33 c3 90 72 35 ac 22 c0 33
       9.3893384e-08 7.3300406e-08 9.036268e-07 8.9470035e-08
0002d0 94 4f 24 33 0f fb 58 34 20 f5 9c 33 78 5b 3f 34
       3.82566e-08 2.0207902e-07 7.308904e-08 1.7821537e-07
0002e0 27 2a 30 34 a6 9d f2 34 06 b6 c7 35 aa 13 5d 35
       1.6406612e-07 4.5190717e-07 1.4879631e-06 8.235753e-07
0002f0 70 b7 42 34 4a a4 16 35 bf c3 d8 35 fa 03 56 35
       1.8134392e-07 5.6118427e-07 1.6150224e-06 7.9727e-07
000300 3e 93 73 35 59 9d 97 34 57 2a 87 34 17 11 71 34
       9.073882e-07 2.8240427e-07 2.5176516e-07 2.2451091e-07
000310 3d 54 3a 34 5e 8a 6b 35 99 bd bd 33 4c b1 cf 35
       1.7353246e-07 8.774567e-07 8.835486e-08 1.5474302e-06
000320 91 4c 22 34 d5 4b b6 33 44 ba 82 33 01 1b 4a 35
       1.511528e-07 8.488829e-08 6.087478e-08 7.529016e-07
000330 58 6f b3 33 e3 15 53 34 68 92 b1 35 12 89 68 34
       8.35559e-08 1.9658869e-07 1.3230137e-06 2.165655e-07
000340 2f c9 84 33 67 1d 58 34 7c 34 7a 33 28 08 8a 34
       6.183324e-08 2.0127264e-07 5.8255395e-08 2.5710438e-07
000350 64 22 2b 35 2b b5 d5 35 38 d1 35 35 45 6f 02 35
       6.375251e-07 1.5922463e-06 6.773221e-07 4.859069e-07
000360 f0 d3 2c 34 9d c7 9b 34 f5 1d fe 34 89 10 30 35
       1.609585e-07 2.9016238e-07 4.7332983e-07 6.558917e-07
000370 ed 56 7c 34 22 19 0b 35 53 ce 4c 34 77 5b a3 34
       2.3500952e-07 5.181811e-07 1.9074041e-07 3.0427665e-07
000380 b0 e1 cc 34 6e 81 45 36 89 50 af 34 6b 9e 9b 36
       3.816217e-07 2.9430626e-06 3.2654887e-07 4.6378022e-06
000390 d4 99 d7 34 69 15 ba 34 1c 32 32 34 dc 03 ec 35
       4.0158795e-07 3.4660778e-07 1.6595772e-07 1.7584493e-06
0003a0 5c 61 1a 34 ad 6f 99 34 75 0f 9f 36 2b 30 19 35
       1.4377787e-07 2.8579726e-07 4.7403687e-06 5.7067035e-07
0003b0 ec be 01 34 ab 6f 0b 35 47 fa 31 34 50 51 4e 35
       1.2083518e-07 5.1944033e-07 1.657546e-07 7.6859305e-07
0003c0 7f 16 77 36 c0 b2 f2 36 4b ea 95 35 0c 5e 53 36
       3.6818963e-06 7.2329713e-06 1.1169553e-06 3.1496193e-06
0003d0 ee 95 2a 35 80 5b 8a 35 29 de 8e 36 fd 17 f9 35
       6.354811e-07 1.0308431e-06 4.2577926e-06 1.8558927e-06
0003e0 8a f5 0f 36 7b 80 e8 35 46 44 ad 35 20 bf 9a 35
       2.1451583e-06 1.732274e-06 1.2909375e-06 1.1529519e-06
0003f0 c2 f4 43 33 a1 63 bc 33 ba 36 5e 33 6f 73 5c 35
       4.562458e-08 8.7725546e-08 5.1738176e-08 8.2124365e-07

exp_avg f4 [32]
000000 e3 d9 c3 b6 31 84 cd b9 32 13 55 b8 2c 6d 16 38
       -5.836818e-06 -0.00039199137 -5.0801034e-05 3.586446e-05
000010 7b 11 d8 b6 a3 9e ae 37 04 a8 f0 b9 94 0c 5c 3a
       -6.4393366e-06 2.0816287e-05 -0.0004590155 0.0008394208
000020 76 17 57 b8 21 63 07 38 08 cb aa 37 35 28 73 b9
       -5.1281844e-05 3.227883e-05 2.0360123e-05 -0.00023189264
000030 18 d8 bd 3a bd b0 ea 39 7f 04 78 39 fc 60 38 ba
       0.0014483957 0.00044763638 0.00023652798 -0.0007033495
000040 75 f0 3e 3a 9c 81 43 38 ee 8a b1 b7 ec c6 30 39
       0.00072837557 4.661233e-05 -2.1164738e-05 0.00016858772
000050 68 ac 2f 39 12 5c c7 37 53 b4 b2 b4 c1 1f 8a 3a
       0.00016753527 2.3765522e-05 -3.3286287e-07 0.0010538028
000060 d8 c3 dc 37 9f 6f f7 37 56 44 53 39 50 80 b7 b9
       2.631724e-05 2.9496672e-05 0.00020147985 -0.0003500008
000070 9a 59 03 39 27 b8 10 3a 33 d2 5c 38 55 cd 80 39
       0.00012526513 0.0005520605 5.264785e-05 0.00024567047

exp_avg_sq f4 [32]
000000 f1 76 1c 36 92 9a 79 36 fb 29 37 35 b2 aa 0d 34
       2.3315044e-06 3.7193863e-06 6.82339e-07 1.3193747e-07
000010 53 32 29 36 0c bc 9f 35 66 7c c9 35 79 7a 94 35
       2.5212255e-06 1.1901152e-06 1.5011872e-06 1.1062504e-06
000020 3b ed 98 36 20 c9 ba 35 a4 81 b1 34 f7 d6 45 36
       4.5575703e-06 1.3916615e-06 3.3063145e-07 2.9480414e-06
000030 b0 fe 11 37 93 59 88 36 a4 f4 14 35 a4 4f f4 35
       8.701973e-06 4.0635437e-06 5.5490295e-07 1.8202595e-06
000040 02 3f a1 36 33 3e f4 35 a5 63 70 34 e2 1d 94 36
       4.805509e-06 1.8197519e-06 2.2387992e-07 4.4142225e-06
000050 ce c9 ff 35 4d b9 07 36 c5 bf 29 36 55 4f 18 36
       1.9057713e-06 2.0224427e-06 2.5294587e-06 2.2695942e-06
000060 fb 54 0c 34 6f f1 18 35 4d 02 ee 34 ae fd 70 36
       1.3069432e-07 5.6975745e-07 4.433263e-07 3.5910448e-06
000070 1d f1 55 35 60 02 07 37 d9 e6 1b 36 f1 4b b0 35
       7.969955e-07 8.04718e-06 2.323117e-06 1.3135124e-06

exp_avg f4 [16, 32]
000000 4e 40 c2 37 9a 2d 81 b9 79 35 be ba 36 b0 84 38
       2.3156546e-05 -0.00024638773 -0.0014511786 6.327072e-05
000010 0e ca 97 b9 69 3e c9 37 62 75 02 39 b1 2e a3 b7
       -0.00028951507 2.399013e-05 0.00012441495 -1.9452857e-05
000020 1b 19 82 38 e7 71 7f 38 53 f1 f6 37 56 56 7c 38
       6.203559e-05 6.0902817e-05 2.943786e-05 6.016189e-05
000030 f0 f3 28 37 4d 74 28 38 23 7b a9 38 84 9e f9 ba
       1.0070376e-05 4.0162635e-05 8.081484e-05 -0.0019044434
000040 fd c6 db b8 e3 42 78 38 25 82 12 38 cb 46 55 38
       -0.00010479798 5.91901e-05 3.493032e-05 5.084909e-05
000050 a0 95 59 38 fb a2 30 38 f5 a3 da 37 e7 d7 89 b7
       5.187618e-05 4.2113457e-05 2.6063974e-05 -1.643221e-05
000060 0b 16 05 38 f6 30 37 38 43 4f 86 38 da d1 a6 38
       3.17302e-05 4.36762e-05 6.4043816e-05 7.954585e-05
000070 b4 d6 93 b9 78 f7 18 b9 7e a1 35 38 6c d7 07 38
       -0.0002819799 -0.00014588039 4.3304164e-05 3.2387135e-05
000080 82 f3 25 38 d9 d9 0c bb fe 61 c6 ba 85 e3 0d 39
       3.956585e-05 -0.0021492152 -0.0015135405 0.00013531565
000090 37 c0 88 39 38 ad 4a 38 56 e5 d2 ba 6a ab 68 b9
       0.00026083153 4.8321876e-05 -0.0016090076 -0.00022189101
0000a0 c6 4b b8 b8 bf 46 9f 38 5d ea 0f 38 5a 37 91 b9
       -8.7879176e-05 7.594888e-05 3.4312125e-05 -0.00027697795
0000b0 e8 ae 66 ba 7a d7 48 b9 01 d4 84 39 27 9c 3a bb
       -0.0008799867 -0.00019153758 0.00025334957 -0.0028474422
0000c0 41 8e 27 b9 0a 1e 44 39 57 52 9d 39 18 af 5f 39
       -0.00015979355 0.00018703207 0.00030006721 0.00021332165
0000d0 01 61 3f b8 08 ea 79 38 bb a1 7b 38 af fd 12 ba
       -4.562829e-05 5.9584185e-05 5.9993687e-05 -0.000560726
0000e0 25 aa 34 38 ae c8 b3 38 f5 fa 7c 39 1f fc f6 ba
       4.3073804e-05 8.572765e-05 0.00024126082 -0.0018843448
0000f0 5a 77 3d ba 9f 96 3b ba 3e b7 16 37 1b d5 3e 39
       -0.00072275626 -0.0007155928 8.983361e-06 0.000181992
000100 f0 a7 e2 b6 a9 ad a4 39 c5 29 0e 3a c1 8a 07 38
       -6.7548754e-06 0.00031409904 0.0005423094 3.2315733e-05
000110 d9 47 10 b8 a8 5f 85 b6 8f ba 8f 39 52 5b b1 b7
       -3.439919e-05 -3.9748447e-06 0.00027414082 -2.1142569e-05
000120 df c8 f2 35 ca 59 82 b6 06 76 c8 b6 bf cb 19 b7
       1.8088866e-06 -3.8847547e-06 -5.974204e-06 -9.166949e-06
000130 8e 53 e8 b6 e4 c9 8a 38 ef 72 35 3a 0e 7e cb b8
       -6.923866e-06 6.617958e-05 0.00069217285 -9.703274e-05
000140 c1 67 8e 35 08 ee 56 b7 16 a3 53 b6 cd ed 5e b7
       1.0610021e-06 -1.2810815e-05 -3.1536379e-06 -1.3287598e-05
000150 c7 29 ab b6 c0 1e 76 b6 73 8b 00 b7 a8 67 83 35
       -5.1010607e-06 -3.6674755e-06 -7.661863e-06 9.790429e-07
000160 44 f4 cb b6 10 07 a2 b6 bf 3d dc 36 e2 d8 04 b7
       -6.0783077e-06 -4.8287984e-06 6.563699e-06 -7.91831e-06
000170 99 55 8b b7 96 35 07 b7 29 78 d3 b6 af 1c 34 3a
       -1.660995e-05 -8.0591035e-06 -6.3022785e-06 0.0006870729
000180 79 55 4c 36 3d 04 3e b8 3d 9c b0 38 a6 3f e5 37
       3.044812e-06 -4.5303477e-05 8.4214356e-05 2.7328566e-05
000190 4d 4f 5f 39 66 3c 2b 37 0f 9d a5 b7 f4 18 a1 38
       0.00021296479 1.0206457e-05 -1.9742669e-05 7.681726e-05
0001a0 42 b7 9e 38 2c 9f 06 38 e6 c3 70 37 eb 10 05 38
       7.5681615e-05 3.209633e-05 1.4350726e-05 3.1725427e-05
0001b0 e0 fa 99 37 ad 00 94 b6 eb c9 c5 37 e7 a3 33 ba
       1.8355844e-05 -4.4108224e-06 2.3578255e-05 -0.00068527315
0001c0 ca 6f 86 38 8b 25 6b 38 2c 92 0b 38 6a bd 1a 38
       6.41044e-05 5.606333e-05 3.3276316e-05 3.6892867e-05
0001d0 6d f3 71 38 c0 a6 c6 37 85 59 97 37 62 80 98 36
       5.7685585e-05 2.3681088e-05 1.8042289e-05 4.5448987e-06
0001e0 96 b8 1d 37 f3 84 0c 37 fb df 80 38 31 e1 d3 b5
       9.4009065e-06 8.375605e-06 6.145235e-05 -1.5786264e-06
0001f0 07 2c 98 b8 21 b2 26 37 1a da 5b 37 19 d9 29 38
       -7.2561255e-05 9.935845e-06 1.3104198e-05 4.0494928e-05
000200 b3 0b 2d b7 d5 2c 2a 3a 4d 9c 62 ba 73 41 55 b4
       -1.03143275e-05 0.0006491666 -0.00086445065 -1.9860981e-07
000210 9c 6f 71 b7 ad 41 b7 b6 93 7a 9e 39 a1 11 90 b8
       -1.43907055e-05 -5.4614707e-06 0.00030227433 -6.869739e-05
000220 28 b0 93 b8 86 e5 c4 b4 87 d6 f1 b6 ce b2 e1 b9
       -7.042318e-05 -3.6674845e-07 -7.207334e-06 -0.00043048564
000230 e2 af 7a b7 65 73 8a b6 11 32 ad 38 29 f4 82 b9
       -1.4942112e-05 -4.126154e-06 8.2586084e-05 -0.00024977446
000240 07 61 b1 36 4c 31 84 36 47 9b ff 38 5d be 9d b8
       5.2863065e-06 3.9396455e-06 0.0001218827 -7.521801e-05
000250 88 71 a8 b7 e0 7c 6d b6 0b dc 5e 37 76 c6 2e b9
       -2.0080028e-05 -3.5388439e-06 1.3283464e-05 -0.00016667866
000260 47 d6 32 b6 6e 9c 6c b7 66 03 34 b9 59 c3 92 b8
       -2.6648793e-06 -1.4103118e-05 -0.00017167404 -6.998209e-05
000270 e0 87 34 38 4b 2c c4 37 59 ab cc b8 30 c6 86 3a
       4.3041888e-05 2.3385646e-05 -9.759394e-05 0.0010282453
000280 22 0d d5 b6 25 14 83 39 88 84 25 3a 74 51 8f 37
       -6.3494235e-06 0.00025001276 0.0006313999 1.7084858e-05
000290 14 36 3a b9 1f 81 97 35 8c f4 9f b8 b7 8f 52 b7
       -0.00017758488 1.1287956e-06 -7.627261e-05 -1.2550437e-05
0002a0 f9 62 4e 38 fc 94 c5 36 8c 2f c7 b4 30 d4 04 38
       4.9206403e-05 5.8884016e-06 -3.7101233e-07 3.1668867e-05
0002b0 2d 55 49 b8 b9 af bf b7 07 21 a0 37 22 65 2a 39
       -4.800146e-05 -2.2850802e-05 1.9088866e-05 0.00016250138
0002c0 af 68 40 b6 6e a0 47 37 c9 1d 53 37 1c 12 22 37
       -2.8671163e-06 1.1898677e-05 1.2583515e-05 9.660169e-06
0002d0 29 86 dd b7 b7 0a a6 37 02 34 05 b6 c0 e7 b6 b8
       -2.6407726e-05 1.9793732e-05 -1.9848817e-06 -8.721603e-05
0002e0 25 3a 19 37 0c a2 33 b7 d9 09 94 38 63 34 3a b8
       9.1330485e-06 -1.0706961e-05 7.059024e-05 -4.4394645e-05
0002f0 44 c9 86 b8 f6 cc af 37 5b 3c 00 b7 32 58 c1 b8
       -6.4271066e-05 2.0957068e-05 -7.643447e-06 -9.219385e-05
000300 fa df 35 b7 2d 96 36 39 5a d5 11 b9 e2 3d 95 b7
       -1.0840589e-05 0.00017412817 -0.00013907757 -1.7791e-05
000310 bf b3 5e 3a 98 95 c6 b6 cc 60 fc 39 51 47 b8 b8
       0.0008495412 -5.918275e-06 0.00048137305 -8.7870874e-05
000320 db 80 aa 38 98 6f 31 b8 be 37 29 b7 e9 52 3f 38
       8.130233e-05 -4.230402e-05 -1.00861635e-05 4.5615165e-05
000330 d4 f6 ef 39 8a 4a 39 3a 23 ce 14 39 49 60 9b 3a
       0.00045769534 0.0007068297 0.00014191172 0.0011854257
000340 b4 98 c4 38 bb 98 15 39 d5 75 eb b8 26 f2 0a 39
       9.3744515e-05 0.00014266644 -0.00011227621 0.00013250913
000350 35 75 85 38 73 07 06 b7 b4 c7 52 b8 54 e6 39 3a
       6.363766e-05 -7.988757e-06 -5.025389e-05 0.00070915115
000360 1c e1 8b b7 24 49 46 b6 51 9c ff b9 6d f3 b3 39
       -1.6674916e-05 -2.9546873e-06 -0.00048753855 0.00034322907
000370 e5 64 12 38 b4 b9 c9 39 38 03 43 b9 81 37 4c b9
       3.4903078e-05 0.00038476067 -0.00018597848 -0.00019475633
000380 ae cf 61 37 b0 fb 2c 39 8d ee 36 ba f1 d7 2d 38
       1.3459399e-05 0.00016496959 -0.0006978296 4.1447525e-05
000390 04 0b 6c b9 36 e8 c5 37 d3 b4 a0 3a 9a 5e 98 b9
       -0.00022510818 2.3592362e-05 0.0012260921 -0.00029062183
0003a0 b7 4a f9 38 23 d1 fa 37 c0 c5 e1 37 0a 2d 9c 38
       0.00011887162 2.989971e-05 2.6914175e-05 7.447049e-05
0003b0 25 c5 86 b9 8f 93 a4 39 4c 43 93 3a fc 86 d1 ba
       -0.00025705356 0.00031390457 0.0011235266 -0.0015985663
0003c0 e7 6c 69 b8 39 ba 24 39 f4 03 1b b7 9b b7 fb b6
       -5.5652952e-05 0.00015709632 -9.23964e-06 -7.5017574e-06
0003d0 b7 b6 ad b7 92 b1 06 38 4c f4 79 37 01 1e ac b9
       -2.070829e-05 3.2113465e-05 1.4898436e-05 -0.0003282875
0003e0 09 ed 83 36 f9 4b c8 37 5a ec 98 39 34 de d9 b8
       3.9316988e-06 2.3877235e-05 0.00029167795 -0.00010388755
0003f0 ac 41 ff 39 2e e4 9c b9 e9 91 89 39 74 56 b8 39
       0.0004868632 -0.00029924646 0.00026239388 0.00035159627
