machine_learning/notebooks/vertex-custom-ml/pytorch/custom_jobs/pytorch_tabular/saved_models/model.ckpt (torch, 57862 bytes, 38 tensors)

_backbone.linear_layers.0.weight f4 [32, 28]
00000000: 8d78 103e 4d84 233e 23d0 efbe 852c eabe
00000010: 6755 0ebf e38c 143c 7e3d 3fbe 0fee dbbe
00000020: 0af3 6b3d 8e98 babe fdf7 173f 64c1 343d
00000030: e40a 82be cae3 0f3e aaf3 113e 3f39 92bd
00000040: f101 08bd beaf 3dbe 3d2f df3d 22a0 f5bd
00000050: be6e 24bd cfb0 10bf 0d58 1fbe 123e 3c3e
00000060: 8363 803e e750 f3bd 6a80 123e ccc0 ba3c
00000070: 35c3 f93e 3f0e d73e 6a12 0abf 0c1b 7fbe
00000080: eef0 9abe 7f70 3dbd f8a7 663e fa97 90bd
00000090: 7e70 b0be 40be 83bc 2934 a5be b34d 283d
000000a0: 559e 203e 2576 ed3e da1b 853e 1c37 40be
000000b0: b687 64be a58b fabd a04b aebd ff09 c7be
000000c0: ecea 843e 12a0 babc 1232 bbbd f119 04bd
000000d0: 31ab 02be dbfd e93d 2d1a 71be e2f1 8f3d
000000e0: 92a3 30bf 3419 3e3d b5c7 a53e 74de 1ebf
000000f0: 416b a03d 2515 9b3d f5cc 293e 74c0 42bc
00000100: 4dfe 403f dd05 82bd 03ac f73e 1e1b 95bd
00000110: 2858 703c d1fc 313d 3fda 483e ac1b f6bc
00000120: be47 8c3e 70d6 f3be 964b 793d 912c cb3e
00000130: 6ac0 c4be 3277 46be 70b8 e83d d414 81bc
00000140: 91d1 e43e d9d4 d6bd eb38 a6be 6e9e 4e3e
00000150: 7772 073e bcb9 a43e b4e0 2abf d72f a43e
00000160: be92 74be b152 5cbd 8f8e b33e 3df1 e7be
00000170: 3824 2b3f 6693 213e c7ce 65be 7ea0 08be
00000180: 42db 9c3a 80ec 5abd 53ad ce3e 4a90 893e
00000190: 34a1 4cbe 1b05 9e3d 4661 dd3e 788a d83c
000001a0: 33e2 283e 96cc 87bd ff6f 0fbf d8ef d13e
000001b0: faf5 9a3e 35c0 133e 4956 1c3e 3e9a 47bd
000001c0: a3a3 b53e 30ed 7a3e 0759 693c bc5e 85be
000001d0: b188 cdbe 28c2 b33d f7da 5a3d f47f e1be
000001e0: c693 8c3b 6c84 6abe f151 34bf e3d1 d93e
000001f0: a445 28be 54af 6f3e cd01 f63d d889 04bd
00000200: 4813 f53d c546 1e3e 9fa5 3d3e a34d 443e
00000210: 1c71 41be a7c3 66be 3028 33be 71e9 933d
00000220: ed6f 22be 1fc5 45be a1df c8be 1164 4c3d
00000230: 1e66 423d 2c1f e83e e3aa 81be e4ee 113d
00000240: d9af b5bd 34d2 003e bf46 3a3d 5dc6 a3bd
00000250: ecf1 1bbe c38b d2bd 10a1 fd3d 9bd0 2e3d
00000260: c4f5 dfbd 6ac5 c9be 19a4 5f3e 3b78 0dbf
00000270: 7211 a43e 24bf 4c3f bbb5 efbe edbf 393d
00000280: 675c b13e 4366 1b3e 3cb0 7a3e ed43 b0be
00000290: ec55 c8bd c477 30be 905a 2c3d 43cb 83bd
000002a0: 93c4 523d 0c26 3e3e 782d 41bf 8512 013f
000002b0: 025d 173e d6e6 6c3e 2c77 da3e 87c9 94bc
000002c0: 8046 83bf aa83 a9bd 1238 eebe 0d11 b33d
000002d0: d84e b73d 9a59 a5be 664a 67be 58b5 8b3e
000002e0: 0a14 a63e 1344 063e 58d1 84be fd76 21bd
000002f0: ac1e 743e 44c8 06bf f764 c5be de0b 253e
00000300: 9456 a6bd bb1e 8abd 20bb 6b3e 8c6e dc3d
00000310: 0c37 453e 8657 e63b 068d 333e 9f88 b23e
00000320: 8b73 b03e 6778 cb3d dc90 593d 186f 99bd
00000330: 453f e7bb 299a f3be ae72 e53e f78d 92be
00000340: f428 15be 8848 a8bd 0588 96bd 16d3 063d
00000350: 0082 393e 4cc3 60be 46b6 79bd a998 843e
00000360: 30aa 9dbe f350 b7be 1f59 c13e 590d 4e3c
00000370: 34cd e83e 69a5 393e 1c81 30be 2000 2cbd
00000380: a08a 0e3d 2388 793d b808 6a3e dcac 213d
00000390: 5faa 08be fafe 09be 82fe 463f 5ab0 89be
000003a0: 95a3 3bbe 5ce7 b8be c579 9f3e f297 bbbe
000003b0: 2a7e 5bbd 46fb 9fbe 6fad 563e 7d3f 823d
000003c0: c725 53be b1cf 143e 0120 a3be d0ca 98be
000003d0: 35ea ed3e 2aea ac3d b031 d4bc f650 fe3e
000003e0: 96bd 9d3e b75d d4be 2e61 d33e 7112 cd3e
000003f0: fd3d 1e3e a3cd d93d 4ef9 123f 6e19 e6bc
0.14108486 0.15968437 -0.46838483 -0.4573709 -0.55599064 0.009066793 -0.18675801 -0.42955062
0.057604827 -0.36444515 0.59362775 0.044129744 -0.25398934 0.14051738 0.14253107 -0.07139825
-0.033204976 -0.18524072 0.10897682 -0.119934335 -0.040144674 -0.5651979 -0.15560932 0.18383053
0.2507592 -0.11880665 0.14306799 0.02279701 0.48781744 0.42003056 -0.5393435 -0.24912661
-0.3026194 -0.046249863 0.22525012 -0.07060237 -0.34460825 -0.01608193 -0.32266358 0.041089725
0.15685399 0.463792 0.25997812 -0.18771023 -0.22317395 -0.12233666 -0.08510518 -0.38874814
0.2596048 -0.022781406 -0.091404095 -0.032251302 -0.12760617 0.11425372 -0.23545142 0.07028557
-0.6899959 0.046410754 0.32378927 -0.62058187 0.07832957 0.075723924 0.16582091 -0.011886705
0.7538803 -0.063487746 0.48373422 -0.07280563 0.014669456 0.043453995 0.19614504 -0.030042492
0.27398485 -0.4762454 0.0608631 0.3968244 -0.3842805 -0.19381407 0.11363304 -0.015757002
0.44691136 -0.10489816 -0.324653 0.20177624 0.13227259 0.32172954 -0.6674912 0.3206775
-0.23884103 -0.0537898 0.350697 -0.45301238 0.6685214 0.15778884 -0.2244216 -0.13342473
0.0011967199 -0.0534482 0.4036661 0.26867896 -0.19983369 0.077158175 0.43238276 0.026433215
0.16492538 -0.066308185 -0.5603027 0.410033 0.3026579 0.1442879 0.1526729 -0.04873108
0.35476407 0.24504542 0.014242417 -0.2604884 -0.4014335 0.08777267 0.053431477 -0.44042933
0.004290077 -0.22902077 -0.7043753 0.42542943 -0.16432816 0.23406726 0.12012062 -0.03235802
0.11966568 0.15456684 0.1852021 0.19170241 -0.18890804 -0.22535573 -0.17495799 0.0722226
-0.15863009 -0.19313477 -0.39233115 0.04990012 0.047460668 0.45336282 -0.2532569 0.035628214
-0.08871431 0.12580186 0.045477625 -0.07996819 -0.15229005 -0.10280564 0.12384236 0.04267941
-0.10935548 -0.39408427 0.21839942 -0.5526158 0.3204456 0.7997916 -0.46818337 0.04534905
0.3464081 0.15175728 0.2448129 -0.34426823 -0.09782013 -0.17233187 0.042078555 -0.064352535
0.051457 0.18569201 -0.75460005 0.50418884 0.14781573 0.23134932 0.42669046 -0.018162502
-1.025589 -0.08277066 -0.46527153 0.087434866 0.08950585 -0.32294923 -0.22586975 0.27286792
0.32437164 0.13111906 -0.25940967 -0.039420117 0.23839825 -0.5264933 -0.38553593 0.16117808
-0.08121982 -0.067441426 0.23020601 0.10763273 0.1925928 0.0070294766 0.17534265 0.3486986
0.34463152 0.09935074 0.053116664 -0.074918926 -0.007057103 -0.47578552 0.44814056 -0.28623936
-0.14566404 -0.08216959 -0.073501624 0.03291615 0.18115997 -0.219495 -0.060964845 0.2589772
-0.30793905 -0.35803947 0.37763306 0.0125764245 0.45469058 0.18129505 -0.17236751 -0.041992307
0.03480017 0.060920846 0.22854888 0.039471492 -0.13346241 -0.13476172 0.777321 -0.26892358
-0.1832412 -0.36114013 0.3114759 -0.36639363 -0.053587116 -0.31246394 0.20964597 0.06359766
-0.2061988 0.14532353 -0.31860355 -0.29842234 0.46467748 0.08443101 -0.0259026 0.49671143
0.30808705 -0.4147775 0.4128508 0.40053132 0.15453334 0.10634925 0.5741166 -0.028088298

_backbone.linear_layers.0.bias f4 [32]
00000000: 56a5 3fbd 7379 653d 76fe 10bf 0e28 6ebe
00000010: 00a2 073e afd2 843e fac9 143e 9776 20be
00000020: 1d8e 1ebd 9a08 4fbe 5a8c 59be c2d0 b6bd
00000030: c379 bebd 0fa2 8dbe 72ba 71be ccb6 663e
00000040: ef4a 1c3e 8b9c 053b 9f18 b2bd 4944 37be
00000050: befb c0bc 6c20 093e ad8a fdbd 4574 dbbe
00000060: 326c 55bd 3c7c 82bd 7e63 50bd dc9b 853b
00000070: fe0a 213c a0bf f5bd 1601 c3bd 844d f03d
-0.046788536 0.056024026 -0.56638277 -0.23257467 0.13245392 0.2594199 0.14530173 -0.15670238
-0.03870975 -0.20218125 -0.21244946 -0.08926536 -0.09300568 -0.27662703 -0.2360628 0.22530669
0.1526296 0.0020387496 -0.08696102 -0.17897142 -0.02355754 0.13391274 -0.12379966 -0.42862144
-0.052105136 -0.06371352 -0.050876133 0.004077418 0.009829281 -0.1199944 -0.095216915 0.11733535

_backbone.linear_layers.3.weight f4 [16, 32]
00000000: deb2 d23e dd37 f53d 65bc 95be 94f7 853e
00000010: 5670 a4be a8c3 243e 068b 153e 8335 c53d
00000020: 99f5 d5bd 37da ebbb 9915 603e deab 04bf
00000030: e3d8 ad3d ea8c c6be b0e8 2abd e5e3 b33d
00000040: 3ac0 e43e a902 82be 61da 92be 36a1 a83d
00000050: da4e 083f 5c5e c23e bdd6 aebe ba00 3fbd
00000060: 10a9 c9be d1e5 0b3f 5727 393f 2ee5 70be
00000070: b9c7 e8bd 4a88 3a3d c551 bfbe 6dd5 3abe
00000080: 9881 f73e 7951 2d3e 7b59 bfbd 1a40 a53d
00000090: db1e aa3e 3b3b 8a3d b431 8a3e 29b1 d43e
000000a0: c7e8 abbe 1368 c43e d648 9c3d 835c fd3d
000000b0: db23 43bf 9ef9 67bc 9553 27be 4eb1 1c3f
000000c0: 5345 99bc 4c77 a7be 38c0 833c de4c b1be
000000d0: 5361 723e 5938 bbbd 4305 8fbe 96f1 13be
000000e0: 7ad5 fcbe 7525 8fbd f67f d63e 49e2 c2be
000000f0: 3384 b93d d2c1 483d 4c3e 04bd bd63 97bd
00000100: 9929 753d f5c1 04bf 2295 9abe 0b6e 0fbd
00000110: 7cf3 30bd 841a bf3d 743c d9be d01b 0bbf
00000120: 1b31 f53d a243 b7be 7189 31be 1db8 213f
00000130: e677 dd3e 1a92 f3be 58e9 b1be 352a 26bd
00000140: 2ad4 76bd 65e3 c4bd e966 933d 9946 3d3e
00000150: 9657 bebe 1bd8 883d f25f 823a 9486 1dbe
00000160: 7082 903e cff7 8c3e 7928 0cbf 3660 fd3d
00000170: da26 38be 1bd2 d3be 0baa 943e 003c 62be
00000180: 9261 b3be 0106 82be e623 e7be d841 ccbe
00000190: bb7c 143d c926 d4be 557f 963e 2ecf 853e
000001a0: 3558 f9bd 6543 d0bd 4fe4 34bd 1ae1 6abe
000001b0: c157 603e d2c6 5e3d 3e49 973e db36 c23e
000001c0: 80d6 703c 210c d03e 8c06 72be 5392 323e
000001d0: a3a5 4f3e d0e5 09bf d00e 2b3e 5a60 00be
000001e0: 1632 b6bd 10f1 43bc 25c6 33be e2b4 03be
000001f0: 87b7 2abe 9f66 ab3e 344d 943e d893 5cbe
00000200: c95c d53e 605a 31be d898 473e da81 4abe
00000210: e2af 6bbe eb09 c83e 90c9 28bf 6773 c13d
00000220: 720f f938 3b96 753d 0053 113e d66d c8bd
00000230: 09c3 9fbe cb29 cb3c 7e9d 073f cbe7 febd
00000240: e2ea eebd 0491 58be 395b f73c 73b5 a8bd
00000250: c564 1b3e 583a e43e b6fc d43e 9c3c afbe
00000260: d392 e2bd ef7a 3dbd 90d7 abbe 10a9 3e3e
00000270: 26aa 63bd b23c 26bc c5a2 023f c676 c8be
00000280: eb4a 73be 5414 cebd 691f 29bf 33f1 b23e
00000290: 76ad c63d 77fe 623d 5a9f 47bd 452d 813d
000002a0: c956 033e c5f4 af3e 67ac f03d 9151 bb3d
000002b0: ce5f 3f3f ae54 5ebe 5a1e 22be 3d22 a4be
000002c0: d22f ad3e e46e 79be 5486 94be cfe6 1c3e
000002d0: f0d6 38be 4795 f4be 8eab 693e b1df 8abd
000002e0: ddbf 0abe 59b1 4ebe f1e6 abbe 11c1 bdbd
000002f0: c528 bb3c 6e44 183f 0442 edbe 7961 453e
00000300: f218 c4be 722c 943d 5020 34bf ba33 c9bd
00000310: ff9b c9bc 19a0 833e 35c4 593e 2ba2 fabd
00000320: 80a9 583d cc36 88be 7ad4 413e a052 fa3e
00000330: 01bb dd3e 5299 3abd 5a50 b1bd 3c75 05bf
00000340: fbd5 8e3e 8ec9 92be 48ee bd3e 7ab0 9f3d
00000350: 1f5b b4bb cb6a 0fbf a3f2 a83e 809d a9bc
00000360: a8a7 963e 2981 4cbf 53ed 4cbf 1cba 363e
00000370: 1c06 dc3d b4f7 84bc 7bf1 a63e dab4 193d
00000380: 7292 5ebd 5824 0bbf 53ea ae3e 2580 e1bd
00000390: 041b e4bd 36fe 1abf 76ab 43be 83ff 5cbe
000003a0: cc22 8ebe 1d93 b33e 49d4 24bf b0a0 2d3f
000003b0: 1fa7 1dbe 35ca 433d e5e6 213e 3a5d 903e
000003c0: dd19 25bf 4d04 043e 7017 06bf 4b92 35bd
000003d0: d620 71be f93f cebe 229c 4a3e 3032 b73e
000003e0: d1a5 6ebf 7ffc fbbd 18a0 87be b9b7 14bf
000003f0: 3961 763e da47 223e e24d 94be d825 eabe
0.4115209 0.11973546 -0.29245296 0.2616545 -0.32116956 0.16090262 0.14603814 0.09629347
-0.10447235 -0.007197644 0.21883239 -0.5182475 0.084886335 -0.38779384 -0.041725814 0.08783702
0.44677907 -0.25392655 -0.28682235 0.082338735 0.5324532 0.37962615 -0.34148207 -0.046631552
-0.39386797 0.54647547 0.7232565 -0.23524925 -0.11366219 0.04554013 -0.37367073 -0.18245478
0.4834106 0.1692561 -0.09343239 0.08068867 0.33226666 0.067495786 0.26991045 0.41541412
-0.33576033 0.38360652 0.0763108 0.12371161 -0.76226586 -0.0141586345 -0.16340478 0.61208045
-0.018709814 -0.32708204 0.016082868 -0.34628958 0.23669939 -0.09141607 -0.27933702 -0.14447626
-0.4938162 -0.06989566 0.418945 -0.38063267 0.09058418 0.049012966 -0.032285973 -0.073920704
0.059854124 -0.51858455 -0.30191904 -0.035017055 -0.043200955 0.09331229 -0.42428935 -0.54339314
0.11972257 -0.35793787 -0.17337586 0.6317156 0.43255538 -0.47572404 -0.3474834 -0.040567596
-0.06026093 -0.096136846 0.07197363 0.18483962 -0.37176198 0.06681844 0.0009946807 -0.15383369
0.28224516 0.27532813 -0.54749256 0.123718664 -0.1798357 -0.41371235 0.29035982 -0.220932
-0.35035378 -0.25395206 -0.45144576 -0.39893985 0.036251765 -0.4143584 0.29394022 0.26134628
-0.12175027 -0.101691045 -0.044163045 -0.22937432 0.21908475 0.05438883 0.29548067 0.37932476
0.014699578 0.40634254 -0.2363531 0.17438631 0.20278029 -0.5386629 0.1670487 -0.12536755
-0.08896272 -0.011959329 -0.17556055 -0.1286197 -0.16671573 0.3347673 0.2896515 -0.21540773
0.41672352 -0.17319632 0.19491899 -0.19776097 -0.23016313 0.39070067 -0.6593256 0.094458394
0.00011876122 0.059957724 0.14191818 -0.097865745 -0.31203488 0.024800202 0.5297469 -0.12446555
-0.11665894 -0.21149069 0.030194866 -0.08237734 0.1517516 0.44575763 0.41599053 -0.3422593
-0.11063161 -0.046259817 -0.335629 0.1861918 -0.055582188 -0.010146307 0.51029617 -0.39153117
-0.23759048 -0.10062471 -0.66063553 0.34949645 0.09701054 0.055418458 -0.048735954 0.063074626
0.12826075 0.34366432 0.11751633 0.09146417 0.7475556 -0.2171199 -0.1583189 -0.32057372
0.33825547 -0.24358708 -0.29008734 0.15322421 -0.18050742 -0.4777014 0.22819349 -0.06780947
-0.13549753 -0.2018484 -0.33574632 -0.0926534 0.022846589 0.59479415 -0.46339428 0.19275464
-0.38300282 0.0723504 -0.70361805 -0.09824319 -0.024610518 0.25708082 0.21266253 -0.12237962
0.052896023 -0.26604307 0.1892871 0.48891163 0.43306735 -0.045556374 -0.08657904 -0.5213201
0.2789763 -0.286694 0.37095857 0.07797332 -0.0055040265 -0.5602233 0.32997617 -0.020704985
0.29424787 -0.7988458 -0.8004963 0.17844433 0.10743353 -0.016231395 0.3260611 0.03752599
-0.05433888 -0.5435233 0.3416315 -0.1101077 -0.11137965 -0.60544145 -0.19108376 -0.21581845
-0.27760923 0.35073176 -0.6438642 0.67823315 -0.15395783 0.04780026 0.15810736 0.28196126
-0.6449259 0.12892266 -0.5237951 -0.04432897 -0.23547682 -0.40283182 0.19786122 0.35780478
-0.93221766 -0.12304019 -0.2648933 -0.5809284 0.24060525 0.15847722 -0.2896567 -0.45731997

_backbone.linear_layers.3.bias f4 [16]
00000000: 2d08 2b3e 666f 2b3d 80f2 bd3c f4dc 95bd
00000010: f205 193e 4816 a53d b155 6e3e a71a edbe
00000020: 60fb 903e 4366 cf3e 1b6a 13bd 20a1 e23e
00000030: 13da ebbd 0c39 0fbe 64a3 0bbe 8fb9 a23e
0.16702338 0.041854285 0.023186922 -0.07317534 0.14943674 0.080608904 0.23274876 -0.46309397
0.28316784 0.40507707 -0.035989862 0.44263554 -0.11516204 -0.13986605 -0.13636547 0.31782195

_embedding_layer.cat_embedding_layers.0.weight f4 [5, 3]
00000000: 31af aabe 4207 aabe 487e 083f e5c9 c5bf
00000010: afa0 18bf 4293 0d3f 69cc 9cbf 6710 9cbf
00000020: 3a1f a33f adb1 0cbe a24b e1bf db90 5ebf
00000030: 9dae a53e 9c0b 463f 2ddf 03c0
-0.33336785 -0.33208662 0.5331769 -1.5452238 -0.59620184 0.5530282 -1.2249881 -1.2192506
1.2743905 -0.13739653 -1.7601206 -0.8693978 0.32359782 0.77361465 -2.0604966

_embedding_layer.cat_embedding_layers.1.weight f4 [5, 3]
00000000: 8954 9cbd d66f c33e 2b15 a73f e28e 0cbd
00000010: 5517 383f c277 a03e 4744 95bf aacf 88be
00000020: d3ca 553f a6a9 98bf 73b6 b0be 5755 67be
00000030: 71a8 23bf ac53 8c3e f59d f73d
-0.07633311 0.38171262 1.3053335 -0.03431595 0.719106 0.31341368 -1.1661462 -0.26720935
0.8351261 -1.1926773 -0.34514198 -0.22591148 -0.63928896 0.27407587 0.12090675

_embedding_layer.cat_embedding_layers.2.weight f4 [5, 3]
00000000: 7014 66be cf88 a8bf 2718 313f 50aa b2bf
00000010: 9d67 8bbf fe08 1ebf 2375 173f 434b 303f
00000020: 1471 b7be 9b05 123f 1fc1 473f 1cc3 b7be
00000030: 3847 aabf 4bbb b0bf a514 c0be
-0.22468734 -1.3166751 0.6917748 -1.3958225 -1.0890995 -0.6173247 0.5916311 0.6886484
-0.3582846 0.57039803 0.78029054 -0.35891044 -1.3302984 -1.3807157 -0.3751575

_embedding_layer.cat_embedding_layers.3.weight f4 [5, 3]
00000000: 41bd 933f ec8f 903f 942d 4fbe c515 2ebf
00000010: cff4 cabf 5be1 173f d3e7 0940 f94b b33e
00000020: af0a 1ec0 783a bb3f 2f76 433f fe45 0bbf
00000030: 4620 a3bf a0ff 27be 60e8 0b3f
1.1542131 1.1293921 -0.2023223 -0.6800197 -1.585596 0.5932824 2.1547744 0.350189
-2.469402 1.4627218 0.7635221 -0.54403675 -1.2744224 -0.16406107 0.5465145

_embedding_layer.normalizing_batch_norm.weight f4 [16]
00000000: 4476 b13f b708 fd3e f748 973f 9bf5 d13f
00000010: ae0b 063f 23b1 203f 73c7 043f ef04 063f
00000020: 21d3 ac3f fce8 223f e158 ae3f 02bb 233f
00000030: f060 3e3f e1d0 203f b367 1b3f 09c8 233f
1.3864217 0.4942071 1.1819142 1.6403078 0.5236157 0.6277029 0.51866835 0.5235128
1.3501931 0.63636756 1.3620874 0.63957226 0.74366665 0.62818724 0.6070511 0.63977104

_embedding_layer.normalizing_batch_norm.bias f4 [16]
00000000: 5d1d 923d 0a4d efbd 5495 50be 28fb 4cbd
00000010: 967f 4bbe a664 cd3c b432 443d cef6 693e
00000020: 912e 20be 2982 e03d d3ba eb3d 08bd e7bd
00000030: 6ac9 a43b dbf4 2cbe 7b9e 73be 0afc ff3d
0.07134507 -0.11684616 -0.20369464 -0.05004421 -0.19872889 0.025072407 0.047899917 0.22848055
-0.15642764 0.10962326 0.11510243 -0.11315352 0.0050288932 -0.1689028 -0.23790924 0.124992445

_embedding_layer.normalizing_batch_norm.running_mean f4 [16]
00000000: 819c 97ba fca8 9b3a 1936 38bb fc15 a9ba
00000010: a61c 003c 6385 94ba 2765 b43b ca16 eb3a
00000020: 1957 6bba f20b 79bb 6d43 3b3b a98b 10bb
00000030: 00b3 1e3b e0bc 53ba ea05 033b f4ba fe3a
-0.0011567028 0.0011875923 -0.0028108417 -0.0012900229 0.00781933 -0.0011331256 0.0055052224 0.0017935869
-0.0008977517 -0.0038001505 0.0028574124 -0.00220559 0.002421558 -0.0008077156 0.0019992539 0.0019434378

_embedding_layer.normalizing_batch_norm.running_var f4 [16]
00000000: 6edd 7d3f eed7 7f3f d67e 813f da48 803f
00000010: cc24 803f 4898 803f 7cf1 7e3f 5db9 7d3f
00000020: ff3d 813f 8486 7f3f 17b9 7f3f 7c88 803f
00000030: 9441 813f 8c0f 7f3f f5c5 803f bc1f 803f
0.99166 0.9993886 1.0116832 1.0022233 1.001123 1.0046473 0.99587226 0.99110967
1.0097045 0.9981463 0.998918 1.0041652 1.0098138 0.996331 1.0060412 1.0009685

head.layers.0.weight f4 [2, 16]
00000000: 4ab0 de3e dc3c b1bd ce6b b0bd b40e 453e
00000010: 2433 05bd 47b8 083f 1610 5bbe 12c5 333f
00000020: 03a4 be3e 7b81 503e 2028 d03d ed81 ef3e
00000030: 3636 67bd 29ae b0be eeaa bf3e dab1 47bf
00000040: 454c 993e e278 7cbe df67 d13e 89c4 6e3e
00000050: 7533 cf3e 134f 313f 1e6b 173f 720e d3be
00000060: 3296 43be 9ee9 1dbf e545 a83e 61ff f6bd
00000070: 93af 393f 5ac5 593d 4251 f0bb 4fd9 be3e
0.43493873 -0.08654186 -0.08614312 0.1924389 -0.032519475 0.53406185 -0.21392855 0.7022258
0.37234506 0.20361893 0.10163903 0.46778813 -0.056448184 -0.34507874 0.37435097 -0.78005755
0.29941002 -0.24655488 0.4089956 0.2331716 0.40468946 0.6926128 0.5914782 -0.41221958
-0.19100264 -0.61684597 0.32865825 -0.120604284 0.7253353 0.053166725 -0.0073339054 0.37275168

head.layers.0.bias f4 [2]
00000000: d06d 413d 06c5 93bd
0.047223866 -0.072153136

exp_avg f4 [32, 28]
00000000: 7499 83b9 2b99 a2b8 ec00 d2b9 52ec 163b
00000010: a134 36ba 85fb be39 2946 a2ba 0109 09ba
00000020: 0821 053a 8177 5e38 1802 6b37 ca6a 8cb9
00000030: 1eb6 adba f72e e7b8 3d41 01ba bf56 63ba
00000040: e04c 5dba ea68 0dbb 7138 f1b7 65cf 8bba
00000050: a9dc a438 6d40 b838 88e4 9dba de3a 63ba
00000060: 8d59 2eba 448f fc3a c227 9339 29a7 b2ba
00000070: 1345 b439 6392 2bb8 18f8 8839 af7c 1d39
00000080: 84ef 02ba 1124 eeb8 3071 df39 e4e2 f739
00000090: 80ed 6b3a 93e6 e239 43a2 2cba 18c1 e8b9
000000a0: b361 b8b9 12c8 1f3a b8ff 9d39 3eb7 17ba
000000b0: 1cb8 b1ba 1b23 76b9 a090 833a d2df 7fba
000000c0: 4c18 c4b9 40a4 da39 e8eb d7b9 121b 7eb9
000000d0: 0339 99b9 8f21 ca3a df9c abb9 f9b6 9eba
000000e0: fc0a ad39 dbb6 ae38 806a 10b8 f2ce 0aba
000000f0: c740 8d39 5db8 4a3a fe8d 3139 0a63 7dba
00000100: 9e91 2c38 aa57 c139 d018 f1ba ca89 16b9
00000110: 8029 193a 5dfd bb39 cbaa 48ba eef5 133a
00000120: 366d 9138 9dae 6c39 5252 17ba 0dde 00ba
00000130: 622d 1338 22c6 cbb8 5d32 b3ba cd50 ceba
00000140: 7967 2cb9 3c3c 1eba 8b88 113a 65aa 7e39
00000150: fa12 013a 58a8 8bb5 18c6 adb9 5b3d 343a
00000160: c3c7 8a39 b689 35b9 7f6b d1b8 e318 6d39
00000170: ba43 34ba 5e43 023a daf4 02b8 7269 8b39
00000180: d065 e4b6 5d62 b8b8 c2ed ed36 b542 3237
00000190: b7c9 e1b9 999e 5339 1cf5 1039 eebe 25b9
000001a0: f961 98b8 2dad fb38 a392 c639 1faa d739
000001b0: cf15 21b8 adb9 1e3a 4b65 13b9 d473 7eb9
000001c0: a5be 29b9 9f40 d9b8 d45b 28b8 fd25 25b9
000001d0: b7b4 71b8 dcc2 3639 81fb 9938 711a a638
000001e0: 3e59 5d38 e425 0fb9 f90b 2739 9d17 e439
000001f0: 1849 2a39 06c3 8b39 6391 5f39 af25 4737
00000200: ca9b 9db9 63e0 11ba c513 36b9 1715 69b9
00000210: c477 b838 d0be 3b38 4299 64b9 d454 ccb8
00000220: be9c 5cb9 2557 b637 5359 3eba 78a8 0939
00000230: 9c4a 56ba 067a aab9 989d 60b8 cddf 093a
00000240: 9713 e3b8 f209 9837 29e1 0bb9 d88f 9db8
00000250: 4052 a8b9 7c30 c939 2cb3 5c3a 90b8 6639
00000260: 7f17 7e38 4084 e538 849c b4b8 b1f9 4ab8
00000270: 0074 6639 f099 e939 8438 dbb8 95bc 81b9
00000280: b832 abb9 d92f d3b8 86e3 e739 2731 143a
00000290: 1b34 9635 69b3 803a b9a8 a8b9 8362 93ba
000002a0: c4d5 3cb9 ffe0 b439 0f58 a839 a12e 3dba
000002b0: 62af 27ba b062 44ba 2e6d 35b9 174c 16b7
000002c0: 4f02 11b9 4b71 9039 40cf 39b9 e766 0b38
000002d0: 6875 053a 93ae 6639 f200 3939 105c 19b8
000002e0: 996e 4cba 0956 be39 4068 bd39 236d a0b9
000002f0: baa6 63b8 9681 d839 12a8 1d39 70a4 a237
00000300: 49f9 08b7 8519 733a 98c8 c1b8 55d4 17ba
00000310: 0948 0e39 c0b3 96b8 fb3d 5fb9 84d2 bb39
00000320: 126e 17b9 3eaa d738 3093 5fb9 1dda eb39
00000330: 6d9b 1e39 4785 b7b9 d127 0eb9 de3e 4eb8
00000340: 5ad5 1db9 fcb7 1438 ca0c 5238 9848 a538
00000350: 6c7e dab9 26fe 3dba fa8a cd38 c34c dbb9
00000360: 8cc4 3138 981e c439 5a00 c1b8 9269 3437
00000370: f25c 7fb9 3e69 be39 9ff1 af38 e409 18ba
00000380: 78c5 173a de8f 1139 9d10 b6b6 6121 2039
00000390: 2065 dc38 38b6 b738 1006 27b9 c204 133a
000003a0: 26fd 4539 ae48 5c38 f15a 6639 b932 4fb9
000003b0: 86b1 5db8 eb5f 3bb9 e8e2 1739 2cf1 3539
000003c0: 000e e038 0906 c1b3 a381 9139 944c dd38
000003d0: 158f 0ab9 f804 28b9 9e8c 0cb9 2a3e dcb8
000003e0: 4142 c538 55fa acb9 452b 8ab9 6cf2 e538
000003f0: 039d 6f3a 036a e5b9 41b4 ee39 c6af f838
-0.000251006 -7.753292e-05 -0.00040055008 0.0023029041 -0.00069505913 0.0003642702 -0.0012380528 -0.0005227477
0.00050784694 5.304022e-05 1.4007579e-05 -0.00026782445 -0.0013253128 -0.00011023686 -0.0004930681 -0.0008672289
-0.0008441936 -0.0021577426 -2.8755721e-05 -0.0010666667 7.8612306e-05 8.785804e-05 -0.0012046257 -0.00086681347
-0.00066509173 0.0019268771 0.00028067647 -0.001363014 0.0003438374 -4.090591e-05 0.00026124786 0.00015019135
-0.0004994797 -0.00011355442 0.00042618206 0.00047280558 0.0008999929 0.0004327787 -0.0006585458 -0.00044394354
-0.00035168006 0.00060951815 0.000301359 -0.0005787498 -0.0013558897 -0.00023473466 0.0010037608 -0.000976083
-0.00037402136 0.00041702576 -0.0004118376 -0.00024233412 -0.0002922491 0.0015421378 -0.0003273254 -0.0012108973
0.00033005315 8.331026e-05 -3.443146e-05 -0.00052951195 0.0002694188 0.0007733161 0.00016932932 -0.0009665942
4.1143612e-05 0.00036877143 -0.0018394236 -0.00014356445 0.0005842671 0.0003585619 -0.00076548447 0.00056442514
6.934481e-05 0.00022571762 -0.00057724596 -0.00049159006 3.5089797e-05 -9.7166994e-05 -0.0013671626 -0.0015740633
-0.00016441745 -0.00060361973 0.00055516575 0.00024286805 0.0004923787 -1.0405302e-06 -0.00033144723 0.0006875598
0.00026470245 -0.00017312806 -9.985919e-05 0.00022611352 -0.0006876547 0.0004969145 -3.122245e-05 0.0002659071
-6.806782e-06 -8.792125e-05 7.090829e-06 1.0625158e-05 -0.00043065634 0.0002018161 0.0001382422 -0.00015806753
-7.2661736e-05 0.00012000869 0.00037874756 0.00041134746 -3.8405702e-05 0.00060548895 -0.00014056747 -0.00024266477
-0.00016188117 -0.00010359403 -4.0139843e-05 -0.00015749778 -5.762718e-05 0.00017429463 7.342455e-05 7.920422e-05
5.277362e-05 -0.00013651658 0.00015930821 0.00043505142 0.00016239693 0.0002665745 0.00021321098 1.1870098e-05
-0.00030061445 -0.0005564747 -0.00017364237 -0.00022228468 8.796112e-05 4.4761982e-05 -0.00021800867 -9.7432785e-05
-0.00021039226 2.173667e-05 -0.0007261235 0.00013128098 -0.000817457 -0.0003251584 -5.3552532e-05 0.0005259484
-0.000108278524 1.8124443e-05 -0.00013339952 -7.5131364e-05 -0.00032104738 0.0003837383 0.00084190327 0.00022003264
6.05802e-05 0.000109442044 -8.612222e-05 -4.8393096e-05 0.00021977723 0.00044555916 -0.000104532606 -0.00024745302
-0.0003265345 -0.00010070176 0.00044229272 0.0005653076 1.1191036e-06 0.0009819093 -0.00032169165 -0.0011244569
-0.00018008711 0.0003449991 0.00032109066 -0.0007216726 -0.00063966785 -0.0007491512 -0.00017302178 -8.958413e-06
-0.00013829138 0.0002755023 -0.00017720181 3.3236018e-05 0.0005091042 0.00021999543 0.00017643327 -3.6563782e-05
-0.0007798463 0.00036303725 0.00036126561 -0.0003059889 -5.4276294e-05 0.0004129528 0.00015035298 1.9388477e-05
-8.164273e-06 0.0009273517 -9.240321e-05 -0.0005791833 0.0001356901 -7.1860384e-05 -0.00021290027 0.00035824266
-0.00014441487 0.00010283709 -0.00021321769 0.000449852 0.00015125955 -0.0003500378 -0.00013557008 -4.9172777e-05
-0.00015052166 3.54573e-05 5.0079812e-05 7.881335e-05 -0.00041674392 -0.0007247649 9.801048e-05 -0.00041828127
4.2383137e-05 0.00037406827 -9.203023e-05 1.0753416e-05 -0.0002435332 0.00036318036 8.389656e-05 -0.00057998137
0.0005789618 0.00013881872 -5.4259567e-06 0.00015271224 0.000105092535 8.760061e-05 -0.0001592862 0.0005608314
0.00018881689 5.2519776e-05 0.00021968388 -0.00019759954 -5.2855838e-05 -0.00017869442 0.00014485011 0.00017351349
0.0001068376 -8.9883606e-08 0.00027753142 0.00010552365 -0.00013214008 -0.0001602358 -0.00013403824 -0.000105019964
9.406033e-05 -0.00032992908 -0.0002635365 0.000109647255 0.0009140523 -0.0004375727 0.00045529197 0.00011858302

exp_avg_sq f4 [32, 28]
00000000: 3fb2 5a36 56f7 2e35 15d6 5d36 bfcf ca36
00000010: 9bb5 9d35 edaf 6835 dc90 9135 dc0a d735
00000020: f418 7536 53fd c935 c594 7136 2c22 8a35
00000030: 98e2 dc35 316e 3535 2b7d 8635 b6e2 b835
00000040: 9cba a036 9475 1537 1b7c 2936 31bb a236
00000050: 2348 ad34 63fa 2c35 9352 a736 e4be 3836
00000060: b16d a635 7ed3 ca36 e280 a235 2f8a 8636
00000070: a213 5836 b37e 1d35 56cf 8635 1914 c836
00000080: 7b2e 3035 6cd8 2935 1e7a 2f35 0351 0835
00000090: b910 bc36 d615 0435 7a1a 6836 e705 4d35
000000a0: f5a5 3635 4b2b 6f35 a748 0335 6609 8835
000000b0: 09c7 3c36 6149 3a36 1124 0436 f493 3e36
000000c0: 29b5 6934 c4ec 1335 f2e5 f835 811a 9135
000000d0: 4887 2a35 d557 6b36 eab5 d335 f3fb 0a36
000000e0: 0c62 7036 a3fd 6735 d510 4336 ff84 9136
000000f0: 05fd 5c35 2e74 b635 56c3 7535 341f 7935
00000100: ffcb 5a36 a60a a035 41b7 6836 b587 9a35
00000110: 6126 8a35 4b5f 9f35 bbab 7e35 5ffe 8d35
00000120: eef7 3c36 c532 4e36 7e0c 6836 5622 0836
00000130: c59f c734 87df f234 1177 2c36 618b 2236
00000140: 0bbe e334 6f3a be36 7812 1d36 1451 6a36
00000150: 0174 2d36 4754 db34 4d92 c535 5765 b736
00000160: dbad 1d35 29ac f434 4497 de34 6ede 1335
00000170: 944c ee35 fea4 2235 3c0a 1036 6bf7 2b35
00000180: 6aae 1935 d7cb 2135 ca4e 2935 fed7 2635
00000190: 25d5 b335 bdcd 0436 0baf cb35 c3bb 9035
000001a0: 0da6 3134 19da 6a34 84ff 9e35 674d 8b35
000001b0: 4f40 5e34 af91 9236 31fb 1735 53f7 3436
000001c0: 99d2 a536 b3bf 2b35 53af 1a36 3e22 bd36
000001d0: 9d0c 8d35 8a92 1835 bb08 9c35 1574 8935
000001e0: 735f 9736 98b3 4d35 44e3 8f36 5759 5e35
000001f0: e1a5 4435 b9b4 3435 87ff 5e35 bbe5 1935
00000200: e76d 9536 547d 8336 4dd0 8836 89fe 7e36
00000210: 4e43 7834 7092 4c35 1146 db35 38a4 8635
00000220: 126c 5535 25e6 a136 aaec 8936 f423 2d36
00000230: edc1 2e36 b00c 8d34 d150 fa35 1953 d635
00000240: d40b 5734 0fca 5034 0f6b 8f34 e815 6734
00000250: 6cc0 0736 c9bf 8e34 9be9 aa35 5645 7334
00000260: c96f 8734 1b69 7334 e6e1 8d34 7d8c 4934
00000270: 9207 2634 bd95 fd34 e2ca 2c36 a9ee 3635
00000280: be13 b933 6bce 4134 917c 4335 13ff 0f35
00000290: 078a 3134 d8f5 7635 81e5 1335 a4ce 3d35
000002a0: 58f9 1636 8b14 a434 17bf fc35 005b 3936
000002b0: 4794 c434 9027 fe34 50f0 0f35 848d 3a35
000002c0: 0c54 3136 e68f 0535 566e e635 d452 f834
000002d0: 71c3 1635 81de 4935 2391 1535 aeb4 f034
000002e0: afa2 7935 61b6 ce35 ea32 7e36 f31e d535
000002f0: b862 3534 709b 9e34 30e7 1936 93d5 f135
00000300: c7d4 c234 89c5 4136 e2b0 1135 2cfe 0736
00000310: 8c34 4235 0a65 0934 455f c534 506d 6e35
00000320: a8d7 2b34 ed3b 2d34 6a5f 2134 92df d433
00000330: 1515 9735 5c26 1735 3fa0 3135 54f8 4e34
00000340: 1843 9b34 8729 0934 bdc3 0b34 1aef 2334
00000350: 1288 6c35 21e6 e535 503a a234 3c9e 5d35
00000360: ae36 3e33 06ca 4b34 314f 7234 161f bb34
00000370: 7996 3234 8098 5c35 efdb fd34 dc1f 3735
00000380: b219 9c36 fed9 c234 5bad 1436 d6fb 3836
00000390: 7a07 0c35 d6e3 4835 c71c 1e35 642a dd34
000003a0: d12f a535 e107 8c35 a177 d536 949b 0335
000003b0: 6543 2135 a00d ea34 134f 0135 83ca c934
000003c0: 1060 0837 9e1e 0f37 ff54 f435 ecf1 fe36
000003d0: 479b 8834 959f 0536 4530 2e36 64b0 3d35
000003e0: 3e94 cd35 0d37 2537 3963 0337 0270 b836
000003f0: 6772 0b36 2134 1035 7a03 2536 80bd 9a36
3.2588284e-06 6.517997e-07 3.3056178e-06 6.044254e-06 1.1750266e-06 8.668274e-07 1.0845501e-06 1.6021909e-06
3.652237e-06 1.5049394e-06 3.5998394e-06 1.0291747e-06 1.6457225e-06 6.7588104e-07 1.0020207e-06 1.377505e-06
4.7900958e-06 8.908468e-06 2.5255201e-06 4.849768e-06 3.2276247e-07 6.4439354e-07 4.9866007e-06 2.752925e-06
1.2399888e-06 6.04469e-06 1.210745e-06 4.009598e-06 3.2197936e-06 5.867143e-07 1.0044121e-06 5.962804e-06
6.563275e-07 6.327234e-07 6.5370284e-07 5.0781836e-07 5.6047834e-06 4.920561e-07 3.4586105e-06 7.637704e-07
6.804178e-07 8.909744e-07 4.8907026e-07 1.0135525e-06 2.8130037e-06 2.7758872e-06 1.9690526e-06 2.8398326e-06
2.1765722e-07 5.5106307e-07 1.8544363e-06 1.0811056e-06 6.3526795e-07 3.5068854e-06 1.5773669e-06 2.0710256e-06
3.5819858e-06 8.6423296e-07 2.9067062e-06 4.3368195e-06 8.232458e-07 1.3593869e-06 9.1553864e-07 9.2805135e-07
3.2603273e-06 1.1924028e-06 3.4677362e-06 1.151339e-06 1.0292971e-06 1.1874157e-06 9.4872274e-07 1.057935e-06
2.8158497e-06 3.0725944e-06 3.4577965e-06 2.0285565e-06 3.7182886e-07 4.523865e-07 2.5699303e-06 2.422101e-06
4.242032e-07 5.669244e-06 2.3405573e-06 3.491591e-06 2.5846532e-06 4.085325e-07 1.4720223e-06 5.4656225e-06
5.874005e-07 4.5573805e-07 4.1460783e-07 5.5085445e-07 1.7754669e-06 6.05898e-07 2.146363e-06 6.4062505e-07
5.725075e-07 6.02738e-07 6.307206e-07 6.215413e-07 1.3398572e-06 1.9789288e-06 1.5175623e-06 1.0783482e-06
1.6544818e-07 2.1872292e-07 1.1846282e-06 1.0378834e-06 2.0698756e-07 4.368099e-06 5.6617415e-07 2.6966052e-06
4.9419e-06 6.3981423e-07 2.304984e-06 5.6366252e-06 1.050899e-06 5.6837655e-07 1.1625447e-06 1.024108e-06
4.5112624e-06 7.6629794e-07 4.2881893e-06 8.283145e-07 7.3257075e-07 6.731821e-07 8.3073286e-07 5.7331243e-07
4.4533404e-06 3.9186943e-06 4.0773652e-06 3.7997108e-06 2.3121285e-07 7.6209017e-07 1.6337164e-06 1.0031572e-06
7.9505946e-07 4.8249663e-06 4.1104695e-06 2.5799936e-06 2.60409e-06 2.6272528e-07 1.8649972e-06 1.5968427e-06
2.0027738e-07 1.9445018e-07 2.671372e-07 2.1521521e-07 2.0228572e-06 2.6589103e-07 1.2733975e-06 2.2656363e-07
2.5227044e-07 2.2669376e-07 2.642766e-07 1.8770693e-07 1.5462709e-07 4.723387e-07 2.574809e-06 6.814758e-07
8.618325e-08 1.804962e-07 7.282443e-07 5.3642833e-07 1.6534624e-07 9.199989e-07 5.509574e-07 7.070869e-07
2.249688e-06 3.0562327e-07 1.8831078e-06 2.7620117e-06 3.661573e-07 4.7339972e-07 5.362135e-07 6.949633e-07
2.6423977e-06 4.975576e-07 1.7168447e-06 4.6253865e-07 5.616376e-07 7.520212e-07 5.571803e-07 4.4834945e-07
9.2996464e-07 1.5401275e-06 3.7878585e-06 1.5878744e-06 1.6892852e-07 2.954289e-07 2.2933345e-06 1.8018058e-06
3.6290132e-07 2.8874222e-06 5.427411e-07 2.0264515e-06 7.23471e-07 1.2795877e-07 3.6763427e-07 8.882098e-07
1.6004071e-07 1.6133681e-07 1.5029005e-07 9.9126865e-08 1.1256512e-06 5.6307704e-07 6.6170827e-07 1.9275586e-07
2.8919817e-07 1.2774227e-07 1.3016593e-07 1.5267543e-07 8.811486e-07 1.7128806e-06 3.021728e-07 8.2559177e-07
4.4287553e-08 1.8979344e-07 2.2566816e-07 3.4854082e-07 1.6632283e-07 8.2178303e-07 4.7284945e-07 6.8219174e-07
4.6521536e-06 3.6293926e-07 2.2154625e-06 2.7564724e-06 5.2164944e-07 7.483735e-07 5.8901463e-07 4.11953e-07
1.2307374e-06 1.0433106e-06 6.3618213e-06 4.90277e-07 6.0075246e-07 4.359581e-07 4.8171313e-07 3.7586514e-07
8.128598e-06 8.530593e-06 1.8204154e-06 7.5979533e-06 2.5444953e-07 1.9911433e-06 2.5956117e-06 7.066467e-07
1.5316834e-06 9.847584e-06 7.8313105e-06 5.4966667e-06 2.0779205e-06 5.372004e-07 2.458894e-06 4.6116184e-06

exp_avg f4 [32]
00000000: e529 b53a c172 193a 5578 153a 3365 0939
00000010: ad74 c639 d580 14b9 6f01 a139 a67a 153a
00000020: 5bd8 9cb9 4adb db3a 70a4 d2b8 1b62 bdba
00000030: 3a54 bbba f860 243a 3bed c4ba d029 753a
00000040: 715c 18b9 0546 8739 d4ac 85b9 5da3 4539
00000050: f753 853a 232c 2c3b a412 20bb 15d8 d33a
00000060: 8940 16bb a571 1d3b fe03 b73a d8e7 64bb
00000070: bfce dd39 6a62 7cba 8f06 5337 a702 6d3a
0.001382169 0.00058535865 0.000570183 0.00013103038 0.00037852433 -0.00014162374 0.0003070938 0.0005702175
-0.00029915836 0.0016773727 -0.00010044209 -0.0014448793 -0.0014292069 0.0006270553 -0.0015024313 0.0009352239
-0.00014530287 0.00025801375 -0.00025496504 0.00018848242 0.0010172118 0.0026271425 -0.0024425173 0.001616242
-0.002292665 0.0024024036 0.0013962982 -0.0034928229 0.00042306443 -0.0009627702 1.2578107e-05 0.0009041228

exp_avg_sq f4 [32]
00000000: 14ac ff36 f78f 9336 4823 4236 40b5 a935
00000010: 17a7 c236 d238 7b35 84dd 0536 dcfa eb35
00000020: 9a46 4f37 e860 5136 3f44 8635 05af ed36
00000030: fee4 5d37 9b74 ef36 d7a9 9236 0eb5 8936
00000040: b6a3 f236 a7db c236 f7ba df36 62ce 4437
00000050: 4c2a db36 4108 3537 ead7 d736 ac52 2836
00000060: fbc2 8036 779d 0137 444a 8436 9da2 8837
00000070: f25f 8b36 06f1 0438 3c29 0d37 8e19 8c36
7.6196247e-06 4.397701e-06 2.892879e-06 1.2644232e-06 5.8011024e-06 9.358747e-07 1.9947483e-06 1.7581874e-06
1.23546e-05 3.1199834e-06 1.000364e-06 7.0835254e-06 1.3225943e-05 7.1363297e-06 4.370911e-06 4.1039957e-06
7.2312205e-06 5.8072214e-06 6.6676835e-06 1.1730563e-05 6.5316326e-06 1.07903625e-05 6.432635e-06 2.5082072e-06
3.837396e-06 7.725662e-06 3.942552e-06 1.6288186e-05 4.1536923e-06 3.1695723e-05 8.4138555e-06 4.1753e-06

exp_avg f4 [16, 32]
00000000: feb4 06b8 5f8b b3b6 5892 9239 92f9 aeb6
00000010: a67e 57b8 449a d634 781b 8239 f6a0 1838
00000020: 7f74 ae35 8c45 2c38 494c 203a 6cb4 2839
00000030: 82f4 3839 515d 48b7 b0c7 b939 4fce 9d39
00000040: fdea dd39 7f79 1939 d832 7b39 25af 3c38
00000050: 2540 da37 89bf bb38 db08 a839 ae2a 39b6
00000060: bca3 2f39 e6e8 8238 42be 8039 a82e 1739
00000070: 70f7 8039 cd07 cf38 c1d6 0638 6157 5339
00000080: e541 99b6 5dd6 313a d6cc 0d39 6ca5 d538
00000090: c08a 8439 5b4b 7838 ea15 ce39 88c7 b136
000000a0: ded5 7439 6c83 c038 f196 063a d726 eb39
000000b0: 209a 1039 b5eb 0139 689b 1039 82fc 073a
000000c0: 5067 7537 d6fd acb8 b97d bf39 99aa 2a39
000000d0: 44c5 4f38 d5d9 bf37 5b94 6739 b8b6 9338
000000e0: 843b ad39 1cab 2a38 4d53 4a39 e8ef 8939
000000f0: 7573 bb39 8a76 6939 d4a2 9437 d86a 1a39
00000100: bed1 35b7 73fd 8bb9 83fd 003a 5e38 b8b9
00000110: 4a7f 98b9 7e14 58b9 e9e7 8238 c310 a737
00000120: d60c dc37 062a 84b9 1059 2fba f4c2 d1ba
00000130: 8c09 1639 821d 32b9 dde3 4038 5e8d 0b39
00000140: 53e6 2eba ddf8 6e39 7f38 5f38 53b9 0a38
00000150: 61ce 39b9 5a32 f338 e3ad 18b9 10e4 8cb9
00000160: e7f9 07ba 27fa 3539 60f4 93b7 99a9 63ba
00000170: 5c04 99b9 c10b a7b9 320d acb9 f0e5 7f37
00000180: 9fc9 27b6 8fa6 04b8 0d20 19b7 c228 e837
00000190: 9297 bfb7 5a8d 16b7 93d2 87b8 441c ec37
000001a0: ac70 d437 1272 eb34 c813 7db8 7913 c4b7
000001b0: 8876 78b6 ff0c 7e38 15b7 54b7 63be 3b37
000001c0: 6a07 18b8 717b 9d37 33a1 a8b7 3247 dcb7
000001d0: e317 d4b7 75f4 6137 a3e7 9236 252b 3337
000001e0: 5fe2 8db7 429d eb35 4f01 fd36 7dac 7fb7
000001f0: 17e7 ebb7 5fd7 b1b7 dc76 ee36 a761 f636
00000200: 833b d7b8 4d2d 9eb8 b097 e4b9 c387 f0b8
00000210: f63f 09ba 9224 f9b9 3020 3b3a 8f63 0cb9
00000220: 5a87 18b9 8d31 f9b9 fe03 9eba 4608 d0ba
00000230: 6fbb 69b9 ed6b 35b9 2823 2cba 07cc 6e39
00000240: e6fe 52ba 24f8 1dba f04a 93b7 f6fe 9038
00000250: 517f f5b9 fba5 b7b9 037a 15ba 0a7f 0739
00000260: 46d1 9db9 b3d2 9a39 a4f6 32b9 81c2 92ba
00000270: 8358 93ba ea00 14ba 3dc9 18b9 1983 97b9
00000280: 51bc c8b6 fed8 a2b9 6688 19b7 d374 f0b9
00000290: 0cea bcb9 0f28 6fb9 aea9 9b38 b1d4 4ab7
000002a0: 6f4a f6b8 88de 75b8 c22a 58ba 9646 89ba
000002b0: 95ee a4b8 727a 08b9 6f56 79b8 c492 3438
000002c0: 953a 55ba 810f 4d39 8b8c 02b8 03fe c737
000002d0: fb69 3eb9 29f7 3437 e1ee deb9 68f2 cdb9
000002e0: 4294 15ba 029b 4f38 4702 feb8 f355 04ba
000002f0: f816 a9b9 f0b7 eab9 45dd 9eb9 d0e1 3aba
00000300: 28c0 47b9 db11 c5ba 1737 9f38 680f f1ba
00000310: c1c7 9dba e9f3 08b8 9856 6cba 9bd2 2cb9
00000320: 34d2 d5b8 0bad 15ba b275 0fbb 28ef 3fbb
00000330: 7130 523a 8580 83ba ec13 6339 2b9e 8b38
00000340: 9ff1 fcba 6efc 7939 96b9 ac38 3a35 90b8
00000350: 14a2 87b8 614c ec39 d3bd 2aba 398b 88ba
00000360: 270a caba eff3 dfb8 d7fa 8db9 6b4a 63ba
00000370: a5af b2ba 9d17 6eba 295f c538 5bdc 6dbb
00000380: 5927 7738 6e7b 4b39 e0d3 8fba 4cf5 0c3a
00000390: 9037 0e39 5c0f 7539 e8c9 8738 0019 023a
000003a0: d08e bc39 df1f 5fba fba1 a739 020f 0f3b
000003b0: 99cc 21b7 6fa7 9b39 b3c5 0838 d3ac 8138
000003c0: d97c 8139 311a 8c38 00e7 a738 9448 ea37
000003d0: 6f36 e438 df2b 83b9 bcb9 d939 43ec 71b9
000003e0: 8211 5638 de62 e538 b909 203a 121c f839
000003f0: 5664 1db8 3e9c 343a 4e39 3e39 020d 2d38
-3.211665e-05 -5.3508406e-06 0.00027956325 -5.214658e-06 -5.1377945e-05 3.997285e-07 0.00024815998 3.638953e-05
1.2997915e-06 4.1072766e-05 0.0006114883 0.00016088941 0.00017638694 -1.1942656e-05 0.00035434728 0.00030099085
0.00042327485 0.00014636478 0.00023956166 4.498581e-05 2.6017495e-05 8.952531e-05 0.00032050055 -2.759199e-06
0.00016750296 6.242264e-05 0.00024555816 0.00014417863 0.00024598418 9.871982e-05 3.2148095e-05 0.00020155079
-4.5674265e-06 0.0006783957 0.00013523115 0.00010187444 0.0002528038 5.9197988e-05 0.0003930771 5.2982396e-06
0.00023349325 9.179753e-05 0.00051341864 0.0004485163 0.00013790326 0.00012390206 0.00013790803 0.0005187468
1.4627192e-05 -8.24888e-05 0.0003652403 0.00016276016 4.9536364e-05 2.287041e-05 0.00022085143 7.04354e-05
0.00033041474 4.0690516e-05 0.00019295253 0.0002630942 0.00035753442 0.00022264771 1.7718798e-05 0.00014726387
-1.0837275e-05 -0.0002670098 0.00049205887 -0.00035137212 -0.00029086537 -0.00020606999 6.24208e-05 1.9915757e-05
2.623202e-05 -0.00025208312 -0.00066889916 -0.0016003535 0.00014308671 -0.00016986395 4.598858e-05 0.00013308736
-0.0006671894 0.00022790158 5.321996e-05 3.307436e-05 -0.00017719857 0.00011596522 -0.00014560627 -0.000268728
-0.00051870797 0.00017354694 -1.7637562e-05 -0.0008684635 -0.00029185682 -0.0003186148 -0.00032816228 1.5252721e-05
-2.5002298e-06 -3.1626372e-05 -9.126973e-06 2.7675535e-05 -2.2839555e-05 -8.973608e-06 -6.476524e-05 2.8146555e-05
2.5324836e-05 4.3855158e-07 -6.0338323e-05 -2.3374088e-05 -3.7023874e-06 6.0570423e-05 -1.2678812e-05 1.1190396e-05
-3.624653e-05 1.877334e-05 -2.0102225e-05 -2.6259197e-05 -2.5283493e-05 1.3467962e-05 4.378105e-06 1.0679277e-05
-1.6913922e-05 1.7554632e-06 7.54014e-06 -1.5239345e-05 -2.8121793e-05 -2.1200334e-05 7.10679e-06 7.3427395e-06
-0.00010263084 -7.542465e-05 -0.00043600565 -0.000114693794 -0.0005235666 -0.00047520228 0.000713828 -0.00013388529
-0.00014546272 -0.000475299 -0.0012055633 -0.0015871606 -0.00022290436 -0.0001730171 -0.0006566518 0.00022773455
-0.0008048847 -0.00060260505 -1.7558661e-05 6.913945e-05 -0.000468249 -0.00035028145 -0.000570208 0.00012921929
-0.00030101294 0.00029530152 -0.00017067284 -0.0011196883 -0.0011241589 -0.0005645888 -0.00014570817 -0.0002889864
-5.9823874e-06 -0.0003106072 -9.151268e-06 -0.00045863408 -0.00036032533 -0.00022807739 7.422581e-05 -1.2089659e-05
-0.000117440584 -5.86198e-05 -0.00082461175 -0.0010473307 -7.864569e-05 -0.00013015585 -5.9446724e-05 4.305203e-05
-0.00081340346 0.00019556099 -3.1125306e-05 2.3840932e-05 -0.00018159293 1.07863825e-05 -0.00042521118 -0.00039281254
-0.0005705991 4.9497008e-05 -0.00012112088 -0.0005048208 -0.00032251305 -0.00044769002 -0.00030300967 -0.00071289856
-0.00019049703 -0.0015035229 7.591972e-05 -0.0018391432 -0.0012037681 -3.2652086e-05 -0.0009015589 -0.00016481655
-0.00010195785 -0.00057096843 -0.002189022 -0.0029286835 0.00080180826 -0.0010032809 0.00021655828 6.6574976e-05
-0.0019298083 0.00023840528 8.236167e-05 -6.876369e-05 -6.467491e-05 0.00045070334 -0.00065132714 -0.0010417468
-0.0015414403 -0.00010678905 -0.00027080506 -0.0008670452 -0.0013632668 -0.0009082498 9.411417e-05 -0.0036294672
5.8926034e-05 0.0001940557 -0.0010973178 0.0005377128 0.00013562874 0.00023370743 6.4749096e-05 0.0004962832
0.00035964558 -0.0008511524 0.00031973407 0.0021829014 -9.643984e-06 0.00029688652 3.260905e-05 6.18339e-05
0.00024697816 6.680599e-05 8.006208e-05 2.792877e-05 0.00010882026 -0.00025018954 0.00041527848 -0.00023071565
5.103788e-05 0.000109379864 0.00061049644 0.0004732316 -3.7525162e-05 0.0006889737 0.0001814116 4.125853e-05

exp_avg_sq f4 [16, 32]
00000000: b57f 8933 8af0 1835 5d66 cf34 b7f5 7235
00000010: f430 1534 c50e 9534 272f 3635 c663 e933
00000020: c1ba 8534 d40b c433 6a31 d335 0555 1e34
00000030: 4a4c b734 c80f 5333 727a 4535 26c6 ab34
00000040: 32dc 5b34 7b47 2834 39b5 0834 e105 3534
00000050: 40f2 5f33 a472 d134 e524 9634 0d9d 3c34
00000060: 6be5 8b33 b61e 7534 363c 0b34 902f 7034
00000070: 68f3 e535 b318 1934 f5f0 0b34 3110 f734
00000080: bbe0 5a35 edb2 5036 7fa2 c135 34bc 5936
00000090: 6c08 4636 8fc1 0a36 ed3c 5236 1320 3835
000000a0: 2d03 6136 e0df 4c35 4da1 c836 1b0f a235
000000b0: cce4 a634 5d6a a335 9b45 3136 caa4 2236
000000c0: cdc2 2d35 12ec ea34 efaf 9235 76db 9d35
000000d0: bcc5 1035 7aac 0536 60a9 3c35 884d d435
000000e0: da0a 1934 f6a3 0e35 95b6 6935 1fcc 6f35
000000f0: 1654 2937 76ca e035 32df 3135 d9fd 0d36
00000100: 6514 7f34 66f5 a134 556f 5d34 bd38 2b35
00000110: c455 de34 a167 5334 8dca b934 1c30 8934
00000120: b2ce 5833 afae a033 2949 8c35 7c84 5135
00000130: 5bad fc35 02a1 9733 5a88 4b33 007e 5234
00000140: 9fc8 5536 8917 e534 5b22 1635 367d 0536
00000150: 9d43 3b34 ecef 0c35 2bd8 3f35 8a96 8034
00000160: 7c6d 4434 f1f5 ee36 fdc5 2933 11ab ee34
00000170: 6333 7035 4941 8534 5435 4f34 e9f3 7435
00000180: e278 d835 b366 3f36 cd61 0935 ce46 5835
00000190: 08a0 4e36 0972 0d35 dc7b c236 5487 2936
000001a0: e779 9c36 89a7 c934 4fde 3836 916a bd34
000001b0: 3dd9 0436 b08c 6a36 9647 5434 a4c0 9836
000001c0: 3ada 5436 3225 e935 b771 5135 cc50 0037
000001d0: deea 1136 1059 9e35 ba88 8635 277c 6b36
000001e0: fe8e b634 98aa cd36 b6ed f035 a3e3 e735
000001f0: 42f3 3836 77fc 4c36 a470 5a35 2004 a135
00000200: 92ec c636 0f46 0037 419d ac36 9d8e ff36
00000210: eae5 e136 7ee8 9c35 5a4b 0436 246a ce36
00000220: f0ac 3837 5cf6 f035 2a41 9e37 515c 2836
00000230: 8556 4f35 70b6 2137 e28b cc35 83f4 f636
00000240: 7537 9536 9e9b 3e36 39fb 2836 042b 8637
00000250: 23df 7436 4b58 1937 494e 9a36 aaad f836
00000260: 4b56 6f35 414d e936 d817 e735 f505 ac36
00000270: a6cf e136 b67f 9a36 370b 2136 35b2 0136
00000280: 1c4b f332 4e9e 4a34 3fe6 d931 1311 7334
00000290: f048 2a34 ba47 3533 b953 2034 582d 3333
000002a0: 6d91 b933 1023 1733 8f65 7034 fa3c c433
000002b0: bef9 1234 d9f2 6933 7343 e231 5a71 7533
000002c0: 6370 3b34 8599 8333 6df1 1433 3f01 2234
000002d0: ae44 2b33 aaf1 3833 4602 c233 eb5c 0d34
000002e0: 4e60 4f33 5055 5e34 71f9 9532 9601 fe33
000002f0: 6bdc 0534 e0cb 2f34 aba7 2932 d972 3b34
00000300: 741e 9e35 3992 1537 fefc 6336 e636 7b37
00000310: d1f1 a436 3c0f 6636 3517 1d37 e6f6 6836
00000320: 51b9 5536 69dd 1a36 ad7d 2f37 1d7c 4137
00000330: d689 e836 f026 2536 e6f6 7b36 1342 3636
00000340: 95a2 a336 3ef2 1037 1421 e436 bc50 3d35
00000350: 161b d234 583e 2936 3450 9b36 a532 f136
00000360: 50c3 b036 2f16 df35 00e7 7235 9a1f 3d37
00000370: 9932 c436 a87a 1736 8a9c 6c36 32f3 6e37
00000380: b660 a734 0a15 0634 99f4 1d36 008b db34
00000390: cabc 5d35 dc06 3234 4aad 9e33 0b66 0335
000003a0: 9b67 1835 158a 4835 15d3 d034 00ed 8236
000003b0: 4abc 2134 e67a 0c35 a07b 8535 ed0e 2834
000003c0: 0c0e 1834 6088 b235 68c9 9632 f8a3 a833
000003d0: 5027 1e34 4ab3 8f34 545d e534 dcf9 2936
000003e0: 25b3 6933 8843 3933 e3e0 fc33 c340 ec33
000003f0: a0c8 1336 b826 1935 f6cf b334 0da9 9033
6.4027894e-08 5.6974443e-07 3.8631234e-07 9.050959e-07 1.3894515e-07 2.776416e-07 6.78689e-07 1.0868057e-07
2.4909062e-07 9.129113e-08 1.5735106e-06 1.4745827e-07 3.4141914e-07 4.914162e-08 7.35664e-07 3.1995404e-07
2.0476071e-07 1.5672224e-07 1.2731915e-07 1.6859077e-07 5.214156e-08 3.9012696e-07 2.7966522e-07 1.7565999e-07
6.514423e-08 2.2828576e-07 1.2967288e-07 2.2369045e-07 1.713267e-06 1.4258221e-07 1.3033043e-07 4.6019116e-07
8.1538354e-07 3.1098564e-06 1.4426913e-06 3.2445068e-06 2.9509201e-06 2.0676268e-06 3.1327902e-06 6.8592016e-07
3.3529461e-06 7.6321703e-07 5.9792424e-06 1.2074337e-06 3.108638e-07 1.2175402e-06 2.641557e-06 2.42358e-06
6.4730995e-07 4.375766e-07 1.0929051e-06 1.1761283e-06 5.393192e-07 1.991894e-06 7.028193e-07 1.5817795e-06
1.4253183e-07 5.3137717e-07 8.7064956e-07 8.9331473e-07 1.0092763e-05 1.6748224e-06 6.626243e-07 2.1158396e-06
2.3756145e-07 3.0167138e-07 2.0622731e-07 6.378503e-07 4.1413125e-07 1.9688606e-07 3.460631e-07 2.5553243e-07
5.0479407e-08 7.4823554e-08 1.0452105e-06 7.805136e-07 1.8825916e-06 7.0607726e-08 4.738863e-08 1.9603613e-07
3.185625e-06 4.2671698e-07 5.592935e-07 1.9891427e-06 1.744033e-07 5.2503196e-07 7.146761e-07 2.395139e-07
1.8293753e-07 7.121584e-06 3.9528448e-08 4.4455422e-07 8.9481745e-07 2.4820682e-07 1.9297778e-07 9.125202e-07
1.6128436e-06 2.8520997e-06 5.1178796e-07 8.0569305e-07 3.0789543e-06 5.2692536e-07 5.7960697e-06 2.5261734e-06
4.6633536e-06 3.7561065e-07 2.7547537e-06 3.528153e-07 1.9795982e-06 3.4950608e-06 1.9770081e-07 4.5523793e-06
3.1717486e-06 1.7370678e-06 7.8024044e-07 7.6482065e-06 2.1743394e-06 1.1797838e-06 1.0023571e-06 3.5089995e-06
3.4004182e-07 6.129336e-06 1.7950576e-06 1.7277092e-06 2.7559731e-06 3.0545323e-06 8.137524e-07 1.1996635e-06
5.9284002e-06 7.645706e-06 5.144306e-06 7.6161946e-06 6.732288e-06 1.169057e-06 1.9713393e-06 6.151635e-06
1.100752e-05 1.7953093e-06 1.8865412e-05 2.5087686e-06 7.723941e-07 9.638825e-06 1.5239896e-06 7.359836e-06
4.447002e-06 2.8402787e-06 2.5180182e-06 1.5994076e-05 3.6488716e-06 9.140068e-06 4.5986712e-06 7.411193e-06
8.916001e-07 6.9529347e-06 1.7217781e-06 5.126693e-06 6.729696e-06 4.604425e-06 2.3997397e-06 1.9326228e-06
2.8323079e-08 1.8870307e-07 6.341707e-09 2.263735e-07 1.5859018e-07 4.220758e-08 1.493162e-07 4.1717925e-08
8.6411866e-08 3.5189316e-08 2.2388689e-07 9.138053e-08 1.3688165e-07 5.447041e-08 6.5851338e-09 5.71466e-08
1.7456618e-07 6.128088e-08 3.467851e-08 1.5087879e-07 3.9876504e-08 4.306063e-08 9.0342425e-08 1.3165452e-07
4.8283532e-08 2.0706398e-07 1.7459316e-08 1.1828085e-07 1.2466778e-07 1.6372314e-07 9.875218e-09 1.7457513e-07
1.178078e-06 8.915137e-06 3.3972897e-06 1.4973548e-05 4.915732e-06 3.4281538e-06 9.3633325e-06 3.4714408e-06
3.1847342e-06 2.3076666e-06 1.0460074e-05 1.1532594e-05 6.930185e-06 2.460958e-06 3.7545628e-06 2.7158574e-06
4.8767056e-06 8.63947e-06 6.7987803e-06 7.052547e-07 3.9135256e-07 2.5219251e-06 4.628697e-06 7.1882555e-06
5.267946e-06 1.6621251e-06 9.0488174e-07 1.1272636e-05 5.8471455e-06 2.2572149e-06 3.5257858e-06 1.4242529e-05
3.117654e-07 1.2487376e-07 2.3537198e-06 4.0893065e-07 8.260364e-07 1.6580037e-07 7.3889694e-08 4.8949795e-07
5.677518e-07 7.470674e-07 3.8896601e-07 3.9018923e-06 1.5062793e-07 5.2332905e-07 9.945252e-07 1.5651649e-07
1.4161213e-07 1.3301724e-06 1.7553887e-08 7.8529354e-08 1.4729198e-07 2.6766276e-07 4.272248e-07 2.53284e-06
5.441247e-08 4.313509e-08 1.1775571e-07 1.10013865e-07 2.2021486e-06 5.7053285e-07 3.349266e-07 6.736273e-08

exp_avg f4 [16]
00000000: ce65 db38 a30b 7b39 071c 79ba a585 1fb6
00000010: 2c57 cdba 8444 66ba 8e87 54bb 0e42 b03a
00000020: 724f 1c3a e17f 543a 6c62 1aba c87e 953a
00000030: a07a f5ba c0c0 2aba 5a15 7b3a 1821 f7ba
0.000104616964 0.0002394156 -0.00095027726 -2.3770638e-06 -0.0015666238 -0.00087840133 -0.003242943 0.001344742
0.0005962766 0.00081062136 -0.00058893 0.0011405582 -0.0018728562 -0.00065137073 0.0009578072 -0.0018854467

exp_avg_sq f4 [16]
00000000: d33c 0f35 6937 4036 9908 d235 dbad cb36
00000010: 5cd9 4d37 e969 7834 de89 1137 91d9 d935
00000020: 4d31 7836 c4e3 f536 e0d1 1238 2b4c 2736
00000030: 9dfb c838 4b6f ab37 b0e5 ac36 5e68 9f36
5.336016e-07 2.8642482e-06 1.5648722e-06 6.070111e-06 1.226956e-05 2.313533e-07 8.674773e-06 1.623108e-06
3.6983577e-06 7.3280844e-06 3.5004574e-05 2.4929275e-06 9.58361e-05 2.0436613e-05 5.1527386e-06 4.750719e-06

exp_avg f4 [5, 3]
00000000: 0000 0000 0000 0000 0000 0000 6d53 9f3a
00000010: ddac 24ba 8608 123a fad7 263a 289a c8ba
00000020: 2222 f937 63c3 b23a 83eb 9dba ecd9 c736
00000030: 9866 ef39 ab9b 86ba 9ab3 19b8
0.0 0.0 0.0 0.00121556 -0.0006281862 0.0005570728 0.00063645805 -0.0015304731
2.9699007e-05 0.0013638552 -0.0012048337 5.9560316e-06 0.0004566207 -0.0010269781 -3.664531e-05

exp_avg_sq f4 [5, 3]
00000000: 0000 0000 0000 0000 0000 0000 d5c2 8f36
00000010: 7097 c336 ef98 5735 825f 9936 e6f6 e036
00000020: 9c9f 1e35 e692 4836 22f6 b036 ed55 3135
00000030: 5206 7e35 af03 8236 5d63 8b35
0.0 0.0 0.0 4.2844135e-06 5.8290825e-06 8.031629e-07 4.570874e-06 6.704463e-06
5.909185e-07 2.9887829e-06 5.2738624e-06 6.6062677e-07 9.463157e-07 3.8747307e-06 1.0385226e-06

exp_avg f4 [5, 3]
00000000: 0000 0000 0000 0000 0000 0000 4015 043a
00000010: a5f6 87b8 6f25 5db9 362b 1439 b833 14b9
00000020: ac10 3e3a ed9c e938 f66e cdb9 7239 0fba
00000030: ca2c da39 8197 a539 87b5 0538
0.0 0.0 0.0 0.0005038567 -6.483243e-05 -0.00021090147 0.00014130477 -0.00014133647
0.0007250409 0.000111395355 -0.0003918332 -0.0005463577 0.0004161357 0.00031584132 3.187873e-05

exp_avg_sq f4 [5, 3]
00000000: 0000 0000 0000 0000 0000 0000 09d8 1f35
00000010: 0cf6 3035 b3b0 e634 35b1 3c35 b7ac 6235
00000020: dd88 2635 6585 8235 a9db 4a35 a0b3 1d35
00000030: 4e78 2b35 74ea 2b35 7f8a d034
0.0 0.0 0.0 5.954649e-07 6.5923155e-07 4.2969404e-07 7.029333e-07 8.4442894e-07
6.203898e-07 9.724578e-07 7.557051e-07 5.8748446e-07 6.387753e-07 6.404364e-07 3.8843788e-07

exp_avg f4 [5, 3]
00000000: 0000 0000 0000 0000 0000 0000 49ab 4939
00000010: 4076 0fb9 60c7 5a39 5631 cb38 4174 1639
00000020: 6c8e bbb9 7bcc 0dba 53ab 033a 9fad 633a
00000030: a83d 73b9 55d6 8239 52a6 6f3a
0.0 0.0 0.0 0.00019232662 -0.00013681594 0.00020864373 9.688984e-05 0.00014348423
-0.00035773532 -0.0005409193 0.0005022783 0.00086852344 -0.00023197255 0.00024955222 0.000914191

exp_avg_sq f4 [5, 3]
00000000: 0000 0000 0000 0000 0000 0000 f446 3735
00000010: 89dd 3a35 f038 2a35 0262 0835 951d fe34
00000020: 8d0a 5c35 ec20 ea34 318b 0635 462d 5c35
00000030: de87 0935 8bdb 3a35 86a3 2635
0.0 0.0 0.0 6.8276063e-07 6.9612776e-07 6.341279e-07 5.080657e-07 4.733271e-07
8.197174e-07 4.360985e-07 5.012144e-07 8.202227e-07 5.123419e-07 6.9609877e-07 6.2077777e-07

exp_avg f4 [5, 3]
00000000: 0000 0000 0000 0000 0000 0000 8810 4c39
00000010: 1943 d1b9 2ea9 203a 5bb3 9b39 19b9 84ba
00000020: 09f7 3f3a 1702 7e3a cb02 cbba 235e 8a3a
00000030: e62f 0f3a 49b5 cbba 1f09 b73a
0.0 0.0 0.0 0.00019461114 -0.00039913578 0.00061287254 0.00029697534 -0.0010125964
0.0007322883 0.00096896425 -0.0015488503 0.0010556619 0.00054621545 -0.0015541698 0.001396451

exp_avg_sq f4 [5, 3]
00000000: 0000 0000 0000 0000 0000 0000 38db 5236
00000010: aea6 8436 d952 2336 56a9 1f35 b871 6036
00000020: 8a57 1e36 2470 8935 9cfc 9f36 0bd3 2936
00000030: f986 9836 949a 0037 2932 3c36
0.0 0.0 0.0 3.142004e-06 3.9533106e-06 2.4337116e-06 5.947853e-07 3.3444794e-06
2.359479e-06 1.0239933e-06 4.767977e-06 2.5305806e-06 4.545666e-06 7.665385e-06 2.804338e-06
