vertex-custom-ml/pytorch/custom_jobs/pytorch_tabular/training/saved_models/classification-1_epoch=14-valid_loss=0.19.ckpt (torch, 56082 bytes, 35 tensors)

_backbone.linear_layers.0.weight f4 [32, 26]
000000 10 a6 a3 3f 80 2c 6e 3e 91 d4 3c be 17 0f bf 3e
       1.2785053 0.23259163 -0.18440463 0.373162
000010 c0 e8 89 bf 67 8e 1f bf 71 ab 87 be 8b 44 63 3e
       -1.0774155 -0.62326664 -0.26497987 0.22194116
000020 6e f8 b3 3d de 17 a0 3e 08 5c cd bc 10 51 c3 bf
       0.087876186 0.3126821 -0.025068298 -1.5259113
000030 8f 68 d9 3e 62 b3 98 3e 96 2d e8 3d 7e 38 a1 be
       0.42462584 0.29824358 0.1133682 -0.31488413
000040 25 0a 7b 3f 62 47 db 3f fd 6b 85 3f 4e 52 34 3f
       0.98062354 1.7131159 1.042358 0.70438087
000050 25 5e 16 bd 2d 3a bd 3f 75 78 e6 3e 38 b2 a2 bf
       -0.036710877 1.4783379 0.45013776 -1.2710638
000060 b5 29 e7 be 19 04 84 3d 8b f9 0c 3f ad bd 2d be
       -0.45149007 0.06446094 0.5506827 -0.16966887
000070 40 7d 19 bf b3 6c 0f bf ca d0 89 bd 03 48 a6 bf
       -0.5995674 -0.56025237 -0.067292765 -1.2990726
000080 e5 fd bd be 6c cb c2 3d 82 64 a2 bd df c1 19 ba
       -0.3710777 0.09511456 -0.079293266 -0.0005865376
000090 c0 a8 33 be 77 74 92 be 9c 16 e7 3e 4b 70 2b 3e
       -0.17544842 -0.2860448 0.45134437 0.16742055
0000a0 9b 61 1a bf a6 bd 82 bd 74 cf 36 3f 37 7b da 3e
       -0.60305184 -0.06383829 0.714103 0.4267213
0000b0 5e 82 b6 3d 37 52 55 3e dd 06 b4 3c aa db 07 40
       0.08911584 0.20832144 0.021975929 2.1227822
0000c0 e2 36 79 bf dc 19 f6 bd 8e 8a 12 3e 20 39 3b 3f
       -0.9734937 -0.12016651 0.14310667 0.7313404
0000d0 b6 2b 31 3f 93 8a ea 3d 3b 7a 30 bf d4 2c 5d 3e
       0.6920732 0.11452212 -0.6893651 0.21599132
0000e0 d1 b9 49 3f f6 4d 6f 3f d4 38 4f bf 91 92 18 bf
       0.7879916 0.93478334 -0.8094609 -0.5959864
0000f0 23 07 71 3f 9a e1 6c bf f4 0b 29 be 76 11 07 bf
       0.94151515 -0.9253174 -0.16508466 -0.5276102
000100 d4 12 a7 3f da de a2 3e d7 28 ec be 48 d4 7e bf
       1.3052621 0.31810647 -0.46124908 -0.99542665
000110 fd e9 e9 3f ca 2c 29 bf 66 c2 76 3d 5b b8 56 be
       1.8274533 -0.6608397 0.060243987 -0.20968764
000120 8a 1b 07 40 74 13 a7 bd 50 cf 11 3f e4 bd b9 bf
       2.1110559 -0.08158007 0.5695696 -1.4511075
000130 dd 3d bb be af 6f 4b 3f 3c 55 cd 3e 6c ef 75 3f
       -0.36570635 0.7946729 0.4010409 0.96068454
000140 b0 e4 22 bf 33 9a b0 bf 9c 9b 93 3e 56 1c fa bf
       -0.636302 -1.3797058 0.28829658 -1.9539897
000150 01 9e c2 3e 9d 54 05 be d6 c4 51 bf c2 47 d9 be
       0.38011172 -0.13020559 -0.8194097 -0.4243756
000160 21 59 78 be 90 80 57 3f da d7 6f 3f d2 ef 75 3f
       -0.2425275 0.84180546 0.9368874 0.9606906
000170 d0 7d 48 bd 9e c8 4f bf 9f 04 29 3f 92 27 97 3d
       -0.04894811 -0.8116549 0.66022676 0.07380594
000180 84 82 48 bf 33 5a da be 0c 37 1a be e3 1d b4 3e
       -0.7832415 -0.42646942 -0.15060061 0.35179052
000190 5a 25 b0 bf d8 e1 0c bf 18 a9 9a be de 6d d9 3d
       -1.3761399 -0.5503211 -0.30207133 0.10616659
0001a0 c6 5f 7d 3e 54 4e a6 bf 9e 51 0d be 84 db 98 bf
       0.24743566 -1.2992654 -0.13800666 -1.1941991
0001b0 db e7 7a 3e d1 06 75 bf 44 ee 73 bd 55 46 61 3d
       0.24502508 -0.95713526 -0.0595534 0.054998714
0001c0 3c 40 8e bf ce a3 81 bd 3b 84 b9 3e 09 f0 69 bf
       -1.1113353 -0.063300714 0.36233696 -0.9138189
0001d0 8c ce 09 bf 48 15 6c 3e 13 35 a3 bf 31 f4 91 be
       -0.5383079 0.23054993 -1.2750572 -0.28506616
0001e0 1b f7 05 be 57 9c 12 3f 40 31 52 3e 33 85 b7 3e
       -0.13082545 0.57269806 0.205266 0.3584381
0001f0 d7 b1 1e bf f5 80 b2 3f 6c 17 36 bf 5c e9 86 be
       -0.6199011 1.3945605 -0.7112949 -0.26349914
000200 0c f9 ca 3e 70 6f 03 bc b9 34 04 3f 0c 8c 1f 3f
       0.39643133 -0.008022174 0.5164295 0.6232307
000210 01 d0 df be 7b 4d 7b bf 6f 09 43 bf fc c5 98 bf
       -0.43713382 -0.981651 -0.7618627 -1.193542
000220 13 3e 84 3f 13 b5 b1 3e 4e 4a 32 40 dc d7 e0 3c
       1.0331444 0.3470846 2.7857852 0.02744668
000230 97 71 06 3f cc 58 96 bf e6 85 30 3e 9d dd ef 3d
       0.52517074 -1.1745849 0.17238578 0.11712191
000240 85 c8 16 3f 15 8b 3f 3e 23 b7 21 bf 57 4a 4d bd
       0.5889972 0.187054 -0.6317007 -0.050119724
000250 0d 10 8e 3e f1 e2 3e 3d 2f 1e 01 be 97 3d f5 3e
       0.2774662 0.046603147 -0.1260917 0.47898552
000260 24 4e 45 3e 49 46 6a bf 4a 8a 21 bd bd bd c9 3e
       0.1926809 -0.91513497 -0.039438523 0.3940257
000270 7d 25 7d be 23 8e a7 3f 91 dc d8 be ab fd 8e 3f
       -0.24721332 1.3090252 -0.4235578 1.1171163
000280 1b 49 cd 3e 68 a2 42 3e b6 e7 af be 0e cf fa be
       0.40094838 0.19007266 -0.3435647 -0.48986095
000290 fd 9b 1d 3f 58 fc b6 be dc 07 6f bf 50 c6 45 3f
       0.61566144 -0.35739398 -0.9337137 0.77255726
0002a0 a8 0c fc 3c c7 00 10 bf c9 59 5a bd 18 3f ac be
       0.030767754 -0.56251186 -0.053308282 -0.33641887
0002b0 d0 e0 f8 3e 05 5b 12 3f a1 ab 5c 3f 99 ba e8 3e
       0.48609018 0.57170135 0.86199385 0.45454863
0002c0 5b d7 dd bd 06 bf 18 3e 42 a7 2e 3f 76 c3 0f bf
       -0.108320914 0.1491662 0.68223965 -0.56157625
0002d0 ca 10 96 3e 1b e7 7a 3d 14 d1 a5 be c1 fc 93 be
       0.29309684 0.061255556 -0.32386076 -0.28903773
0002e0 fa 6d 92 3e 72 41 37 bf d2 9e ad bf 57 e2 fa be
       0.2859953 -0.71584237 -1.3564093 -0.4900081
0002f0 92 80 0c bf ae 84 9c be a4 1e 67 bf 07 23 9a be
       -0.5488368 -0.30569977 -0.9028113 -0.3010485
000300 84 de f5 be 73 14 46 3e ba b8 ed be 71 25 ea bd
       -0.48021328 0.19343738 -0.46429998 -0.11432923
000310 68 fc ad bf 8e 36 eb be 60 f3 6c be 4c 98 8b 3f
       -1.3592653 -0.4594006 -0.23139715 1.0905852
000320 4a 34 0d 3f 80 dd b7 be 38 50 a3 bf 4b 3d 15 3c
       0.5515791 -0.3591118 -1.2758856 0.009108852
000330 4b 4f 05 3f da 66 70 3e be d3 58 3f 07 62 31 bf
       0.52074116 0.23476735 0.8469809 -0.692902
000340 2f d0 93 3f b3 eb 99 bf 1d 84 dc 3d a9 40 cc 3d
       1.1547908 -1.2025055 0.10767386 0.099732704
000350 d6 0a 9b 3c 37 ba 23 40 09 ba e1 3b 7b 79 ca 3c
       0.018926065 2.5582407 0.006888632 0.02471613
000360 88 8b 9d bf 63 10 0e 3f fd c7 c0 be 14 9e c5 bf
       -1.2308207 0.55493754 -0.3765258 -1.5438867
000370 ef 0a d1 3e 33 07 96 3e 38 d6 fd be 39 1d da 3d
       0.40828654 0.29302368 -0.49577498 0.10650105
000380 c9 cf bb 3e 19 52 04 3f cc e3 2a 3f 3b 21 c1 be
       0.36681965 0.5168777 0.6675384 -0.37720665
000390 d8 35 82 3f 31 11 46 3f 2b 14 72 3f 31 12 06 bf
       1.0172682 0.7736998 0.94562024 -0.5237151
0003a0 27 5a c9 be 91 b2 8a 3d 19 0b f2 bf 65 3d 08 3f
       -0.39326593 0.0677234 -1.8909637 0.5321868
0003b0 8b 78 c4 bf b3 8b 3c 40 2f 66 46 bd fc 08 5e 3d
       -1.5349287 2.9460266 -0.048437294 0.054207787
0003c0 68 a3 4a bf 2c e6 8e bc 13 8b b3 3f 9c 93 ac 3e
       -0.7915559 -0.017443739 1.4026817 0.33706367
0003d0 c4 af 9a be c1 e8 4b bc 61 a8 32 3f 1f d6 ee 3d
       -0.30212224 -0.01244563 0.69788176 0.11661934
0003e0 5e 55 66 bf a8 ad b8 be 5b 34 52 3f e4 fa b3 3f
       -0.8997401 -0.3606999 0.8211114 1.4060941
0003f0 0b f2 7b 3f 32 1a 18 3e 4b 72 d1 3e 81 ab f0 be
       0.98416203 0.14853743 0.4090751 -0.47005847

_backbone.linear_layers.0.bias f4 [32]
000000 7c 3b 9d bf 69 7f ed be 49 4c a4 be b6 44 be 3e
       -1.2283778 -0.4638627 -0.3208945 0.37161797
000010 84 2d 6e be 25 41 6a be 41 8e 61 bf 40 ea 77 bf
       -0.2325955 -0.22876413 -0.8810769 -0.9684181
000020 a1 13 11 bf e0 89 c1 bf 75 f6 36 bf 9f 75 00 be
       -0.56670576 -1.5120201 -0.71469814 -0.12544869
000030 04 ee 30 be 86 71 a7 bf 5e cc 1e bf bb 02 4c bf
       -0.17278296 -1.308152 -0.6203059 -0.79691666
000040 4f f0 06 bf d9 6f 8b bf c1 5f 2d bf 21 d1 ba bf
       -0.5271043 -1.0893508 -0.67724234 -1.4595071
000050 b4 53 64 3d fe 83 2e bf 2d 35 81 bf c0 19 49 bf
       0.055743888 -0.68170154 -1.0094353 -0.78554916
000060 c2 46 1d be a1 bc 41 bf 8f 12 0e bf 92 5a 62 3d
       -0.15359023 -0.7567845 -0.5549707 0.055262156
000070 e5 9b 8f bf 85 62 85 bf 03 80 32 be 97 cb ee 3e
       -1.121945 -1.0420691 -0.17431645 0.46639702

_backbone.linear_layers.3.weight f4 [16, 32]
000000 47 59 b5 3d 29 c4 67 bf f5 be 3d be d4 d8 4a bf
       0.08854919 -0.9053369 -0.18529876 -0.79237103
000010 f0 be c9 bf e4 5b 3b bf cd da 89 bd 32 56 5d be
       -1.5761395 -0.7318709 -0.06731186 -0.21614912
000020 2f 45 60 be ed bd 99 3f db 31 0a be 3e 9d 4a bf
       -0.21901391 1.2011086 -0.13495581 -0.7914618
000030 1a a2 11 3f f5 46 74 3f b9 e8 b1 be 30 de 91 bf
       0.5688797 0.9542077 -0.34747866 -1.1395931
000040 16 7d 6f bf 34 fe 8b be 32 38 aa 3e 7c e4 0c bf
       -0.9355024 -0.2734238 0.33246 -0.5503614
000050 2c 39 5e bd e0 df a1 3e 18 08 f8 be 39 e1 85 bf
       -0.054253742 0.31616116 -0.48443675 -1.0459358
000060 f2 1e 74 bf d3 93 4f be f2 04 e6 be 16 07 01 bd
       -0.9535972 -0.20271234 -0.44925648 -0.0315009
000070 3e 1e 85 3f f8 9c 25 bf 63 0a 08 bf 98 04 aa be
       1.0399854 -0.6469264 -0.5314085 -0.3320663
000080 7c 25 b5 bd 7d e2 df be 4c 7e 15 bf a1 4e 20 bf
       -0.0884504 -0.43727484 -0.5839584 -0.6261998
000090 9d 27 68 bf 52 05 ca be e4 60 17 c0 4e 22 13 be
       -0.90685445 -0.39457184 -2.3652887 -0.14368555
0000a0 a8 2b 89 3f 8b cb 0d be 4c ec 02 3f 4a e3 1b 3e
       1.0716448 -0.13847177 0.5114181 0.15223423
0000b0 cb 3c c1 3e e5 a3 89 bf 7d 96 e5 3b e0 7b d2 3d
       0.37741694 -1.0753142 0.007006465 0.102775335
0000c0 56 85 9c bd 8f bc 44 3e ad 79 e9 bd 04 46 b7 ba
       -0.07642619 0.19212554 -0.11400161 -0.0013982658
0000d0 12 a7 35 bd eb 71 90 be df 16 42 3d 39 a2 85 3e
       -0.044348784 -0.28211913 0.047385093 0.2610033
0000e0 08 0e 90 bd ea c0 fe be 9b 78 38 3f 41 03 8f 3e
       -0.07033926 -0.49756557 0.7205903 0.2793217
0000f0 f3 42 2f be 71 a3 44 3e f8 6c 5f bf f6 34 26 3f
       -0.17115383 0.19202973 -0.8727565 0.6492456
000100 b8 36 0e bf 59 a2 1b bf 50 c7 09 bf e7 d4 6a bf
       -0.55552244 -0.607946 -0.5381975 -0.91731113
000110 21 9e be bf 52 db 91 bf 48 61 4e bf 79 bb 20 3f
       -1.4892007 -1.1395056 -0.8061719 0.6278606
000120 4c 77 82 3e 9a c4 3c bf e8 d7 33 3e cd 62 89 3e
       0.2548164 -0.7373749 0.1756283 0.26833192
000130 e7 e6 10 bf 35 26 a1 3f 13 b8 b3 3e a8 58 99 be
       -0.5660233 1.2589785 0.35101375 -0.29950452
000140 d5 04 90 bf 0a 0b 19 3f 08 30 b9 be c3 2e 13 3f
       -1.1251475 0.5978247 -0.36169457 0.5749323
000150 82 1c df bc b1 46 7f bf 75 17 78 3f 2a ad f8 be
       -0.027235273 -0.9971724 0.9691079 -0.48569614
000160 a0 f3 a1 3e 6f cd 49 bf ce 6c 1d be b8 b9 4c bf
       0.31631184 -0.7882909 -0.15373537 -0.79970884
000170 c4 de d0 bf f5 29 9b be 43 b5 88 3e 21 27 1f bf
       -1.6317983 -0.30305448 0.26700792 -0.6216908
000180 59 76 1f bf 5b e7 1f bf 30 f5 4e bf 37 2f b1 be
       -0.6228996 -0.62462395 -0.80842876 -0.34606335
000190 db 17 e1 bf 97 82 46 bf bb 13 fd be 07 bf 29 be
       -1.7585405 -0.77543014 -0.49429116 -0.16576777
0001a0 79 4f 37 be 23 fb 26 bf 0d c4 30 bf b4 32 eb be
       -0.1790141 -0.65226954 -0.6904915 -0.4593712
0001b0 6e c3 7f bf 28 f8 10 be 7d 97 f0 be d5 82 c6 be
       -0.9990758 -0.14157164 -0.46990576 -0.38771692
0001c0 84 3e 8d bf e9 c5 e3 be a1 a4 5b bf 83 90 5d be
       -1.1034703 -0.4448693 -0.8579808 -0.21637158
0001d0 e8 62 aa be 23 b6 e7 be d4 7f f9 be e3 72 0c 3e
       -0.33278584 -0.45256147 -0.48730338 0.13715701
0001e0 9c b5 66 3e 9e 8d 12 bf b4 76 14 be 31 6c 28 c0
       0.22530216 -0.5724734 -0.14498407 -2.6316035
0001f0 21 80 33 bf 40 cb 10 bd 0d 1a 93 3e 8e e7 08 bf
       -0.70117384 -0.035350084 0.28730813 -0.53478324
000200 e7 2d 3f bf 0e a9 e6 be 4b b5 35 bf af 54 30 3c
       -0.74679416 -0.45050853 -0.70979756 0.010762378
000210 af 7f 38 bf 39 b4 2c bf 90 28 23 3e b1 28 d7 3d
       -0.7206983 -0.674625 0.15933442 0.10505808
000220 e0 95 33 bf 8d 26 1c bf bb 06 5d bf 06 db 12 bf
       -0.70150566 -0.60996324 -0.86338395 -0.57365453
000230 d9 1b 11 bf 94 1f eb bd ed e9 5f bf aa 52 44 bf
       -0.5668312 -0.114806324 -0.8746632 -0.76688635
000240 c0 6d 17 bf 02 40 22 bf a0 dd ae bd 49 6d 0a 3e
       -0.5915184 -0.6337892 -0.08538365 0.13518251
000250 fd 60 76 bf ad d9 a0 be dd 75 66 bf 56 2b bc be
       -0.9624174 -0.31416073 -0.90023595 -0.36751813
000260 f2 82 68 bf 67 84 94 be f2 2f 32 bf 97 65 54 bf
       -0.90824807 -0.29007265 -0.6960441 -0.82967514
000270 1c ca 1f bf 46 95 49 bf 8d 6b e4 be 8d c0 87 bf
       -0.6241777 -0.787434 -0.44613305 -1.0605637
000280 ac 54 2b 3f a4 0c 4f bf 6c e9 19 be fb a0 1c bf
       0.66926074 -0.80878663 -0.1503045 -0.61183137
000290 bc 18 20 bf 88 36 4e bf 41 db 82 bf 99 ad ea be
       -0.6253774 -0.8055196 -1.0223161 -0.4583557
0002a0 c6 b7 5e 3f 95 7b 1e bf 60 91 47 3f 06 c8 95 bf
       0.86999166 -0.6190732 0.779562 -1.1701667
0002b0 bc f3 02 bf ea 5d 82 bf 0a bc 5f bf 5c 3d ce bf
       -0.5115316 -1.018491 -0.873963 -1.6112475
0002c0 df 6b a2 3e b3 c2 f7 3e a9 23 c1 3e 8f bb 90 bf
       0.31722924 0.4839073 0.3772252 -1.1307238
0002d0 89 82 ad bf 57 ae 66 bf f6 ea 24 bf 1b ea fc 3e
       -1.3555461 -0.9010977 -0.6442102 0.49397358
0002e0 3e 90 be 3e ef 0a 10 bf 1c 6c a1 3f 2b bd bc bf
       0.37219423 -0.56266683 1.2611117 -1.474523
0002f0 3d 03 13 bf be 2e b2 3f c9 cc 9d be 92 b3 b4 3e
       -0.57426816 1.3920515 -0.308203 0.3529325
000300 ea 8a 0a bf ea 65 1b be ca 71 8e be f5 c5 52 3f
       -0.54118216 -0.15175596 -0.2782119 0.8233331
000310 79 3e 0a 3f c4 21 1f 3e 0d e6 8e 3d 07 67 19 3f
       0.54001576 0.15540224 0.069774725 0.5992283
000320 3a 12 fa bf 87 2c 8d bf 26 bd 94 3e f3 90 1b bf
       -1.9536812 -1.1029214 0.2905056 -0.6076805
000330 2c 1a 92 be 39 1a 97 bf a9 6f db be b7 9b 1d bf
       -0.28535593 -1.1804878 -0.42858627 -0.61565727
000340 ef 0a 00 bd 63 a8 91 bf ee 30 17 bf 88 e9 72 3f
       -0.031260427 -1.1379513 -0.59059036 0.9488759
000350 67 d3 6a bf 66 e1 d6 3c ec 66 bc bf 5e 12 df be
       -0.91728824 0.026230525 -1.4718909 -0.435687
000360 c1 e8 f1 be 3b 4c 81 bc 87 6b 56 bf 48 20 50 3e
       -0.4724789 -0.01578342 -0.83757824 0.20324814
000370 38 2b f5 be 60 14 6e bf cf eb dc 3e 0b 16 29 bf
       -0.47884536 -0.9299984 0.43148658 -0.6604926
000380 6e 87 84 bf 9b 97 2b 3e 64 d8 42 bf 84 6b ca 3e
       -1.035383 0.16757052 -0.76111436 0.39535153
000390 9d 9a 0c 3e b2 c8 15 3d af ea 98 3d 9d 30 3d 3f
       0.13730855 0.03656835 0.07466637 0.73902303
0003a0 31 3f fe bf 47 2d 45 bf 49 bf 84 bd aa 65 b3 be
       -1.9863034 -0.7702221 -0.06481797 -0.350385
0003b0 5f 0b a8 bf a0 5c 45 bf 29 60 6a bf 5d e8 b1 be
       -1.312847 -0.7709446 -0.9155298 -0.34747592
0003c0 0d 9c 60 3e f7 b2 c6 bf 03 e8 54 be f2 2d af 3e
       0.21934529 -1.5523366 -0.2079163 0.3421474
0003d0 6f 24 e1 bf 25 55 b1 be c2 0f cd bf 6f c8 a4 bf
       -1.7589244 -0.34635273 -1.6020434 -1.2873667
0003e0 51 7b 1e bf dd 7c a0 be 88 85 05 bf 65 c0 3b 3f
       -0.61906916 -0.31345263 -0.5215688 0.73340446
0003f0 d0 e2 cb be 06 f8 4c bf 49 88 fc 3e f4 27 6d bf
       -0.39821482 -0.80065954 0.49322727 -0.9263909

_backbone.linear_layers.3.bias f4 [16]
000000 f1 90 71 bf a6 43 2c 3e cb 04 46 bf f9 01 83 bf
       -0.9436179 0.16822681 -0.77351063 -1.0234977
000010 7e 92 30 bf ec 0f b2 bc 7d 75 1f be 60 59 f7 3e
       -0.6897353 -0.021736108 -0.15572162 0.48310375
000020 ca 56 b4 bf 62 49 07 bf be 95 1c bf 32 65 d8 be
       -1.4088986 -0.5284635 -0.6116599 -0.42264706
000030 69 51 d3 3d 19 1b 51 bf 13 6c 83 bf 54 da 93 3c
       0.10318262 -0.8168197 -1.0267357 0.018048443

_embedding_layer.cat_embedding_layers.0.weight f4 [5, 3]
000000 d6 6b 69 3f cd 8e be 3e 83 ac 82 3e 97 ca 58 bf
       0.9118017 0.37218323 0.2552224 -0.8468413
000010 1b c1 c3 bd b7 1b 92 3e 0e b8 88 bf 97 a5 9e bd
       -0.09558316 0.2853677 -1.0681169 -0.077464275
000020 7a a8 05 3f 70 88 e0 bd ea 42 1d bf 18 e6 07 3e
       0.522102 -0.109635234 -0.6143023 0.13271368
000030 62 c7 b3 bf 90 7f d7 3e f9 62 ab be
       -1.4045222 0.4208951 -0.33473948

_embedding_layer.cat_embedding_layers.1.weight f4 [5, 3]
000000 37 01 16 bf 4a 90 27 3e 10 47 52 bf 6c f3 fb 3e
       -0.58595604 0.16363636 -0.8213968 0.49209154
000010 0f 0d a8 3f 6a 4c f0 bf 8a d3 5b bf 3d b8 dc bf
       1.3128985 -1.877332 -0.8586966 -1.7243725
000020 89 ce 1f be 30 6d 45 bf ee 9b ce 3d c9 53 3c bf
       -0.1560613 -0.7711973 0.10088335 -0.73565346
000030 1d a0 ca 3f 7b fb 71 bf 59 d3 a9 3f
       1.5830113 -0.94524354 1.3267623

_embedding_layer.cat_embedding_layers.2.weight f4 [5, 3]
000000 40 88 39 3f f3 54 b0 bf 0b 41 bb bf 6b 9a 0b 3f
       0.72473526 -1.3775924 -1.4629225 0.545325
000010 7e db c6 3e ca 12 c2 3d de 1c 7d 3f 76 c8 9d 3d
       0.38839334 0.0947624 0.9887217 0.077042505
000020 72 30 09 bf 2a a7 4f 3f b3 05 1b be 4f 0c d7 be
       -0.53589547 0.8111445 -0.15138893 -0.42001578
000030 64 7a 02 3f ea 35 42 bd c5 eb 77 be
       0.50968003 -0.047414698 -0.24211033

_embedding_layer.normalizing_batch_norm.weight f4 [17]
000000 91 2d c9 3f 2e c4 a7 3f b9 fd 0b be 6c de 8d 3f
       1.5717031 1.3106744 -0.13671006 1.1083503
000010 93 4a 01 bf 79 2d fa 3f 46 f7 2d be 77 5c d5 bd
       -0.50504416 1.9545127 -0.16988859 -0.10418027
000020 09 c6 af 3f e4 c7 c5 3e f0 a0 24 3e 68 df c2 3f
       1.373231 0.38629067 0.16077018 1.5224428
000030 55 b7 95 be 56 11 e1 3d 61 a2 ac 3e 68 32 67 3e
       -0.29241434 0.10989635 0.33717635 0.22577822
000040 bd 38 2e 3e
       0.17013831

_embedding_layer.normalizing_batch_norm.bias f4 [17]
000000 94 c3 55 3e 08 6d b0 3e 8b ec d2 3e 72 54 37 bf
       0.20875388 0.34458184 0.41196093 -0.7161323
000010 8b b1 d7 3d 20 12 6d 3e 28 bb a2 3e 64 b6 38 3e
       0.105319105 0.23151445 0.31783414 0.18038327
000020 d1 03 7f be 43 61 d8 3d d0 4d f3 3e 0f bc 59 3d
       -0.249038 0.10565426 0.47520304 0.053157862
000030 62 ba 0f bf ff d7 5b be bc 83 9d 3e e0 7a b3 3e
       -0.5614377 -0.21469115 0.30764568 0.35054684
000040 29 88 0a bf
       -0.54114014

_embedding_layer.normalizing_batch_norm.running_mean f4 [17]
000000 83 96 98 3a bf 98 93 3b 24 a1 0f 3b fc 65 d7 bb
       0.0011641536 0.0045042927 0.0021916116 -0.006573437
000010 4a 02 1b bb 54 ab 1b 3b 48 b9 06 3b 27 12 e5 3b
       -0.0023652487 0.0023753243 0.0020557214 0.0069906893
000020 9a 3c 17 bb 5b 97 04 bb 8e f1 cf ba 82 d7 8a 3b
       -0.0023076893 -0.0020231816 -0.0015864836 0.0042371163
000030 1b d3 2c 3b 8d 28 d7 3a ee d0 7b b9 51 32 7d ba
       0.0026370946 0.0016415283 -0.00024015058 -0.0009658682
000040 68 a0 5f 3b
       0.003412271

_embedding_layer.normalizing_batch_norm.running_var f4 [17]
000000 60 15 80 3f 1e 14 7e 3f 78 0b 80 3f 0c 9d 80 3f
       1.0006523 0.99249446 1.00035 1.0047927
000010 95 3c 7e 3f e1 47 80 3f e6 3e 81 3f 2c c2 7f 3f
       0.9931119 1.0021936 1.009732 0.9990566
000020 3a 65 80 3f fe 5e 7f 3f 00 22 80 3f 3b 8b 7f 3f
       1.0030892 0.9975432 1.0010376 0.99821824
000030 ea 59 80 3f 2e f6 80 3f 3a 91 80 3f d6 a9 80 3f
       1.002744 1.0075128 1.004432 1.005183
000040 db 1f 80 3f
       1.0009722

head.layers.0.weight f4 [2, 16]
000000 49 28 00 3f 0a 96 11 be 7b f3 58 bd 70 97 a1 be
       0.5006147 -0.14217392 -0.052966576 -0.3156085
000010 15 48 8b be 2e e5 b4 bd 64 72 48 3e ae e5 ef 3e
       -0.27203432 -0.08832775 0.19574887 0.4685492
000020 9a de 84 3e f5 c5 6b be 50 51 9e bb 33 4e d7 3e
       0.25951082 -0.23024733 -0.0048314705 0.4205185
000030 0d ed 5d 3e 7c 62 2e bf af 2f 5b 3f 04 a0 e6 3e
       0.21672459 -0.68119025 0.85619634 0.45043957
000040 7f 3a 5f 3e f4 4e af 3d e2 ad fc 3d 80 01 63 3e
       0.21799658 0.08559981 0.12337853 0.22168541
000050 cf 23 cb be 3f d8 e8 3d e6 50 c9 bd b8 89 10 3e
       -0.39675757 0.11369371 -0.09829883 0.14115036
000060 44 37 01 bf 92 5d 33 3d 33 cc 95 be 4a 26 64 3d
       -0.50474954 0.043790407 -0.29257354 0.055700578
000070 50 43 e1 be 68 29 01 3e b4 67 fd be 6a 58 3f 3e
       -0.43996668 0.12613451 -0.49493182 0.18686071

head.layers.0.bias f4 [2]
000000 da f1 71 bd 0a 4e 90 3d
       -0.05906854 0.07046135

exp_avg f4 [32, 26]
000000 2c ec d6 3a 67 26 75 3a 7d e6 30 39 6e e3 b4 b7
       0.0016397289 0.00093517307 0.00016870532 -2.1563577e-05
000010 d4 d8 da 39 71 21 9c ba 12 6d f7 39 cc 45 14 39
       0.0004174175 -0.0011911822 0.00047192775 0.00014140381
000020 0a 42 97 3a 94 3d 5d 39 2c 51 ff 39 45 1b c8 ba
       0.0011540067 0.00021099142 0.00048697868 -0.0015266916
000030 67 36 00 ba c7 b8 17 b9 42 ce 9c 39 ff 76 a8 39
       -0.0004890919 -0.00014469317 0.00029908313 0.00032132116
000040 e4 f5 04 ba 28 c0 2e ba 03 03 17 b9 32 f5 cd b8
       -0.0005072041 -0.0006666207 -0.00014401604 -9.820833e-05
000050 d0 f8 15 3a 61 02 2a ba 69 dd 17 3a ae 31 64 3a
       0.0005720975 -0.000648534 0.00057931856 0.00087049126
000060 51 6b 8d b7 9f 77 cb b9 ba ea e7 39 5e 0b f0 38
       -1.6858483e-05 -0.00038808302 0.00044234638 0.00011446209
000070 60 7a a6 38 85 a9 43 b9 26 52 03 b7 a0 07 1f 38
       7.938291e-05 -0.000186598 -7.827335e-06 3.7915655e-05
000080 be ca be 38 34 bc 8a 38 8f 34 9f 39 69 a2 bc 37
       9.09767e-05 6.615408e-05 0.00030366002 2.2486975e-05
000090 e4 5e 0c 39 e2 be b7 b9 77 e2 f1 b8 0b 6f 74 b8
       0.0001338679 -0.000350467 -0.00011533958 -5.827755e-05
0000a0 79 98 98 38 d3 43 93 38 c4 09 e0 b8 31 a2 b3 b9
       7.276325e-05 7.0221395e-05 -0.00010682971 -0.00034262383
0000b0 ed 46 e7 38 75 de d0 b8 47 01 c5 36 fb b1 85 39
       0.00011028149 -9.959649e-05 5.871206e-06 0.00025500343
0000c0 1a d6 c4 b9 29 4c 68 39 73 97 76 34 ea 78 fd b8
       -0.0003754355 0.00022153616 2.2965632e-07 -0.00012086502
0000d0 ef 9d 86 b8 b3 6b 53 ba 7d 7b 4c b9 b8 52 00 b9
       -6.419035e-05 -0.00080650597 -0.00019500959 -0.00012237846
0000e0 ff 7a 75 b9 f3 d1 df 39 1e c3 92 b9 51 97 b2 b8
       -0.0002341084 0.000426903 -0.00027992664 -8.515886e-05
0000f0 b0 a7 f0 b9 1b 98 ad 38 4e f1 9b b9 83 b4 1e b6
       -0.00045901304 8.277615e-05 -0.0002974369 -2.3648906e-06
000100 fb 20 14 3a 5d de a0 39 8e d9 a2 b8 ee b1 57 b9
       0.00056506664 0.00030683252 -7.765285e-05 -0.00020570282
000110 15 83 a3 39 e8 08 80 3a be 84 94 b9 c2 5b 37 38
       0.00031187446 0.0009768279 -0.0002832766 4.3716056e-05
000120 cf 6b 9c ba f0 b4 22 3a 6e fc 8a ba 48 ab ce b9
       -0.0011933985 0.00062067714 -0.0010603794 -0.00039418996
000130 9c 08 22 b9 28 f0 2d 38 88 7a 6a ba 53 fc 73 ba
       -0.00015452731 4.1470077e-05 -0.000894465 -0.00093073136
000140 7f c1 89 39 ba 0a 88 38 b5 38 2c 38 b0 13 74 3a
       0.00026274842 6.486983e-05 4.1060808e-05 0.0009310795
000150 a6 50 b3 b7 b1 f1 28 39 7d ef 0f ba 40 83 af 38
       -2.1376018e-05 0.00016111766 -0.00054907036 8.3690975e-05
000160 13 ec 6b 39 42 5e 89 39 6a c0 fc 38 4b fb a3 b8
       0.00022499291 0.00026200904 0.00012052136 -7.819253e-05
000170 fb d5 90 39 b9 f7 5c 39 4b 6b b9 b9 72 e1 a9 b9
       0.00027625248 0.00021073119 -0.0003536589 -0.00032402162
000180 3d 0b 0d 38 3f 06 dd b8 0d 09 19 36 a7 d5 89 3a
       3.3627486e-05 -0.000105392646 2.2804045e-06 0.0010515944
000190 44 e6 58 ba f5 22 2b 37 06 75 4f 39 3b 70 39 39
       -0.00082740583 1.0200533e-05 0.00019784653 0.00017684784
0001a0 33 1d 40 39 ef 46 83 39 83 08 2f 39 1d 07 07 b9
       0.00018321424 0.00025039117 0.00016692471 -0.00012877253
0001b0 96 59 42 b6 1a e4 75 37 1b 87 f3 38 1a c8 2e 39
       -2.8960399e-06 1.4656247e-05 0.00011612308 0.00016668477
0001c0 33 27 8d 39 83 ba e7 38 54 c2 98 39 7d cd 3f b9
       0.0002692282 0.00011049679 0.00029136485 -0.0001829173
0001d0 f1 96 01 b9 ea 42 07 b9 c4 b3 23 39 01 f4 67 39
       -0.00012358629 -0.0001289953 0.00015611859 0.00022120775
0001e0 78 7e a5 b9 16 8f 4c b9 a9 64 32 b9 83 24 04 b8
       -0.0003156548 -0.0001950826 -0.00017012902 -3.1505257e-05
0001f0 6f cc a9 38 b4 eb 84 39 6d ce d9 b9 a5 c5 dd 39
       8.096627e-05 0.00025352614 -0.00041543265 0.0004229966
000200 6f 28 50 38 62 bc 54 b9 d2 82 0f 3a a1 96 52 3a
       4.962872e-05 -0.00020288074 0.0005474511 0.000803331
000210 6d 95 07 39 2a 86 d0 b9 3b 58 6b b8 e1 ad d9 39
       0.00012930269 -0.00039772812 -5.6110537e-05 0.00041519015
000220 c5 82 8d 38 ac 9e 58 38 21 65 da b6 43 37 cc 38
       6.747762e-05 5.1646188e-05 -6.5086792e-06 9.737771e-05
000230 e7 c2 34 39 01 24 01 39 64 84 92 b9 7a 93 c0 b8
       0.00017238744 0.00012315811 -0.0002794593 -9.182743e-05
000240 ba 37 37 b7 72 ca 3a 39 ff a7 ef b8 68 db 5a b9
       -1.0920625e-05 0.00017813759 -0.000114277 -0.00020871835
000250 92 86 30 b7 78 12 b1 b8 82 bc 71 39 17 68 8f b9
       -1.052175e-05 -8.443458e-05 0.00023053776 -0.00027352638
000260 42 ba 23 39 cf 94 fc 38 ab 07 fd 38 a3 86 0e 38
       0.00015614278 0.00012044014 0.000120654084 3.398083e-05
000270 82 d6 27 3a 31 2a 89 39 7c 73 c5 38 ea da 27 ba
       0.00064025086 0.0002616211 9.415203e-05 -0.0006403165
000280 b5 c5 76 b9 a1 df 16 39 a7 5e 04 39 c3 f4 4e 36
       -0.0002353404 0.00014388423 0.00012623762 3.0838862e-06
000290 d1 be 16 ba 10 f9 39 b9 e5 7a 35 b7 e5 94 2e 37
       -0.000575048 -0.00017735758 -1.0817054e-05 1.0405875e-05
0002a0 21 6a c3 37 d4 57 c9 36 23 f2 2b 37 10 c5 01 38
       2.3295232e-05 6.0004913e-06 1.0248771e-05 3.0939525e-05
0002b0 4c 3e 5d b7 08 e4 62 39 06 7b 18 b9 60 a1 0a b9
       -1.3187131e-05 0.00021637988 -0.0001454168 -0.00013220822
0002c0 9e b8 a0 38 78 96 e6 38 6a 86 8b b8 cc f7 cf 36
       7.663782e-05 0.000109952816 -6.653073e-05 6.197928e-06
0002d0 52 78 87 38 18 fc a3 b7 cc a6 a4 b9 65 e6 12 39
       6.459713e-05 -1.9548504e-05 -0.0003140479 0.00014009474
0002e0 38 1b 44 38 9f 65 39 b9 1f 5d 8c 38 4c 7b 5a 3a
       4.675539e-05 -0.00017680832 6.6930654e-05 0.00083344127
0002f0 e2 d2 0e 39 06 f7 9e 38 6e 07 13 b9 ae a6 98 38
       0.00013620735 7.580039e-05 -0.0001402178 7.278971e-05
000300 1d 8e 1b 39 6c 83 ea 39 ca 24 2f b9 7a 05 ec b8
       0.00014834893 0.00044729875 -0.00016703006 -0.00011254377
000310 d3 a1 ba 38 64 c6 68 b7 6e 86 27 b9 e4 f0 45 b9
       8.899313e-05 -1.3874469e-05 -0.0001597644 -0.00018877123
000320 9b 7e 63 b8 ed 91 b4 38 cc 62 a6 b9 a9 f6 ee 38
       -5.4238928e-05 8.61025e-05 -0.00031735597 0.000113946684
000330 56 eb 7c b9 22 de 20 39 8c cb 9d 38 e4 24 49 b8
       -0.00024120262 0.0001534154 7.524257e-05 -4.795649e-05
000340 67 61 e9 ba c8 cc 06 bb 3b ab c5 b9 73 a5 a4 3a
       -0.0017805517 -0.0020568836 -0.00037702345 0.0012561515
000350 ef 24 1f 3a ac 34 50 ba d4 4c 07 b9 11 18 58 b9
       0.0006070872 -0.0007942419 -0.00012903224 -0.0002060833
000360 30 3b 0c 39 39 a5 bf b9 07 6b 0a b9 84 c7 7a b9
       0.0001337349 -0.0003655346 -0.00013200576 -0.00023916183
000370 4d d5 33 39 d6 e4 f3 37 70 55 97 b8 d6 ce 7f b9
       0.00017150231 2.9074417e-05 -7.216155e-05 -0.00024395747
000380 0c 93 eb 38 c5 82 3e 3a 5f 5d 78 b9 8f f9 b5 39
       0.00011233063 0.0007267411 -0.00023685906 0.00034708946
000390 ae cd 28 b9 68 8d 2e 3a cb b2 12 b9 d1 63 dd b9
       -0.0001609835 0.00066586444 -0.0001399025 -0.00042226774
0003a0 4d cd 87 b6 e8 7c a6 39 06 4f 32 3a 13 d5 14 ba
       -4.0472137e-06 0.0003175505 0.00068019365 -0.00056775025
0003b0 b4 5e 20 b8 d3 b9 78 b8 5a 11 e6 38 9e 3c 74 ba
       -3.823517e-05 -5.930087e-05 0.000109704866 -0.0009316894
0003c0 b5 bf 4f 38 f6 13 5d 38 69 ac 1a 3a c3 dc 91 b8
       4.9531187e-05 5.2709096e-05 0.0005900325 -6.955259e-05
0003d0 b4 ca b9 b8 05 c1 87 ba 56 c7 61 37 30 25 92 38
       -8.859244e-05 -0.0010357207 1.3457457e-05 6.968749e-05
0003e0 af 94 62 39 d8 36 d0 38 13 e5 26 b8 59 f1 3c b8
       0.00021608429 9.928428e-05 -3.9790826e-05 -4.5047465e-05
0003f0 60 d7 b9 b8 a5 8d c7 b3 80 00 82 39 f2 40 ba b7
       -8.861604e-05 -9.2924246e-08 0.00024795905 -2.220317e-05

exp_avg_sq f4 [32, 26]
000000 bd 58 64 35 70 01 76 34 fd 10 aa 32 13 99 24 34
       8.506575e-07 2.2911058e-07 1.979833e-08 1.5329378e-07
000010 cc f2 06 33 d0 a8 3a 35 91 9e 80 33 7d 31 d8 33
       3.142013e-08 6.9536054e-07 5.9893075e-08 1.0067286e-07
000020 df 2a 88 35 45 05 1c 34 ff f6 dc 33 85 e9 63 35
       1.0145267e-06 1.4530549e-07 1.0289477e-07 8.4903905e-07
000030 99 de 92 34 fb ac 1a 34 51 6d 32 34 ea bb 75 34
       2.735658e-07 1.4405298e-07 1.6617311e-07 2.2885766e-07
000040 41 63 84 34 89 00 05 35 6b c0 d8 34 5b 74 86 33
       2.4659133e-07 4.954714e-07 4.0373138e-07 6.261026e-08
000050 8b d3 84 34 d5 3c 0d 35 c4 cb d0 34 e8 fa 5f 34
       2.4740834e-07 5.2615115e-07 3.8891278e-07 2.0859773e-07
000060 03 70 96 35 b4 31 27 35 56 a3 22 36 a5 1d 18 35
       1.1208471e-06 6.2284676e-07 2.4234955e-06 5.666755e-07
000070 13 5f 38 34 9c 1d 9b 35 e1 3e de 34 67 f3 d2 34
       1.7170923e-07 1.1557017e-06 4.1396473e-07 3.9292647e-07
000080 4c f4 b1 33 dd 60 5c 35 16 38 ff 34 ed 0b a5 33
       8.286642e-08 8.209734e-07 4.753826e-07 7.6855805e-08
000090 cb 54 20 34 d5 f4 7d 35 37 ee 25 35 4a be 2f 34
       1.4932009e-07 9.460612e-07 6.181394e-07 1.6367372e-07
0000a0 31 7c 84 33 a1 e5 eb 35 24 39 08 35 48 e3 9f 36
       6.169319e-08 1.7575695e-06 5.07471e-07 4.7650283e-06
0000b0 db 4b 97 35 0a b2 50 33 36 15 a6 33 83 eb 62 35
       1.1272454e-06 4.85907e-08 7.7338356e-08 8.4534275e-07
0000c0 50 ba 49 36 22 d7 c0 35 e5 13 cd 34 12 f3 5b 34
       3.0059782e-06 1.4367727e-06 3.81987e-07 2.0484393e-07
0000d0 eb 8e 79 35 12 ad 8c 35 d1 e9 a1 33 52 39 c8 34
       9.29677e-07 1.0481183e-06 7.539678e-08 3.729461e-07
0000e0 41 40 55 33 e6 80 85 35 f5 2e 06 34 3f b4 a4 33
       4.9651366e-08 9.946787e-07 1.2496805e-07 7.669632e-08
0000f0 52 f5 32 35 6a 0e 1d 34 0d 6f 62 34 09 c6 8e 35
       6.6667155e-07 1.4627008e-07 2.108829e-07 1.063746e-06
000100 a7 b6 1f 34 07 6d d1 33 15 d3 a3 34 2d 03 16 34
       1.4874477e-07 9.752153e-08 3.0514698e-07 1.3970994e-07
000110 aa 5f 04 34 2b 30 6b 35 d5 a1 9f 34 76 4c 27 33
       1.232826e-07 8.7614416e-07 2.9733806e-07 3.895226e-08
000120 f8 b0 a4 34 93 48 19 35 ac bb b0 35 71 2a 51 34
       3.0676142e-07 5.710255e-07 1.3167642e-06 1.9480082e-07
000130 b1 85 15 35 f0 4f b5 34 cb 63 9e 36 06 18 56 36
       5.570137e-07 3.377204e-07 4.7203844e-06 3.1902468e-06
000140 01 af 1a 35 f3 38 87 36 5e cf dd 33 5e 88 80 36
       5.7624135e-07 4.0299433e-06 1.0328834e-07 3.8305725e-06
000150 9d 16 7d 35 76 ad cd 34 ca 0f 36 36 78 b5 d8 33
       9.428275e-07 3.8310435e-07 2.7129304e-06 1.0091293e-07
000160 55 72 ac 35 57 2e 49 36 e4 fc 90 35 dd 61 44 34
       1.2848274e-06 2.9978307e-06 1.0802437e-06 1.8289525e-07
000170 71 e3 b4 34 72 ea ed 34 a2 cd b9 35 ed 1c 06 36
       3.3693098e-07 4.4315271e-07 1.3843421e-06 1.9984393e-06
000180 5a ee a2 34 bd f6 81 34 31 95 be 35 54 16 05 36
       3.0348275e-07 2.4207648e-07 1.4199524e-06 1.983154e-06
000190 f1 76 2d 36 e3 43 ce 35 a8 f6 48 35 06 6c 76 35
       2.5848242e-06 1.5367954e-06 7.486474e-07 9.1799336e-07
0001a0 d5 ed 4e 35 c9 03 a2 34 6c 38 4c 34 b6 39 83 35
       7.708707e-07 3.0177605e-07 1.9019507e-07 9.777057e-07
0001b0 38 77 0a 33 b6 a7 9b 35 29 c8 19 34 a7 44 40 34
       3.2239058e-08 1.159721e-06 1.4322053e-07 1.7906369e-07
0001c0 ee 81 77 35 a9 01 90 32 66 32 5a 34 23 10 fe 34
       9.2203743e-07 1.6764561e-08 2.0321167e-07 4.7322928e-07
0001d0 95 a8 49 34 16 e9 ae 33 b9 35 3d 33 1d 8a a7 34
       1.8780914e-07 8.1449045e-08 4.4053852e-08 3.1206665e-07
0001e0 af 49 84 34 6d ad 3c 35 83 f2 9d 34 54 6f a6 33
       2.4640528e-07 7.0287825e-07 2.941998e-07 7.750228e-08
0001f0 4c e8 50 34 50 fa d7 34 fc 22 8f 35 79 84 bc 34
       1.9456019e-07 4.0228997e-07 1.0664512e-06 3.5114115e-07
000200 40 94 28 34 83 06 81 33 97 ca cb 36 f2 31 8e 35
       1.5700152e-07 6.008215e-08 6.073456e-06 1.059436e-06
000210 7a 0e df 34 22 a0 20 36 c9 11 a3 34 9b d2 40 35
       4.154752e-07 2.3935067e-06 3.0374056e-07 7.1832045e-07
000220 8e 4d 0f 34 ae 9e b6 34 ff 6a a6 33 be 47 f8 34
       1.3346127e-07 3.4015596e-07 7.74944e-08 4.62458e-07
000230 b4 8a be 34 45 63 f2 35 55 96 3c 35 a2 c7 5f 34
       3.5491178e-07 1.8059296e-06 7.025422e-07 2.084112e-07
000240 c8 63 87 34 b6 59 ba 34 be 79 a7 33 eb f8 1d 36
       2.521831e-07 3.4710473e-07 7.798688e-08 2.3539712e-06
000250 78 96 94 35 f5 c5 37 34 6f a4 5f 34 f6 cf ac 35
       1.1070651e-06 1.711522e-07 2.0828314e-07 1.2875523e-06
000260 37 b9 00 36 6c 0d fc 34 57 0d f8 35 55 ee a4 35
       1.9181296e-06 4.6948423e-07 1.8481322e-06 1.2288316e-06
000270 68 96 81 35 d0 cd e5 35 f9 21 40 34 e5 b4 34 35
       9.655023e-07 1.7121729e-06 1.7893753e-07 6.731846e-07
000280 93 a0 5c 34 50 53 55 36 65 6c ad 34 ee c5 8f 33
       2.0547513e-07 3.1787968e-06 3.2302628e-07 6.6949596e-08
000290 df 81 5a 35 57 b2 26 33 91 88 a1 34 b9 5a ce 35
       8.1400316e-07 3.8812086e-08 3.0087952e-07 1.53746e-06
0002a0 a8 a2 94 34 e2 d4 a2 34 83 32 3e 34 c7 1c 64 34
       2.7685496e-07 3.0329744e-07 1.7713505e-07 2.1244624e-07
0002b0 9c 52 9e 34 99 50 df 35 34 43 8f 35 9b 45 71 34
       2.94899e-07 1.6638252e-06 1.0673889e-06 2.2470196e-07
0002c0 e6 e8 54 35 9c 09 d6 35 ba 40 0d 36 a9 a6 fe 34
       7.9315066e-07 1.5947039e-06 2.1048313e-06 4.7432448e-07
0002d0 3a 45 5e 35 b1 36 f1 34 54 46 c0 35 46 f1 5b 35
       8.280218e-07 4.492954e-07 1.4325583e-06 8.1934957e-07
0002e0 77 81 9e 34 63 9d 86 35 cc aa 94 32 48 bc 13 36
       2.9523991e-07 1.0029584e-06 1.7307137e-08 2.20143e-06
0002f0 0d 53 cd 34 f1 aa e8 34 de ca b9 35 5f a3 bc 33
       3.8244653e-07 4.3337744e-07 1.3842616e-06 8.784149e-08
000300 fb cf 18 35 c1 83 03 36 e9 5b 5f 34 19 75 8c 34
       5.6927064e-07 1.9597212e-06 2.080193e-07 2.6162232e-07
000310 63 aa 83 33 9e ea 86 33 e5 90 77 34 52 3f 5b 35
       6.131156e-08 6.282538e-08 2.305638e-07 8.1676e-07
000320 8f 1b 40 35 4b a8 c9 33 b5 03 d1 34 87 6a e2 34
       7.1565677e-07 9.390404e-08 3.893198e-07 4.217329e-07
000330 2b 28 ba 35 98 69 fa 34 1c 60 c2 35 31 bf 82 35
       1.386977e-06 4.6642958e-07 1.4482098e-06 9.741399e-07
000340 6b 5d 25 37 75 95 22 37 e0 dc 88 35 68 52 0b 37
       9.856517e-06 9.690751e-06 1.0197073e-06 8.304232e-06
000350 fd de 08 34 9e 3a 69 37 3a 8c b4 35 0f 13 e5 34
       1.274711e-07 1.390153e-05 1.3451856e-06 4.266844e-07
000360 e2 5d 94 36 a4 46 f3 33 92 ac e9 35 d4 28 ad 36
       4.421673e-06 1.1328419e-07 1.7410077e-06 5.160555e-06
000370 5c 44 d8 35 02 1d 3f 34 58 91 96 34 97 df 21 35
       1.6113149e-06 1.7798814e-07 2.804543e-07 6.030254e-07
000380 a1 05 0a 36 0c dc 67 36 b3 f2 87 34 c6 64 dc 34
       2.056688e-06 3.4549766e-06 2.5322296e-07 4.1051516e-07
000390 48 3f 22 36 b0 4d 8e 36 bc f3 91 36 8a fa 25 36
       2.4176716e-06 4.240974e-06 4.349711e-06 2.473275e-06
0003a0 69 54 a4 34 08 59 42 35 a2 e3 80 35 1c 34 c3 35
       3.0608797e-07 7.240019e-07 9.602993e-07 1.4543798e-06
0003b0 3c 34 0a 34 cb 49 f0 34 e7 f0 2b 33 3e 9b bd 35
       1.2871254e-07 4.4757175e-07 4.003314e-08 1.4126779e-06
0003c0 a8 6b 1b 34 c8 a5 9e 33 9d 9c 3c 35 bb db 13 33
       1.4474665e-07 7.387604e-08 7.026336e-07 3.442595e-08
0003d0 b7 6c 91 34 40 40 f3 35 54 9f 70 34 41 16 13 34
       2.7087455e-07 1.812361e-06 2.2409705e-07 1.3698538e-07
0003e0 dc 59 80 33 02 71 de 33 4c 67 90 34 ca c2 c8 34
       5.97681e-08 1.03582366e-07 2.6897249e-07 3.739463e-07
0003f0 12 dd 61 34 77 ac ff 33 34 2e 4c 35 2a 01 6a 35
       2.1035183e-07 1.1905734e-07 7.6063156e-07 8.7173487e-07

exp_avg f4 [32]
000000 3b 22 88 3a 93 da 80 39 a0 8d 23 ba 93 25 ae 39
       0.0010386178 0.00024576913 -0.00062390603 0.0003321586
000010 2b da 03 3a d2 79 97 39 e9 97 13 38 03 64 81 39
       0.0005029763 0.00028891728 3.518901e-05 0.00024679312
000020 20 53 e1 b9 90 d8 3e 39 54 83 1f ba 58 60 85 b9
       -0.00042977277 0.00018200488 -0.0006084938 -0.00025439519
000030 48 27 8c b7 bc 20 81 38 61 84 06 3a 8a 6a 5f 39
       -1.6707592e-05 6.1572966e-05 0.00051314203 0.00021306626
000040 58 5b 84 b9 41 ba bb 39 e3 3f 55 b9 18 54 95 37
       -0.00025245058 0.0003580619 -0.00020337063 1.7801343e-05
000050 c5 5d df 39 ab e2 21 b8 be 3e 89 39 39 70 00 ba
       0.00042603738 -3.8596492e-05 0.00026177423 -0.0004899535
000060 36 be 1d b9 ee f8 1d b5 0b d9 83 ba 5b 6d d4 b9
       -0.00015043546 -5.88493e-07 -0.0010059191 -0.00040517267
000070 ad 65 b5 39 af 26 f1 b8 57 55 ea b8 96 6b 47 ba
       0.00034598765 -0.00011498981 -0.00011173885 -0.0007607279

exp_avg_sq f4 [32]
000000 06 1d a7 35 36 ee b6 36 f8 63 a9 35 e4 08 8a 36
       1.2450917e-06 5.451754e-06 1.2620576e-06 4.1137555e-06
000010 aa d6 c9 35 4f 74 8d 36 54 83 6a 36 e8 2e 02 36
       1.5038142e-06 4.2156676e-06 3.494516e-06 1.9398813e-06
000020 1a b8 c7 36 7c 19 74 35 9e 60 d3 35 9b c5 2a 36
       5.9520944e-06 9.093417e-07 1.5748844e-06 2.5446996e-06
000030 06 dc 78 36 8b da 4b 34 28 a8 15 36 85 13 8d 35
       3.708295e-06 1.8985354e-07 2.230061e-06 1.0511e-06
000040 05 e2 05 36 3d 26 bd 35 51 21 3b 36 4c e7 89 35
       1.9950105e-06 1.4092726e-06 2.7884564e-06 1.0274612e-06
000050 6d 6b 8b 36 45 79 03 36 21 2c a4 35 3f 2f 83 36
       4.155029e-06 1.959111e-06 1.2231795e-06 3.9096044e-06
000060 b9 4e 2d 38 5e ab 93 35 91 32 06 36 60 0a 29 37
       4.131973e-05 1.1002228e-06 1.999699e-06 1.0075601e-05
000070 11 69 98 35 34 a1 ed 34 6a f0 c8 37 79 a9 af 37
       1.1355461e-06 4.426198e-07 2.395381e-05 2.0940543e-05

exp_avg f4 [16, 32]
000000 67 70 b3 38 ec 5a b9 b7 75 5c 2c 3a 36 b7 02 b8
       8.556322e-05 -2.2096057e-05 0.00065750565 -3.1165044e-05
000010 d4 b0 be 36 80 9a 24 3a 4f 07 88 b8 60 aa 11 38
       5.6830268e-06 0.0006279126 -6.486347e-05 3.4729368e-05
000020 dd a0 5b 39 34 22 8e 39 8b 65 9f b8 cc 7a 16 36
       0.00020945394 0.00027109834 -7.600625e-05 2.242322e-06
000030 b7 7a a6 b7 f6 d7 26 b9 8e ef 85 38 a3 2e 14 b8
       -1.9845886e-05 -0.00015911445 6.386555e-05 -3.5329384e-05
000040 ad 83 32 b8 3f 7b cb b8 37 11 c0 38 ae 4a f9 b6
       -4.256114e-05 -9.702751e-05 9.15848e-05 -7.429472e-06
000050 9f 18 44 b7 25 c3 c7 39 67 c7 a7 37 58 50 9c 39
       -1.1688243e-05 0.00038101632 2.0000805e-05 0.000298145
000060 c9 a6 a9 38 2f dd ab b6 3f c7 da 37 4d 24 a8 39
       8.089614e-05 -5.1219463e-06 2.6080406e-05 0.00032070503
000070 7e 5d 8f 39 01 d6 9f b8 60 9d ae b7 d6 9b ee 39
       0.00027344743 -7.621572e-05 -2.08157e-05 0.00045511004
000080 b0 4a 78 38 a6 9d 6b 38 a5 46 df 38 ec 4c 22 39
       5.9197366e-05 5.6175188e-05 0.00010646627 0.0001547818
000090 60 bb 3c 39 d2 7b 48 b9 fe 1e 1f 38 fa ca 43 38
       0.0001799888 -0.00019119613 3.7937418e-05 4.668066e-05
0000a0 b5 75 4d 3a 34 1c 5a b9 79 f2 15 ba dc a1 af b9
       0.0007837669 -0.00020800607 -0.000572003 -0.00033499196
0000b0 35 14 ce 37 85 88 c6 39 21 9e 0e 39 14 76 33 39
       2.4566523e-05 0.00037867218 0.00013601083 0.00017114758
0000c0 38 bf 15 b9 e6 6d 50 3a 13 26 3d 38 bc 3b 38 38
       -0.00014280982 0.00079509465 4.509657e-05 4.392465e-05
0000d0 3e 58 c7 39 b4 ec 87 b8 69 20 a4 39 2b 45 c4 39
       0.00038021983 -6.481391e-05 0.00031304665 0.00037435567
0000e0 a0 46 77 b8 d0 0b 51 38 d5 e8 14 ba 99 05 4f 3a
       -5.8955164e-05 4.9840484e-05 -0.00056804466 0.00078972575
0000f0 5c 9a 89 38 84 a9 a2 39 e5 53 ae 39 61 95 64 3a
       6.561421e-05 0.00031025347 0.00033250373 0.0008719769
000100 77 5d 0c 37 5c 29 7e 36 9c 78 dd 38 92 60 0e b7
       8.366412e-06 3.7873024e-06 0.000105605664 -8.486344e-06
000110 bc 64 52 38 72 b8 c6 38 a1 4d 43 39 d5 37 b3 38
       5.0161718e-05 9.475731e-05 0.00018625568 8.545785e-05
000120 70 71 91 b6 e3 b2 03 39 c0 e4 fa 38 19 2d e8 39
       -4.3345426e-06 0.00012559774 0.00011963537 0.0004428409
000130 28 5f 8e 39 ef 79 38 3a 3d 59 b0 38 43 69 0b 3a
       0.00027155248 0.00070372125 8.408956e-05 0.00053181144
000140 84 83 df 37 0b 80 75 3a 9a db 01 b7 eb df 86 38
       2.6644913e-05 0.0009365088 -7.740129e-06 6.431326e-05
000150 21 7d 85 3a 77 29 5d 38 57 ce 8d 39 e2 c4 da b7
       0.0010184386 5.2729123e-05 0.0002704735 -2.6079306e-05
000160 ec f4 71 b5 0d ca fc b6 45 ae fb b7 6b a8 9c 3a
       -9.0135904e-07 -7.533707e-06 -3.0002682e-05 0.0011952048
000170 84 ca 5d 39 a6 18 e6 39 b9 5d 03 39 eb 49 6f 39
       0.00021151645 0.00043887383 0.00012528048 0.00022820353
000180 59 52 91 34 c8 ba 81 37 e3 3c d3 36 7f 67 0f b6
       2.706827e-07 1.5464975e-05 6.295378e-06 -2.1368903e-06
000190 29 c9 07 36 ce c3 8c 38 8d fd 92 37 88 c7 41 b7
       2.0233658e-06 6.712192e-05 1.7522625e-05 -1.1550153e-05
0001a0 d7 42 d1 b6 f8 21 cb 37 1a 14 35 b7 ff a5 dd b7
       -6.2364666e-06 2.4215304e-05 -1.0793121e-05 -2.6422551e-05
0001b0 b1 b4 ad b7 12 ac ea 37 c4 d7 80 b7 3a f9 5e 36
       -2.0707348e-05 2.79751e-05 -1.5359263e-05 3.3225647e-06
0001c0 c6 f9 26 38 75 6c 16 37 63 79 92 b6 25 ad cc 36
       3.9810104e-05 8.965949e-06 -4.3652703e-06 6.0998304e-06
0001d0 75 52 03 b6 47 2c b0 37 1b bf 23 b7 bf 6e 0b b8
       -1.9568517e-06 2.1001453e-05 -9.760052e-06 -3.3243323e-05
0001e0 f2 76 f8 b5 2c 70 46 36 d7 c6 86 b7 d4 f7 9d 38
       -1.8512058e-06 2.9569592e-06 -1.6066637e-05 7.532505e-05
0001f0 67 bc db 37 3f 49 53 b5 a5 4d 5e 37 ea c0 47 b6
       2.6194566e-05 -7.871021e-07 1.3250309e-05 -2.9765602e-06
000200 3a bb 45 36 8a a2 29 35 de 86 92 b5 ab c9 c4 37
       2.9464268e-06 6.319393e-07 -1.0917099e-06 2.345893e-05
000210 30 a9 3d 36 42 2b 82 b7 83 8d fb b7 23 15 25 b7
       2.8261675e-06 -1.5517351e-05 -2.9987428e-05 -9.839688e-06
000220 4a 5e a2 36 ea 84 9f b5 8c b2 84 36 a1 6c 13 37
       4.838953e-06 -1.1885106e-06 3.954692e-06 8.787175e-06
000230 91 7c 07 37 e7 0d 78 b5 ba 68 bf 36 38 04 18 36
       8.07563e-06 -9.240743e-07 5.7044354e-06 2.265222e-06
000240 b9 18 ef b6 91 20 df 35 6a a3 30 36 ad 91 3b 36
       -7.125633e-06 1.6624273e-06 2.6321163e-06 2.7949966e-06
000250 73 13 53 36 b1 8f 67 b5 bf c4 a7 36 46 15 2f 37
       3.145277e-06 -8.6263304e-07 4.999892e-06 1.0435766e-05
000260 8e 69 1e 36 f8 44 ba 35 09 9d bd 36 b9 dc 5c b7
       2.3605276e-06 1.3878152e-06 5.6509202e-06 -1.3164413e-05
000270 9d 25 5d b6 6c fd e5 35 8d 97 05 b6 1d 73 6d 36
       -3.295346e-06 1.7135585e-06 -1.9906759e-06 3.5382757e-06
000280 a7 0c 7a b8 b2 03 05 37 ba d6 57 39 1b ae 40 39
       -5.961643e-05 7.928278e-06 0.0002058399 0.00018375406
000290 99 e2 fb b7 98 17 14 ba e8 72 9d 38 14 6d 32 39
       -3.002705e-05 -0.00056492677 7.507746e-05 0.00017016038
0002a0 00 1c 9b 3a 65 74 1b 39 8c 16 64 b9 b5 c3 30 39
       0.0011833906 0.00014825312 -0.00021752174 0.00016857575
0002b0 35 ef b8 39 0d 9a 88 38 e1 4e 9c b8 a2 03 6d 38
       0.00035273438 6.5136795e-05 -7.453352e-05 5.6508587e-05
0002c0 e4 70 15 ba cb 10 58 36 ac 2d 6e b8 3b 3b e0 37
       -0.0005700721 3.2196283e-06 -5.6786157e-05 2.6730462e-05
0002d0 e7 fb 5e 38 d3 86 0f b9 25 bd b9 37 5b 9d 90 39
       5.3163527e-05 -0.00013687769 2.2141796e-05 0.0002758306
0002e0 16 89 79 b9 30 bb d9 37 24 a9 5f b9 8d 92 df 39
       -0.00023797559 2.5955582e-05 -0.00021329947 0.00042643063
0002f0 3f ff 07 38 f8 2a 3e 38 5f 8e 04 b9 92 d6 88 3a
       3.2424225e-05 4.5339548e-05 -0.00012641538 0.0010439923
000300 fb 7e 1b b9 4f 31 c8 b9 fd dc f5 38 14 12 73 39
       -0.00014829256 -0.0003818371 0.00011723673 0.0002318102
000310 d1 60 d1 39 c3 f6 e1 ba 23 cb 56 39 68 9e 83 39
       0.0003993572 -0.0017239678 0.00020484305 0.0002510429
000320 b4 94 38 38 ea 4a f4 37 03 ee 44 3a bd e1 75 39
       4.400751e-05 2.9121951e-05 0.0007512273 0.00023449115
000330 b6 c3 9a 39 f3 c0 15 38 a2 3d 24 38 52 74 ad b7
       0.00029518985 3.5704066e-05 3.9158047e-05 -2.0677373e-05
000340 3d 35 08 bb 13 7a 43 39 df dc b4 b8 3d 99 19 37
       -0.0020783686 0.00018642125 -8.624209e-05 9.155189e-06
000350 de 0c c5 38 9b ac e7 b9 38 70 a3 38 83 44 76 b9
       9.396089e-05 -0.00044188355 7.793348e-05 -0.00023485911
000360 5f 5f 37 b9 6b 9b 1d b8 7a 2b 34 39 72 94 73 ba
       -0.00017487768 -3.757646e-05 0.00017182334 -0.00092918344
000370 a2 cc 5c 39 6a c4 e1 38 41 12 c5 b8 52 cf b9 b9
       0.00021057067 0.00010765421 -9.397092e-05 -0.00035440415
000380 29 28 f6 39 73 d0 da 39 37 50 6a 39 84 89 25 ba
       0.00046950698 0.00041735507 0.00022345861 -0.0006314742
000390 31 5f 67 3a 37 de a5 3a 35 20 31 3a d0 f7 e5 b8
       0.00088261353 0.0012654726 0.00067568134 -0.000109657296
0003a0 eb f7 74 38 ae f7 c1 38 0e 77 27 3a 35 65 07 39
       5.8405025e-05 9.249091e-05 0.0006388285 0.00012912306
0003b0 d6 8d 89 38 ed fc 5e b8 5b f1 ef b5 02 68 e7 37
       6.559088e-05 -5.316448e-05 -1.7877131e-06 2.7585778e-05
0003c0 0a 1e 84 b8 ee d0 32 39 46 56 36 38 b9 44 42 36
       -6.299846e-05 0.00017053235 4.347253e-05 2.8948255e-06
0003d0 5d 78 80 38 9d 98 19 3a 89 ec 96 37 1c bb 9c b9
       6.125935e-05 0.0005859228 1.7991539e-05 -0.00029894046
0003e0 d0 95 65 39 3d 0f b6 b8 07 ef bb 39 61 41 d1 3a
       0.00021894951 -8.6812746e-05 0.0003584551 0.0015964919
0003f0 05 d6 2e 3a 11 bf b2 37 33 dd 5c 3a 9e 47 00 39
       0.00066694646 2.1308226e-05 0.0008425295 0.00012233711
