vertex-custom-ml/pytorch/custom_jobs/pytorch_tabular/training/saved_models/classification-3_epoch=15-valid_loss=0.21.ckpt (torch, 58438 bytes, 38 tensors)

_backbone.linear_layers.0.weight f4 [32, 28]
-0.11641649 -0.23100771 -0.2032158 0.6610081 0.068543635 0.27718592 0.45829684 -0.29379898
-1.0511178 -0.11169481 0.38868287 -0.371294 0.2042508 0.21228522 -0.09005817 -0.14468527
0.2802528 0.17525019 -0.17742275 0.22948833 0.40846944 -0.8283677 -0.10880859 0.015811853
0.4914996 0.5735436 0.29321972 -0.18828924 -0.051291555 0.31049517 -0.61232114 0.7979864
-0.3938063 -0.57518166 0.35161355 0.18761274 -0.30319375 -0.23681566 -0.4746402 -0.10858987
0.3804247 0.6385792 0.15650904 -0.5127944 -0.36994365 -0.23071761 0.5425651 -0.32154748
-0.5575427 -0.1537848 -0.35214412 -0.3467864 0.08820261 -0.22889477 -0.83949095 0.6910191
-0.27924642 0.044848975 -0.18318933 0.14262673 -0.17206086 0.5333891 0.6804762 -0.15761998
0.22127725 0.07004561 -0.5455517 0.6075109 0.5448511 0.7303925 0.575114 -0.123369016
-0.055552784 -0.74971956 0.019301254 -0.09745534 -0.18663901 -0.7705879 -0.096552305 -0.36406156
0.03034699 0.13089956 0.09311374 0.10665508 -0.4543865 0.0011724399 -1.1323985 0.2015999
0.015741097 0.09663449 -0.13093613 -0.27990618 -0.09573323 -0.45592397 -1.159066 -0.18032993
0.0071444334 -0.16404396 0.09224311 0.14502698 -0.34679827 -0.2431916 0.7262172 0.4523843
-0.3385975 -0.1971853 -0.12935835 1.0256766 0.3982343 -0.30339387 -7.101342e-05 1.0230817
-0.62414044 0.40486336 -0.5577942 -0.12960742 -0.9375535 -0.32941467 0.5516872 -0.36608604
0.40491617 -0.5980628 -1.2867066 0.20826769 -0.27922198 0.373091 0.34858698 -0.40994635
0.17902845 -0.0017120963 -0.24576509 0.04206817 -0.26198998 -0.4742446 -0.5930515 -0.22914958
-0.47796202 -0.10994006 -0.7832165 -0.019456228 -0.13385421 0.030740645 0.6006121 -0.4076165
0.14487049 -0.54462886 -0.24525996 0.13952777 -0.64997905 0.064484045 -0.5795865 0.55981547
-0.7054665 0.303995 -0.4992382 -1.1871053 -0.0919746 0.51010007 0.053835854 0.41593006
0.026924754 -0.3298801 0.060245287 -1.0255904 0.39756444 -0.4539246 0.11716168 0.120624155
0.6066767 0.100334026 -0.9483377 0.9465301 -0.21506399 -0.17861699 1.2856559 -0.34341514
-0.37036207 -0.11711784 -0.029018994 0.32952225 -0.6519549 0.20429952 -0.061541796 -0.42134067
-0.14612561 0.019952532 0.2685063 0.40197274 0.08504204 -0.8481139 -0.18965998 -0.09095146
0.5966462 -0.50990707 -0.09495988 0.7557638 -0.36318377 1.0455234 0.14348547 -0.6245332
-0.63667077 0.059146028 -0.5857865 0.40482473 0.008966081 -0.31680647 -0.17447403 -0.56375873
0.007286305 -0.18654603 0.031257685 -0.07577523 0.25242066 -0.28396893 -0.10915729 0.57257974
0.43760207 -0.47964463 0.8201826 0.6652751 0.51845324 0.27813438 -0.12740774 -0.93864244
0.40732145 0.37737295 0.91600317 0.2484998 -0.41907343 -0.025903465 0.21723868 -0.074322194
-0.1494275 0.04478922 0.26420653 0.59252715 0.14863394 -0.28138393 0.17612247 0.026627788
0.034439895 0.24057922 -0.19301626 -0.07665212 0.56944764 -0.21046057 0.34949183 0.797056
0.6618175 -0.43621507 0.61273724 0.27471045 -0.43685338 0.03220107 0.3103507 0.41421843
00000000: c56b eebd 498d 6cbe cd17 50be d437 293f
00000010: 9b60 8c3d 50eb 8d3e e2a5 ea3e d26c 96be
00000020: 078b 86bf 40c0 e4bd 7101 c73e 3f1a bebe
00000030: 1f27 513e 4c61 593e 6b70 b8bd 6028 14be
00000040: 4c7d 8f3e c974 333e 4fae 35be fdfe 6a3e
00000050: e822 d13e e80f 54bf 0ad7 debd dc87 813c
00000060: d6a5 fb3e c1d3 123f e520 963e e5ce 40be
00000070: 1817 52bd 39f9 9e3e 14c1 1cbf d648 4c3f
00000080: fba0 c9be 1b3f 13bf b106 b43e 8e1d 403e
00000090: 363c 9bbe ce7f 72be 0a04 f3be 5e64 debd
000000a0: 07c7 c23e ed79 233f e843 203e 7e46 03bf
000000b0: 4169 bdbe 3d41 6cbe 8ce5 0a3f dfa1 a4be
000000c0: 1ebb 0ebf c379 1dbe 3c4c b4be fd8d b1be
000000d0: 92a3 b43d 6463 6abe e1e8 56bf a1e6 303f
000000e0: 63f9 8ebe 8fb3 373d fc95 3bbe be0c 123e
000000f0: b930 30be 308c 083f b033 2e3f 2267 21be
00000100: 8196 623e 1374 8f3d 47a9 0bbf d685 1b3f
00000110: 5d7b 0b3f 01fb 3a3f ac3a 133f e5a8 fcbd
00000120: 518b 63bd 9fed 3fbf aa1d 9e3c aa96 c7bd
00000130: 4c1e 3fbe 4045 45bf 37bd c5bd 4766 babe
00000140: 409a f83c 890a 063e 6bb2 be3d fb6d da3d
00000150: 59a5 e8be 8eac 993a 6ff2 90bf 3470 4e3e
00000160: 79f3 803c 4ee8 c53d 1f14 06be dd4f 8fbe
00000170: c90f c4bd de6e e9be 465c 94bf 69a8 38be
00000180: da1b ea3b 24fb 27be f5e9 bc3d f481 143e
00000190: 8b8f b1be 3807 79be 5fe9 393f ea9e e73e
000001a0: a75c adbe f1ea 49be 8476 04be 5f49 833f
000001b0: 5ee5 cb3e 7156 9bbe 0aed 94b8 57f4 823f
000001c0: abc7 1fbf 404a cf3e 9acb 0ebf cfb7 04be
000001d0: 8203 70bf 0aa9 a8be 5f3b 0d3f a16f bbbe
000001e0: 2c51 cf3e a51a 19bf cdb2 a4bf 2044 553e
000001f0: 2ff6 8ebe c905 bf3e fe79 b23e 7de4 d1be
00000200: 3c53 373e 6b68 e0ba d8a9 7bbe ac4f 2c3d
00000210: 8d23 86be 30d0 f2be 39d2 17bf 30a6 6abe
00000220: 70b7 f4be 4128 e1bd e080 48bf ab62 9fbc
00000230: 1411 09be ced3 fb3c b7c1 193f 1cb3 d0be
00000240: ee58 143e cc6c 0bbf 6d25 7bbe 5ee0 0e3e
00000250: 0765 26bf 3610 843d c85f 14bf 1150 0f3f
00000260: 7499 34bf 3ca5 9b3e 269c ffbe 11f3 97bf
00000270: 2e5d bcbd eb95 023f fc82 5c3d c9f4 d43e
00000280: 4d91 dc3c 0be6 a8be c3c3 763d 8c46 83bf
00000290: 918d cb3e ce68 e8be 76f2 ef3d cc09 f73d
000002a0: 2a4f 1b3f ed7b cd3d 42c6 72bf cc4f 723f
000002b0: bc39 5cbe 5fe7 36be 5f90 a43f 1cd4 afbe
000002c0: 19a0 bdbe 7adb efbd 3eb9 edbc 24b7 a83e
000002d0: 84e6 26bf e533 513e 4013 7cbd f7b9 d7be
000002e0: f4a1 15be 7e73 a33c a879 893e 5fcf cd3e
000002f0: 852a ae3d fe1d 59bf 3a36 42be c244 babd
00000300: cebd 183f 4589 02bf 537a c2bd bd79 413f
00000310: 39f3 b9be b6d3 853f dbed 123e 68e1 1fbf
00000320: dbfc 22bf 1b43 723d 1bf6 15bf 3045 cf3e
00000330: 78e6 123c 7534 a2be 52a9 32be 7e52 10bf
00000340: f5c1 ee3b ec05 3fbe 0f08 003d 0b30 9bbd
00000350: 483d 813e 6064 91be db8d dfbd 9694 123f
00000360: 610d e03e fb93 f5be 7df7 513f 784f 2a3f
00000370: 5ab9 043f a167 8e3e 2d77 02be df4a 70bf
00000380: 708c d03e 0737 c13e 2f7f 6a3f bb76 7e3e
00000390: cb90 d6be 8133 d4bc d173 5e3e 3c36 98bd
000003a0: 8603 19be e774 373d 1446 873e dcaf 173f
000003b0: 7f33 183e 8e11 90be 7359 343e 8522 da3c
000003c0: d910 0d3d 665a 763e 0ea6 45be c9fb 9cbd
000003d0: 52c7 113f fa82 57be 98f0 b23e dd0b 4c3f
000003e0: df6c 293f 9557 dfbe 59dc 1c3f d9a6 8c3e
000003f0: 3fab dfbe 45e5 033d 49e6 9e3e 7014 d43e

_backbone.linear_layers.0.bias f4 [32]
-0.36453813 -0.17169714 -0.27700365 -0.47862446 0.26261762 -0.30910692 -0.4466058 -0.24948235
-0.32753804 -0.3088794 -0.29365972 -0.06894006 -0.33138174 -0.4788475 -0.55237865 -0.099184625
-0.24537978 -0.3223274 0.07132212 -0.24589173 -0.3762012 -0.32878804 -0.39535755 -0.9557697
-0.67403585 -0.636274 -0.5087732 -0.19361432 0.21088247 -0.27215585 -0.5512996 -0.027673328
00000000: bea4 babe 60d1 2fbe 6cd3 8dbe 440e f5be
00000010: d175 863e 4343 9ebe 84a9 e4be 4d78 7fbe
00000020: 11b3 a7be 7125 9ebe 915a 96be 7230 8dbd
00000030: deaa a9be 802b f5be b068 0dbf 4f21 cbbd
00000040: d644 7bbe 1908 a5be 5511 923d 0bcb 7bbe
00000050: 729d c0be e856 a8be 4e6c cabe 53ad 74bf
00000060: 9d8d 2cbf dae2 22bf f63e 02bf d542 46be
00000070: 93f1 573e 0358 8bbe f821 0dbf 2db3 e2bc

_backbone.linear_layers.3.weight f4 [16, 32]
0.47731185 -0.48248765 0.78702223 0.07034782 -0.9218868 -0.54556954 -0.57182395 -0.21191485
0.11026218 -0.2763085 -0.42581663 -0.7760093 -0.4388161 0.6409302 -0.16937028 0.41677544
-0.37281442 -0.92997533 -0.78997356 -1.1519325 -0.9775297 0.12200261 -0.7138252 -0.6945833
-2.5277753 -0.4224465 0.5251585 -0.6143547 0.40685797 -1.0427414 -1.1314725 -0.08849501
0.4582776 0.3428216 0.07073492 -0.5142786 0.36968893 -0.1956347 0.08458234 0.061396062
-0.63730145 -0.12943058 -0.25034666 -0.4784683 -0.34195787 0.22841515 -0.040624287 0.43194312
-0.4498355 -0.60366505 0.08479329 -0.8925592 0.03033298 -0.5368793 -0.3139752 -0.6772755
-0.8268709 -0.85068446 0.6614374 -0.7132314 0.34055942 0.37022224 -0.53139234 0.64636135
-0.33492908 -0.45175746 -0.1617817 -0.48568866 0.30842248 1.0493463 -0.8955094 -0.89916295
0.9950529 -0.3523736 -0.8807263 0.062471252 0.096759 -0.78180206 0.2118191 -0.6026852
-0.51567143 -0.104042396 -0.62140083 -0.5268835 -0.94722307 1.0734167 -0.3345391 0.20494509
0.06838652 -0.020796593 -0.7309008 -0.63420844 -0.29254785 -1.0571394 0.094284 -0.5723781
-0.5909288 -0.49093103 -0.67164534 -0.6602254 -0.19848296 -0.5324026 0.052106574 0.042435534
-0.34146845 -0.21640447 -0.31490347 -0.5800044 -0.10177194 -0.17436036 -0.08883518 0.1448048
-0.31814805 -0.1006672 -0.5134143 -0.0732053 -0.13807032 -0.69979405 -0.095903076 -0.2910759
-0.3363215 -0.28703812 -0.41539663 -0.38480794 -0.45794696 0.026350753 -0.1504035 -0.28612342
0.22911152 -0.2894984 -0.09456456 -0.36589715 -0.3863948 0.44158715 -0.68319446 -0.025743073
-0.17788155 0.16291307 -0.019641 -0.033859976 -0.6559222 -0.09858139 -0.042601526 -0.22125538
-0.38283098 -0.26213095 -0.02913698 -0.17139643 -0.094392896 0.3746951 0.14394473 -0.48407513
-0.22533415 -0.12417548 -0.4996211 -0.061463494 -0.45506632 -0.22123191 0.16356632 -0.2743653
-0.60339373 -0.34643722 -0.80381006 -0.16510934 -0.029090373 -0.22618687 -0.3012806 -0.82572824
0.121356696 -0.29607624 -0.6535399 -0.97333664 0.35711873 -0.6645414 -0.58935285 -0.5282507
-0.3068847 -1.0381025 -1.686383 -0.8282963 -0.9022463 -0.49360225 -0.24017556 -0.15941383
-1.1650689 -0.59715647 -0.66800344 -0.57666093 -0.22877738 0.06529922 -1.2535673 -0.23988092
0.1247537 -0.18457937 -0.06980845 0.36998376 -0.46299767 -0.4142334 -0.6752371 -0.080276676
-0.3653689 0.82837224 0.784157 0.11981564 -0.02682743 0.33531743 -0.23005296 -0.3654471
0.10552146 0.0075208154 0.30967745 0.3646542 0.5788272 -0.4977503 -0.11426539 -1.204026
0.8933393 0.626276 -0.12126564 0.56401944 0.020670444 -0.3064625 0.5326857 -0.76941246
-0.022114446 -0.5500551 -0.17292511 -0.96822524 0.3398314 -0.62729466 -0.26814008 -1.3701155
-0.4279156 -0.18983176 -2.6137137 -2.0274048 -0.76836675 -0.47123432 0.47623003 0.279488
-1.434825 -0.15393026 -2.1500769 -1.6751899 -0.07735189 0.16165544 -0.017356617 -0.22459082
-2.4612517 -0.7089367 -0.058296617 -1.0638127 -0.15925343 -0.2359915 -0.8955244 0.34215754
00000000: 3862 f43e 9f08 f7be 4a7a 493f 8512 903d
00000010: c600 6cbf 72aa 0bbf 0e63 12bf 3500 59be
00000020: 23d1 e13d 4f78 8dbe a304 dabe 8ca8 46bf
00000030: 81ac e0be 0014 243f 676f 2dbe 9763 d53e
00000040: 88e1 bebe dd12 6ebf b53b 4abf 8672 93bf
00000050: 633f 7abf 81dc f93d 40bd 36bf 36d0 31bf
00000060: 12c7 21c0 e84a d8be ca70 063f 5a46 1dbf
00000070: b04f d03e 8d78 85bf 17d4 90bf df3c b5bd
00000080: 5da3 ea3e 5086 af3e 78dd 903d c3a7 03bf
00000090: de47 bd3e 7654 48be 8239 ad3d 707a 7b3d
000000a0: 3026 23bf 7389 04be 702d 80be ccf9 f4be
000000b0: 1a15 afbe a9e5 693e a765 26bd a627 dd3e
000000c0: d750 e6be cb89 1abf 1ba8 ad3d c27e 64bf
000000d0: df7c f83c ec70 09bf 5bc1 a0be ed61 2dbf
000000e0: d0ad 53bf 75c6 59bf f653 293f 5596 36bf
000000f0: ce5d ae3e c58d bd3e 5409 08bf f077 253f
00000100: d37b abbe c14c e7be 1aaa 25be 2fac f8be
00000110: 8de9 9d3e fb50 863f 1b40 65bf 8b2f 66bf
00000120: c9bb 7e3f 506a b4be 4777 61bf dbe1 7f3d
00000130: 9529 c63d 2e24 48bf 1be7 583e 9449 1abf
00000140: 0b03 04bf 2e14 d5bd 2014 1fbf d6e1 06bf
00000150: 367d 72bf b865 893f b548 abbe 20dd 513e
00000160: 3b0e 8c3d 9e5d aabc 511c 3bbf 7c5b 22bf
00000170: d5c8 95be 5850 87bf f817 c13d 5f87 12bf
00000180: 1c47 17bf 505b fbbe f3f0 2bbf 8804 29bf
00000190: 1e3f 4bbe 894b 08bf b46d 553d e2d0 2d3d
000001a0: f4d4 aebe 2299 5dbe 073b a1be 2b7b 14bf
000001b0: cf6d d0bd 868b 32be 38ef b5bd b647 143e
000001c0: 4de4 a2be 9b2a cebd 1f6f 03bf a9ec 95bd
000001d0: 4e62 0dbe b425 33bf d568 c4bd e607 95be
000001e0: 5532 acbe a9f6 92be deae d4be 8c05 c5be
000001f0: 0678 eabe 89dd d73c 6003 1abe c57e 92be
00000200: 369c 6a3e 2239 94be 10ab c1bd df56 bbbe
00000210: 8ad5 c5be b617 e23e d5e5 2ebf 23e3 d2bc
00000220: 9526 36be afd2 263e 2ae6 a0bc c2b0 0abd
00000230: 84ea 27bf 0ae5 c9bd f07e 2ebd c590 62be
00000240: 6c02 c4be 0736 86be adb0 eebc 8c82 2fbe
00000250: 1051 c1bd 09d8 bf3e 3f66 133e b2d8 f7be
00000260: ffbd 66be b74f febd 56ce ffbe 25c1 7bbd
00000270: 74fe e8be 9e8a 62be ee7d 273e 9c79 8cbe
00000280: 0378 1abf 3860 b1be 7fc6 4dbf 6c12 29be
00000290: ef4e eebc 889d 67be 7341 9abe ed62 53bf
000002a0: dc89 f83d 4e97 97be 644e 27bf 972c 79bf
000002b0: 44d8 b63e 631f 2abf d4df 16bf 703b 07bf
000002c0: fe1f 9dbe 8be0 84bf 66db d7bf 3a0b 54bf
000002d0: 9df9 66bf 6fb9 fcbe 95f0 75be 613d 23be
000002e0: fa20 95bf 3fdf 18bf 4602 2bbf 0da0 13bf
000002f0: 9e44 6abe 99bb 853d e574 a0bf 58a3 75be
00000300: de7e ff3d 6002 3dbe bcf7 8ebd 836e bd3e
00000310: 080e edbe 6616 d4be 57dc 2cbf 1968 a4bd
00000320: a211 bbbe 3410 543f 83be 483f e761 f53d
00000330: 33c5 dbbc baae ab3e 0193 6bbe e21b bbbe
00000340: a31b d83d 2c71 f63b 0b8e 9e3e f5b3 ba3e
00000350: 052e 143f 21d9 febe f903 eabd 861d 9abf
00000360: e2b1 643f a053 203f 1f5a f8bd 9463 103f
00000370: 1055 a93c a7e8 9cbe 175e 083f 37f8 44bf
00000380: 5b29 b5bc 69d0 0cbf 4813 31be 9cdd 77bf
00000390: 62fe ad3e 6296 20bf a849 89be f25f afbf
000003a0: c117 dbbe 4263 42be 1647 27c0 00c1 01c0
000003b0: afb3 44bf a045 f1be 6cd4 f33e 0d19 8f3e
000003c0: 58a8 b7bf e59f 1dbe dc9a 09c0 9f6c d6bf
000003d0: ab6a 9ebd 0189 253e 772f 8ebc 23fb 65be
000003e0: 2685 1dc0 e07c 35bf 6fc8 6ebd 042b 88bf
000003f0: 5513 23be c1a7 71be 1641 65bf 462f af3e

_backbone.linear_layers.3.bias f4 [16]
0.37062633 0.2003103 -0.3534229 -0.3160556 -0.047458835 -0.42063832 0.16549756 0.3791401
-0.091361456 -0.20856218 -0.1272277 -0.83180827 -0.26875296 -0.37819305 0.09799099 -0.42317772
00000000: bcc2 bd3e 251e 4d3e d9f3 b4be 0ad2 a1be
00000010: 3264 42bd e85d d7be 3178 293e a71e c23e
00000020: b71b bbbd 5391 55be fa47 02be 63f1 54bf
00000030: fd99 89be 85a2 c1be 80af c83d c0aa d8be

_embedding_layer.cat_embedding_layers.0.weight f4 [5, 3]
-0.33336785 -0.33208662 0.5331769 -0.95757014 -1.2205082 0.88027793 -0.8244512 -0.39166328
0.045798413 -0.41068742 -1.8426832 -0.38157612 0.31807366 0.2810442 -1.4336299
00000000: 31af aabe 4207 aabe 487e 083f 5123 75bf
00000010: 9d39 9cbf e559 613f 3c0f 53bf 1788 c8be
00000020: 1e97 3b3d 9f45 d2be 0bdd ebbf f25d c3be
00000030: 8dda a23e 06e5 8f3e 2f81 b7bf

_embedding_layer.cat_embedding_layers.1.weight f4 [5, 3]
-0.07633311 0.38171262 1.3053335 -0.34351078 0.25511634 0.50922775 -0.45640206 -0.4657311
0.6166634 -1.1324624 -0.10215983 0.07767065 -0.59643966 0.3004876 0.57731616
00000000: 8954 9cbd d66f c33e 2b15 a73f a5e0 afbe
00000010: 9c9e 823e c05c 023f 88ad e9be 4f74 eebe
00000020: a7dd 1d3f 87f4 90bf 2c39 d1bd ca11 9f3d
00000030: 45b0 18bf 83d9 993e feca 133f

_embedding_layer.cat_embedding_layers.2.weight f4 [5, 3]
-0.22468734 -1.3166751 0.6917748 -1.3811615 -0.36203045 -0.2964561 0.00051355036 0.36843145
-1.0275636 1.5886698 2.557437 0.1000974 -1.1233009 -1.644096 0.5731236
00000000: 7014 66be cf88 a8bf 2718 313f e6c9 b0bf
00000010: 0e5c b9be 18c9 97be c89f 063a 0ca3 bc3e
00000020: 3487 83bf 8859 cb3f 0cad 2340 deff cc3d
00000030: 53c8 8fbf bd71 d2bf 3ab8 123f

_embedding_layer.cat_embedding_layers.3.weight f4 [5, 3]
1.1542131 1.1293921 -0.2023223 0.561839 -2.424377 -0.14939465 1.3486884 0.5621825
-2.3657277 2.37379 0.1398526 -0.5468986 -2.0044684 -0.0017192811 1.1623076
00000000: 41bd 933f ec8f 903f 942d 4fbe aed4 0f3f
00000010: fe28 1bc0 e9fa 18be d2a1 ac3f 31eb 0f3f
00000020: 1568 17c0 2dec 1740 8535 0f3e 8c01 0cbf
00000030: 3649 00c0 8059 e1ba 7fc6 943f

_embedding_layer.normalizing_batch_norm.weight f4 [16]
1.5184059 0.2642202 1.5392354 0.3779361 0.41559157 0.43662098 1.3354586 0.4146123
0.36653972 0.30998892 1.4829426 0.3404882 0.52292526 -0.043899093 0.41030836 0.06336023
00000000: 205b c23f df47 873e aa05 c53f d780 c13e
00000010: 6bc8 d43e c98c df3e 4ff0 aa3f 1048 d43e
00000020: 18ab bb3e deb6 9e3e 10d1 bd3f 7854 ae3e
00000030: 6ede 053f 89cf 33bd f013 d23e 02c3 813d

_embedding_layer.normalizing_batch_norm.bias f4 [16]
0.14565322 -0.6150899 -0.5585109 -0.3412164 0.5193249 0.19381742 -0.14915387 0.40637195
0.35742882 0.110067785 0.12833631 -0.34751505 0.15367262 -0.26144797 -0.020837251 0.3544566
00000000: 1e26 153e 8876 1dbf 92fa 0ebf eab3 aebe
00000010: 7af2 043f 1378 463e cbbb 18be fc0f d03e
00000020: e900 b73e 386b e13d 986a 033e 7eed b1be
00000030: 5b5c 1d3e 82dc 85be e2b2 aabc 567b b53e

_embedding_layer.normalizing_batch_norm.running_mean f4 [16]
0.00052601885 0.0010153849 -7.040434e-05 -0.0045141205 -0.0015413193 0.0005183727 0.002513976 0.0017150411
-8.506545e-06 0.0011730462 -0.0028084547 0.0018343528 0.0030313882 0.0031236953 0.000756828 0.0009353431
00000000: 87e4 093a aa16 853a 0ba6 93b8 30eb 93bb
00000010: 1806 caba 67e3 073a 85c1 243b 3bcb e03a
00000020: 55b7 0eb7 e6c0 993a 0d0e 38bb ab6e f03a
00000030: 41aa 463b e9b6 4c3b de65 463a d031 753a

_embedding_layer.normalizing_batch_norm.running_var f4 [16]
0.99917215 0.9975062 0.9977194 0.9988949 1.0022464 1.0006615 0.9909403 0.99795985
0.99684954 1.0025058 1.000164 0.99900657 0.99537385 0.9911611 1.0011195 0.99584895
00000000: bfc9 7f3f 915c 7f3f 8a6a 7f3f 93b7 7f3f
00000010: 9c49 803f ad15 803f 43ae 7d3f 4c7a 7f3f
00000020: 8831 7f3f 1c52 803f 6005 803f e5be 7f3f
00000030: d2d0 7e3f bcbc 7d3f af24 803f f5ef 7e3f

head.layers.0.weight f4 [2, 16]
0.6664899 0.02089563 0.38534564 0.33871597 0.28857076 0.9315561 0.059659448 0.8715048
0.3373136 -0.35148844 0.09618248 0.6122718 0.2104156 -0.063788734 0.36407885 0.55422044
0.06785889 -0.35399345 -0.0624931 0.08689449 0.08359965 0.2951191 0.3178889 -0.58150226
-0.15597002 -0.061737232 0.334115 -0.2650874 0.45847067 -0.22812316 0.0029365572 -0.96152437
00000000: 159f 2a3f 502d ab3c 064c c53e 2e6c ad3e
00000010: 8cbf 933e 767a 6e3f 775d 743d f01a 5f3f
00000020: 5eb4 ac3e 4bf6 b3be 52fb c43d d8bd 1c3f
00000030: 3077 573e aba3 82bd 8b68 ba3e 64e1 0d3f
00000040: 9af9 8a3d a13e b5be c4f8 7fbd bdf5 b13d
00000050: 4b36 ab3d da19 973e 55c2 a23e 55dd 14bf
00000060: 9bb6 1fbe 2ee0 7cbd 1f11 ab3e 89b9 87be
00000070: abbc ea3e 1e99 69be 4173 403b 7626 76bf

head.layers.0.bias f4 [2]
0.07072697 -0.09565653
00000000: 4dd9 903d 92e7 c3bd

exp_avg f4 [32, 28]
2.1755119e-05 6.26124e-05 0.00011390796 -4.0890376e-05 -4.57952e-05 -6.03718e-05 0.00014320036 4.3157095e-05
0.00013436838 3.8240225e-05 -2.9275292e-05 -4.1172647e-05 3.144216e-05 1.8949315e-06 -9.073231e-05 -9.002952e-06
8.643828e-05 -0.00024783023 -0.00013062837 9.454724e-05 -0.00010502843 5.640209e-05 2.1106644e-05 8.695063e-06
0.000117719756 -7.1055205e-05 5.5262553e-05 -5.6820372e-05 -0.00010878327 -0.00022380712 -0.00018613682 -0.00035781413
0.00039928508 6.2602194e-05 0.00049590704 0.00018927247 0.00020914782 9.8668825e-05 -0.0005424791 8.377159e-05
-1.7453229e-05 -0.00015766246 2.6594329e-05 0.00023678024 -0.0003833854 -0.00060113694 0.00018805393 -0.00048814688
0.00017611061 0.00012242942 -0.00049696374 -0.0002927671 -0.0002894248 0.0012683978 -0.0005645131 -0.0005801404
2.8645116e-05 7.393451e-05 0.00034841234 2.044329e-05 9.397343e-06 1.5732468e-05 2.9154015e-05 -3.338297e-05
-0.00010539862 4.1355644e-05 -2.341207e-05 -4.2187272e-05 1.0932212e-05 4.106373e-05 -0.00016822628 -5.8664453e-05
2.2322425e-05 0.0003961452 -4.599772e-06 0.0001650235 -0.00012625229 -2.0424706e-05 -0.00014156153 -0.00040174217
0.0003413513 -0.00044875147 0.000120371595 0.0007037182 0.00092395133 -0.0006456435 -0.0007146997 -0.00070437905
0.00067846756 0.00011831252 0.0002907738 0.00012521027 0.00024327384 0.00022036972 -0.00016131447 -0.00025391826
-0.00013350617 -0.00031420827 0.00031963707 0.00039569946 -0.00093957933 -0.0011090493 0.0006347812 -0.00069302076
0.0002404951 0.0004314644 -0.0007304105 0.0002779898 -0.00043064178 0.0006205209 -0.001145692 -0.0005056692
0.00020245106 -2.1159423e-05 0.0002821174 6.467629e-05 -0.00010106526 0.00022264078 0.00043314407 0.0002372957
-0.00012717182 -6.414113e-05 0.0004939745 -2.0575517e-05 -0.00036445915 6.621034e-05 -0.00013819098 2.5453821e-06
0.00016890021 -6.9023175e-05 -0.00020870418 0.00013122192 -4.40518e-05 2.4188108e-05 0.00035903085 -0.00027504706
0.00013512942 -3.751068e-05 -0.00013229293 0.00018197893 -0.00036739407 0.00016172772 -0.00011288005 7.713541e-05
-4.8512707e-06 2.0484526e-05 0.00024828588 4.6562713e-05 9.475937e-05 2.537427e-05 0.00022083339 -3.5196725e-05
7.9327016e-05 -1.6060138e-05 0.00012982056 1.4325616e-05 5.7533645e-05 0.00026859442 -0.00020931405 1.1817719e-05
-3.5893758e-05 9.302973e-05 -9.1500784e-05 0.0002642353 -0.0001793587 -9.179815e-05 -0.00011381583 0.0005682266
-0.0005452505 0.00017356205 0.00013887949 -0.00025610274 2.0113437e-05 0.00016483926 -0.00013192641 -2.3620572e-05
-0.00015256878 -5.0804276e-05 -0.00075830467 -6.9486734e-05 -9.166822e-05 3.9005977e-06 3.8581235e-05 -2.695114e-05
0.00030241898 -0.00053113233 -0.00020370985 -1.867381e-05 -6.419734e-05 -0.00012694026 0.00020919449 0.00021243353
-0.00024281957 0.0010751606 -0.00045551913 -0.00060491025 0.0006452486 -0.00024765 -0.00040549712 -0.00030882616
-3.882819e-05 -0.00036047943 -0.00031492344 -0.0003938602 -9.1970855e-05 0.00015170909 0.0001901348 0.00070942135
8.044965e-05 -2.049024e-05 -0.00018716964 -4.1740237e-05 -0.00015739426 0.00036539778 0.00028680515 -9.421311e-05
5.328259e-06 -9.373614e-05 0.00043344212 0.0001644065 0.00016384182 -0.00018636673 -4.4627563e-05 6.0678885e-05
-0.00075922906 -4.3763117e-05 -0.00017278275 0.0001872026 -6.2239866e-05 -0.00022909504 0.00086837605 -6.612603e-05
-0.00027440753 -5.2906053e-05 -0.0012838772 8.671402e-05 0.00022101612 3.9799095e-05 -0.00026867137 -7.9714875e-05
-0.00029093467 -0.0006600938 0.0004403108 4.7989437e-05 6.28824e-05 -7.310451e-05 -0.0006495235 -0.0007251928
8.8733985e-05 3.059603e-05 -7.1850794e-05 0.00012886614 -0.0003895525 -0.00023911458 -2.4255414e-05 -0.00017336204
00000000: c37e b637 c74e 8338 dfe1 ee38 b581 2bb8
00000010: 3914 40b8 ba37 7db8 0e28 1639 9403 3538
00000020: 3de5 0c39 2164 2038 3694 f5b7 cbb0 2cb8
00000030: c3e0 0338 5a55 fe35 8a47 beb8 620b 17b7
00000040: 3346 b538 36ef 81b9 49f9 08b9 aa47 c638
00000050: b642 dcb8 4891 6c38 2c0e b137 03e1 1137
00000060: 50e0 f638 7903 95b8 b7c9 6738 6952 6eb8
00000070: 9322 e4b8 c4ad 6ab9 b92d 43b9 0099 bbb9
00000080: 2357 d139 4c49 8338 c2ff 013a 7177 4639
00000090: b14e 5b39 6cec ce38 2835 0eba 88ae af38
000000a0: 8668 92b7 3252 25b9 e316 df37 3648 7839
000000b0: 1e01 c9b9 9e95 1dba 5830 4539 f7ed ffb9
000000c0: 55aa 3839 6660 0039 ac46 02ba 897e 99b9
000000d0: f0bd 97b9 5e40 a63a d5fb 13ba 9014 18ba
000000e0: eb4a f037 4a0d 9b38 1dab b639 a27d ab37
000000f0: 48a9 1d37 38f9 8337 c58f f437 b104 0cb8
00000100: 7409 ddb8 4975 2d38 0a65 c4b7 3df2 30b8
00000110: 7e69 3737 d83b 2c38 e665 30b9 7a0e 76b8
00000120: 0b41 bb37 b5b1 cf39 be57 9ab6 290a 2d39
00000130: 9762 04b9 b955 abb7 2270 14b9 eca0 d2b9
00000140: 65f7 b239 6746 ebb9 0270 fc38 bb79 383a
00000150: 5335 723a 6740 29ba af5a 3bba 14a6 38ba
00000160: 30db 313a 8d1e f838 0073 9839 e04a 0339
00000170: 5317 7f39 0c13 6739 8626 29b9 5520 85b9
00000180: cafd 0bb9 52bc a4b9 f694 a739 e275 cf39
00000190: 1a4e 76ba 855d 91ba 7267 263a d6ab 35ba
000001a0: 692d 7c39 2c36 e239 0579 3fba 29bf 9139
000001b0: c3c7 e1b9 74aa 223a 0b2b 96ba e38e 04ba
000001c0: 0b49 5439 847f b1b7 28e9 9339 d2a2 8738
000001d0: 00f3 d3b8 ae74 6939 9d17 e339 94d2 7839
000001e0: 6d59 05b9 8283 86b8 117e 013a 9699 acb7
000001f0: e114 bfb9 68da 8a38 5ce7 10b9 55d1 2a36
00000200: ce1a 3139 89c0 90b8 9ad7 5ab9 9e98 0939
00000210: 43c4 38b8 91e7 ca37 4e3c bc39 3134 90b9
00000220: 87b1 0d39 c954 1db8 1db8 0ab9 99d1 3e39
00000230: cc9e c0b9 7495 2939 04ba ecb8 c2c3 a138
00000240: 19c8 a2b6 2fd6 ab37 5e2c 8239 554c 4338
00000250: 8db9 c638 d4da d437 838f 6739 32a0 13b8
00000260: 5e5c a638 e2b8 86b7 7120 0839 0d58 7037
00000270: 4850 7138 22d2 8c39 507b 5bb9 b744 4637
00000280: a18c 16b8 f518 c338 1ce4 bfb8 1089 8a39
00000290: 3c12 3cb9 c283 c0b8 69b0 eeb8 0bf5 143a
000002a0: 24ef 0eba 35fe 3539 2ea0 1139 8745 86b9
000002b0: 47b9 a837 b4d8 2c39 ba55 0ab9 cb24 c6b7
000002c0: dffa 1fb9 ad16 55b8 f7c8 46ba 68b9 91b8
000002d0: 003e c0b8 e1e1 8236 49d2 2138 2215 e2b7
000002e0: fd8d 9e39 b03b 0bba f29a 55b9 b4a5 9cb7
000002f0: afa1 86b8 441b 05b9 385b 5b39 b1c0 5e39
00000300: 629d 7eb9 67ec 8c3a bed2 eeb9 d792 1eba
00000310: e725 293a 05d7 81b9 e798 d4b9 f2e9 a1b9
00000320: 74db 22b8 bbfe bcb9 4f1c a5b9 057f ceb9
00000330: 7ae0 c0b8 1914 1f39 ec5e 4739 76f8 393a
00000340: 14b7 a838 75e2 abb7 f842 44b9 3d12 2fb8
00000350: 330a 25b9 dc92 bf39 565e 9639 4794 c5b8
00000360: 65c9 b236 3594 c4b8 9e3f e339 8964 2c39
00000370: f4cc 2b39 706b 43b9 7b2e 3bb8 7581 7e38
00000380: 0007 47ba 4a8e 37b8 042d 35b9 d14b 4439
00000390: c686 82b8 3b39 70b9 bba3 633a 24ad 8ab8
000003a0: 5bde 8fb9 71e7 5db8 c547 a8ba 3cda b538
000003b0: 90c0 6739 f4ed 2638 76dc 8cb9 992c a7b8
000003c0: 9788 98b9 250a 2dba 84d9 e639 4448 4938
000003d0: bbdf 8338 af4f 99b8 c944 2aba dd1a 3eba
000003e0: b216 ba38 3d54 0038 9aae 96b8 3e20 0739
000003f0: da3c ccb9 d5ba 7ab9 1b78 cbb7 85c8 35b9

exp_avg_sq f4 [32, 28]
3.012554e-07 2.2104699e-08 2.059847e-07 1.36720475e-08 4.1973447e-08 6.425166e-08 6.372937e-08 5.800339e-07
9.95509e-09 5.7358864e-07 5.1278047e-08 1.7376232e-08 9.801466e-08 2.0008924e-08 1.6962166e-07 1.344216e-07
2.0410575e-06 2.5350937e-06 1.16818434e-07 8.2769066e-07 7.017774e-09 1.4463605e-07 1.6155174e-06 5.4045523e-07
3.7327214e-07 2.2001682e-07 5.2392176e-07 2.0340545e-07 3.1946857e-07 1.5132193e-07 3.4894404e-07 5.613475e-08
1.695828e-07 7.5571855e-08 5.163981e-07 1.6097161e-07 1.3770233e-07 7.0571545e-08 7.2473165e-07 1.2973105e-07
1.3755154e-07 1.4611314e-07 1.2150237e-07 1.8313132e-07 1.2183625e-06 1.7576409e-06 3.95606e-07 9.4774083e-07
3.125497e-08 3.1499988e-07 1.6020697e-06 1.6830859e-06 2.1948586e-07 1.1204639e-06 5.7053956e-07 5.4152946e-07
4.6856795e-07 1.06314566e-07 7.342186e-07 2.60874e-07 2.0446518e-07 1.7121756e-07 8.854089e-07 1.7251077e-07
1.6846981e-07 1.3229733e-07 5.4877466e-07 1.7476475e-07 1.1191143e-07 1.4882977e-07 1.7666072e-07 2.0109077e-07
5.7727874e-07 1.8661025e-06 5.094686e-07 2.0147934e-07 5.5970524e-08 2.0852802e-07 1.0756114e-06 1.0572792e-06
1.3247535e-07 3.4408588e-06 2.2925013e-07 1.860106e-06 6.5623857e-07 1.859305e-07 9.275646e-07 1.6144502e-07
2.2456571e-07 1.197544e-07 4.7042425e-07 1.735199e-07 1.0547016e-07 7.932599e-08 6.60301e-07 1.0406489e-07
7.166377e-08 1.5721137e-07 6.44095e-08 1.770313e-07 4.4512856e-07 1.1229122e-06 4.1846135e-07 1.7665246e-07
2.9645625e-08 1.2458617e-07 5.088761e-07 7.769297e-07 9.020566e-08 1.5161701e-06 5.0250736e-07 5.8116103e-07
4.9814844e-07 1.06402695e-07 5.282248e-07 8.106344e-08 3.1245466e-07 7.4937816e-08 1.1113726e-06 2.6865206e-07
1.0538553e-07 1.9122346e-07 1.1180883e-06 1.4315643e-07 8.476129e-08 1.4456049e-07 2.2877725e-07 9.695424e-08
1.5565448e-06 2.4816597e-06 4.7424786e-07 7.2628166e-07 2.280538e-08 3.152262e-07 2.5368809e-06 2.0771276e-06
3.110373e-07 1.04967e-06 1.6267128e-06 6.1354064e-07 2.7938304e-07 8.530959e-08 3.2736878e-07 3.405914e-08
1.0037504e-07 4.5345356e-08 2.2706143e-07 8.6670674e-08 2.7866163e-08 3.736487e-08 5.609782e-07 4.7181757e-08
2.5151248e-08 1.7185073e-08 3.3084625e-08 1.7614763e-08 2.2650947e-07 4.092889e-07 1.4501314e-06 2.3104062e-07
9.672935e-09 9.0122334e-08 2.1402937e-07 3.878928e-07 6.272014e-08 1.61563e-06 2.1892755e-07 8.100939e-07
7.2401036e-07 1.14660594e-07 6.0525315e-07 5.919427e-08 8.837861e-08 9.548964e-08 3.1468662e-07 1.44415e-07
1.2923354e-07 1.316779e-07 4.9033184e-07 7.5489176e-08 4.6200135e-08 1.03390214e-07 1.5887673e-07 1.0779152e-07
3.494815e-07 6.342164e-07 1.715755e-06 3.4810233e-07 1.6767604e-08 1.5149753e-07 6.130773e-07 5.9646504e-07
1.4268441e-07 1.4547157e-06 5.5538715e-07 5.4563424e-07 6.726241e-07 8.8084796e-08 6.232469e-07 1.2497202e-07
1.2777059e-07 1.05891495e-07 2.392424e-07 1.5415667e-07 8.1906485e-08 2.488776e-07 3.4822057e-07 1.6320675e-07
1.0060665e-07 7.5933926e-08 4.57559e-08 7.3887875e-08 4.9058616e-07 1.4891405e-06 1.7230816e-07 3.7454663e-07
1.868955e-08 1.2293167e-07 3.2465024e-07 4.892474e-07 1.5099079e-07 1.1589441e-06 1.9614782e-07 9.802675e-07
5.026514e-07 7.090943e-08 8.637056e-07 1.1648406e-07 1.86832e-07 1.2587103e-07 2.1072797e-06 1.6366052e-07
7.4200756e-08 3.9800221e-07 1.0205621e-06 9.028039e-08 1.2784466e-07 6.471017e-08 1.3882753e-07 6.7420885e-08
3.6761228e-06 4.1344683e-06 3.2673455e-07 3.0056754e-06 7.7302076e-08 6.7505925e-07 2.8858638e-06 1.4133586e-06
6.126047e-07 3.9199317e-06 2.6821106e-06 2.0281143e-06 1.1580082e-07 4.4904027e-08 1.6004725e-07 3.366389e-08
00000000: 3abc a134 bfe0 bd32 a52c 5d34 4de2 6a32
00000010: 4b46 3433 b9fa 8933 97db 8833 a0b3 1b35
00000020: f306 2b32 b6f8 1935 cf3c 5c33 bd42 9532
00000030: 217c d233 17e0 ab32 3f21 3634 8755 1034
00000040: 1af9 0836 9420 2a36 9ddd fa33 782e 5e35
00000050: fe20 f131 414d 1b34 c1d4 d835 cd13 1135
00000060: 2266 c834 c33d 6c34 a1a3 0c35 aa67 5a34
00000070: 6d83 ab34 0e7b 2234 8156 bb34 cf18 7133
00000080: 9116 3634 114a a233 9b9e 0a35 8ad7 2c34
00000090: 54db 1334 1e8d 9733 2e8b 4235 334c 0b34
000000a0: e1b1 1334 46e3 1c34 5176 0234 c1a2 4434
000000b0: 9e86 a335 15e8 eb35 ad63 d434 4168 7e35
000000c0: 343d 0633 411d a934 b206 d735 64e6 e135
000000d0: d0ab 6b34 d962 9635 2e27 1935 9f5d 1135
000000e0: 7d8f fb34 0d4f e433 1e17 4535 400e 8c34
000000f0: f68a 5b34 edd7 3734 d6ac 6d35 663b 3934
00000100: a1e4 3434 9d0d 0e34 824f 1335 f8a6 3b34
00000110: f653 f033 04ce 1f34 21b0 3d34 69eb 5734
00000120: 4bf6 1a35 cb76 fa35 6ac2 0835 3856 5834
00000130: 3e64 7033 bfe7 5f34 ba5d 9035 d6e7 8d35
00000140: 8c3e 0e34 81e9 6636 cc27 7634 c1a8 f935
00000150: 5f28 3035 30a4 4734 c1fd 7835 ab59 2d34
00000160: 2720 7134 d795 0034 9e8e fc34 c950 3a34
00000170: d57e e233 ed59 aa33 8a3f 3135 477a df33
00000180: 93e5 9933 efcd 2834 7f51 8a33 fe15 3e34
00000190: 01fa ee34 f8b6 9635 e4a8 e034 dcad 3d34
000001a0: 6ba7 fe32 fcc5 0534 b399 0835 348e 5035
000001b0: 16b7 c133 357f cb35 0be4 0635 1501 1c35
000001c0: 80b8 0535 807f e433 55cb 0d35 1915 ae33
000001d0: 71bf a734 80ed a033 792a 9535 423b 9034
000001e0: 4f50 e233 1b53 4d34 3911 9635 8ab6 1934
000001f0: 0306 b633 7c38 1b34 d0a5 7534 2835 d033
00000200: 79ea d035 978a 2636 219c fe34 b2f5 4235
00000210: 90e5 c332 5c3c a934 483f 2a36 c864 0b36
00000220: a4fc a634 63e2 8c35 6d55 da35 31b2 2435
00000230: 1dfe 9534 7133 b733 39c1 af34 6c48 1233
00000240: c38d d733 bfc1 4233 2cce 7334 b51f ba33
00000250: 575e ef32 1c7b 2033 2196 1635 e4a4 4a33
00000260: 2e0c d832 609e 9332 ee18 0e33 464f 9732
00000270: 7336 7334 3dbc db34 23a2 c235 f613 7834
00000280: 052e 2632 4789 c133 f2cf 6534 953f d034
00000290: c3b0 8633 a0d8 d835 5912 6b34 3b75 5935
000002a0: 9d59 4235 543b f633 ae78 2235 ca3c 7e33
000002b0: a8ca bd33 fc0f cd33 33f2 a834 7e10 1b34
000002c0: 72c3 0a34 5863 0d34 599f 0335 9d1c a233
000002d0: 966d 4633 5f07 de33 b497 2a34 047b e733
000002e0: 5fa0 bb34 053f 2a35 e548 e635 d2e2 ba34
000002f0: 5a08 9032 53ab 2234 5a92 2435 c41c 2035
00000300: cb34 1934 a73f c335 ea15 1535 b377 1235
00000310: 608e 3435 2129 bd33 334d 2735 0c30 0634
00000320: 5031 0934 7766 e333 3a71 8034 4386 2534
00000330: 91e4 af33 7a9d 8534 12f3 ba34 ee3d 2f34
00000340: 170d d833 1e11 a333 2585 4433 4aac 9e33
00000350: d3b0 0335 7ade c735 b503 3934 4c15 c934
00000360: c18a a032 33ff 0334 974b ae34 d354 0335
00000370: 0820 2234 048d 9b35 b49c 5234 bc91 8335
00000380: f1ed 0635 df46 9833 66d9 6735 ca25 fa33
00000390: fd9b 4834 2a27 0734 ca6a 0d36 a9ba 2f34
000003a0: 4c58 9f33 02ad d534 3ffa 8835 2be0 c133
000003b0: ac45 0934 cbf6 8a33 9f10 1534 06c9 9033
000003c0: 4fb3 7636 d0ba 8a36 0e6a af34 1cb5 4936
000003d0: 4401 a633 b835 3535 c3aa 4136 a2b2 bd35
000003e0: e071 2435 f587 8336 4ffe 3336 bd1a 0836
000003f0: 2dae f833 80dc 4033 74d9 2b34 d795 1033

exp_avg f4 [32]
-2.2625572e-05 0.0005426678 -0.00014753305 0.0010559622 -0.000114707 4.0942337e-05 -0.00011130187 -3.1105646e-05
-0.00011345343 0.00035536828 0.0007093421 -1.3761498e-05 0.00010252693 0.00062595896 -5.635815e-05 -0.0005169425
8.713789e-05 -7.5308984e-05 0.001092348 0.00085307955 0.00011739428 -1.0533116e-05 7.812158e-05 -0.00032303602
0.0013956256 0.0002967271 0.0002453418 0.00022000985 -0.0002620194 0.00035667335 0.0004502291 -8.180883e-06
00000000: 0ccc bdb7 d241 0e3a 1ab3 1ab9 3668 8a3a
00000010: da8e f0b8 80b9 2b38 bd6a e9b8 6f77 02b8
00000020: d9ed edb8 b950 ba39 24f3 393a 2fe1 66b7
00000030: ba03 d738 6517 243a 1a62 6cb8 6d83 07ba
00000040: ccbd b638 34ef 9db8 1e2d 8f3a 33a1 5f3a
00000050: 9331 f638 64b7 30b7 34d5 a338 295d a9b9
00000060: 6ded b63a 0a92 9b39 38a1 8039 72b2 6639
00000070: a65f 89b9 e3ff ba39 ba0c ec39 a040 09b7

exp_avg_sq f4 [32]
2.5296963e-06 1.5891985e-06 8.1257207e-07 6.3912694e-07 2.3005382e-06 4.1664043e-07 7.815251e-07 9.564278e-07
5.022927e-06 5.8440895e-07 1.928794e-06 1.9107724e-06 5.663741e-06 5.1897505e-06 1.8866403e-07 1.535994e-06
3.4086945e-06 3.268824e-06 1.3331397e-06 4.556936e-06 1.9297206e-06 5.473995e-07 1.8651232e-06 2.1413796e-07
9.623858e-07 3.133028e-07 1.2330637e-06 4.270813e-06 6.2850836e-07 1.0791206e-05 3.1506866e-06 1.4449104e-06
00000000: dac3 2936 724c d535 871f 5a35 7890 2b35
00000010: f262 1a36 a0ae df34 ffc9 5135 9c5e 8035
00000020: 9d8a a836 47e0 1c35 6e70 0136 d23a 0036
00000030: 2a0b be36 9e23 ae36 9393 4a34 5a28 ce35
00000040: edc0 6436 f85d 5b36 55ee b235 c8e7 9836
00000050: 5980 0136 02f1 1235 2555 fa35 cbed 6534
00000060: 532b 8135 0234 a834 bf7f a535 014e 8f36
00000070: c4b6 2835 e00b 3537 6270 5336 beee c135

exp_avg f4 [16, 32]
-2.5225867e-05 -0.00021028085 -0.00024807817 -0.00048561126 -0.00029367395 4.1970607e-06 0.00041758968 -0.00041324497
-0.00011383552 -0.00019661259 -2.3490931e-05 -7.866963e-05 4.5982324e-05 -0.00011408431 3.1996937e-05 -0.0006284251
8.502095e-05 2.6706874e-05 -0.00012468267 -0.0001880881 2.5532436e-05 -1.2339447e-05 3.010513e-05 -0.00013508927
1.6353013e-05 6.298205e-05 7.1859125e-05 2.0631227e-05 -0.0014263728 -0.0001535515 3.7441096e-06 -0.0008645248
-0.00010470174 -0.00061222364 -0.00016117569 0.00012726232 -0.00070047786 2.083153e-06 -2.9084504e-05 -0.00014218513
-6.6009175e-05 -0.00029694784 -0.00041240975 -0.00038357545 -6.082943e-05 0.00012088507 -9.866003e-06 -0.00047771662
0.00018222659 -2.6965978e-05 -0.00026436444 -0.00015028608 -0.00029108115 4.6583544e-05 -0.00017342383 -3.082122e-05
-0.00031806363 -4.30771e-05 -0.00034536264 -3.4778423e-05 -0.0005430894 -0.0007940451 -2.7586842e-05 -0.0003508984
2.3595621e-05 -3.2224023e-05 -0.00048681005 -0.0001198869 -0.00021427362 -0.00024718186 0.00017332066 -6.1845065e-05
-0.0004244536 -0.00016962228 -0.000252528 -0.00014167688 1.5277192e-05 -0.000117159754 1.9895286e-05 -9.3492374e-05
-1.6924234e-05 -0.00018867338 -0.0001652248 4.1176405e-05 -4.101803e-06 -0.000480279 -2.1575996e-05 -0.00090075337
-0.00066191837 0.00010655908 -6.287168e-05 -0.00016031612 -0.00032981116 5.5453864e-05 -7.9061705e-05 -6.7968555e-05
3.1955367e-06 -2.2091004e-05 -9.04655e-06 -1.20637915e-05 -2.0355781e-05 4.7090006e-07 -7.249539e-06 -5.1931514e-05
-1.0914725e-05 3.712719e-06 7.6473525e-06 4.819925e-06 2.1326366e-06 -5.3067233e-06 1.424907e-06 -2.6610964e-05
1.6132351e-05 1.3210098e-05 -1.3113278e-05 -2.1528124e-06 1.334127e-05 -4.3947266e-06 9.632377e-07 -2.031997e-05
6.1832307e-06 1.415996e-05 3.7008593e-07 2.9493517e-06 -2.0050116e-05 -2.4979134e-05 8.547522e-06 -2.0507514e-05
2.546107e-05 -3.339902e-05 5.29874e-06 -7.114473e-06 -9.805507e-07 -3.8447437e-05 -4.5413767e-06 -2.6039286e-05
-3.1767e-05 2.5573001e-06 7.3833266e-06 3.278823e-05 2.534997e-06 -1.0668429e-05 -1.6630672e-07 -1.4613641e-05
3.848489e-05 9.086623e-05 -1.20960985e-05 8.063504e-07 1.9854406e-05 -3.8345897e-05 2.130619e-06 -1.2720665e-05
-2.299393e-05 2.4117438e-05 -1.0059091e-06 2.3791532e-05 -5.279551e-05 2.6972624e-05 4.5517932e-05 -1.1911058e-05
5.2969613e-06 -4.4975215e-05 -1.9077415e-05 -5.011061e-06 -4.283177e-05 -2.3227376e-06 -1.6800788e-05 2.6100115e-06
-2.0759806e-05 6.376865e-06 3.2831955e-05 1.4832562e-05 -2.110263e-07 9.38879e-06 -8.833311e-07 -5.226271e-05
3.1253574e-05 2.1581222e-05 -1.5012622e-05 2.8920085e-06 2.3076023e-05 -1.5162449e-05 6.866828e-07 -5.0360588e-05
2.094503e-05 2.2857863e-05 2.0854799e-05 2.7171112e-05 -3.0472174e-05 -7.755395e-06 1.2672441e-05 -3.881252e-05
-0.00021311274 0.0002760821 -9.598248e-05 0.0009960678 -0.00015584975 -5.0722374e-05 0.00059533573 0.00097192224
0.0005202076 -0.00014836523 0.0011275529 0.00096508337 0.00017030696 0.0006978295 -1.8099787e-06 0.00049355475
-0.000376442 -0.0001388848 0.002162044 0.0014862396 -0.0005614799 -3.437053e-05 5.7476245e-05 0.0005739065
0.0007143634 -0.0008991248 -0.00026071383 0.0005689468 -0.0003901295 0.0011048431 0.00011614377 0.0009039591
-1.8919058e-05 -0.000967518 -0.0005045393 -0.00015468412 -0.0013508608 0.0002623695 0.00023835847 1.3423868e-05
1.7172135e-05 0.00011377117 -1.2939588e-05 5.3843516e-05 4.5909044e-05 0.0003581778 4.5605615e-05 -0.0008684737
1.954624e-05 0.0013031779 4.8867856e-05 -5.3328153e-05 0.00013639542 -0.00011822401 -6.3777948e-06 0.0005248173
3.7217775e-05 9.7858196e-05 0.00012456914 2.6352895e-05 -0.0015733867 -0.00033846375 4.8884922e-05 0.00011363448
00000000: 239c d3b7 d67e 5cb9 7d10 82b9 a499 feb9
00000010: 40f8 99b9 7ad4 8c36 f0ef da39 cda8 d8b9
00000020: fbba eeb8 ca29 4eb9 640e c5b7 70fb a4b8
00000030: 25dd 4038 8c40 efb8 7334 0638 e5bc 24ba
00000040: 464d b238 9308 e037 40bd 02b9 8439 45b9
00000050: 7d2e d637 8505 4fb7 468a fc37 c0a6 0db9
00000060: d42d 8937 3b15 8438 13b3 9638 3911 ad37
00000070: 21f5 baba ab02 21b9 5043 7b36 47a1 62ba
00000080: 5293 dbb8 a27d 20ba 4501 29b9 b871 0539
00000090: 46a0 37ba 4ccc 0b36 7ffa f3b7 8817 15b9
000000a0: 686e 8ab8 aaaf 9bb9 b338 d8b9 a01a c9b9
000000b0: 1a23 7fb8 ae83 fd38 2986 25b7 0a76 fab9
000000c0: 1414 3f39 ff34 e2b7 659a 8ab9 1d96 1db9
000000d0: 409c 98b9 b362 4338 1bd9 35b9 0846 01b8
000000e0: c7c1 a6b9 afad 34b8 ca11 b5b9 0cdf 11b8
000000f0: 1d5e 0eba 7727 50ba 4b6a e7b7 c9f8 b7b9
00000100: 36ef c537 4828 07b8 8a3a ffb9 ca6b fbb8
00000110: a3ae 60b9 3098 81b9 69bd 3539 d1b2 81b8
00000120: 3389 deb9 a2dc 31b9 bc65 84b9 198f 14b9
00000130: 8527 8037 aab3 f5b8 cde4 a637 5611 c4b8
00000140: 84f8 8db7 a0d6 45b9 3240 2db9 d4b4 2c38
00000150: 38a2 89b6 f5cd fbb9 19fe b4b7 8920 6cba
00000160: 9784 2dba 7878 df38 fad9 83b8 881a 28b9
00000170: 81ea acb9 2297 6838 eecd a5b8 578a 8eb8
00000180: e772 5636 1250 b9b7 a3c6 17b7 9765 4ab7
00000190: b5c1 aab7 03d0 fc34 1141 f3b6 0ad1 59b8
000001a0: 631e 37b7 0728 7936 214d 0037 d7ba a136
000001b0: 6b1e 0f36 6810 b2b6 6f3f bf35 9c3a dfb7
000001c0: f653 8737 f0a0 5d37 1a01 5cb7 0979 10b6
000001d0: 51d4 5f37 6a76 93b6 9848 8135 ce74 aab7
000001e0: 8c79 cf36 9190 6d37 39b0 c634 7aed 4536
000001f0: 4c31 a8b7 488a d1b7 5467 0f37 8d07 acb7
00000200: 3b95 d537 ed15 0cb8 d4cb b136 dcb8 eeb6
00000210: 779b 83b5 9f42 21b8 2162 98b6 f16e dab7
00000220: 8e3d 05b8 159e 2b36 4bbe f736 1886 0938
00000230: eb1e 2a36 8efc 32b7 0b92 32b4 1c2d 75b7
00000240: d66a 2138 708f be38 59f0 4ab7 fa73 5835
00000250: 038d a637 98d5 20b8 c1fb 0e36 d76a 55b7
00000260: 17e3 c0b7 ce4f ca37 c602 87b5 ed93 c737
00000270: bf70 5db8 4543 e237 82ea 3e38 9bd5 47b7
00000280: 8dbc b136 c5a3 3cb8 7008 a0b7 b024 a8b6
00000290: 43a6 33b8 54e0 1bb6 6bef 8cb7 a827 2f36
000002a0: 5825 aeb7 daf8 d536 0bb5 0938 5ed9 7837
000002b0: 7896 62b4 8c84 1d37 0d1e 6db5 a834 5bb8
000002c0: 4516 0338 5209 b537 b8de 7bb7 5414 4236
000002d0: 6293 c137 3962 7eb7 7c54 3835 453a 53b8
000002e0: 1cb3 af37 e3be bf37 57f1 ae37 85ed e337
000002f0: 7f9e ffb7 2b1d 02b7 b89b 5437 a0ca 22b8
00000300: 0477 5fb9 1dbf 9039 344a c9b8 7d8e 823a
00000310: 996b 23b9 bcbe 54b8 4e10 1c3a 99c8 7e3a
00000320: 8b5e 083a 7d92 1bb9 66ca 933a a6fd 7c3a
00000330: 6d94 3239 8cee 363a 65ee f2b5 e661 013a
00000340: 315d c5b9 9ba1 11b9 14b1 0d3b edcd c23a
00000350: 4730 13ba 1329 10b8 a612 7138 3772 163a
00000360: 1e44 3b3a 3eb3 6bba 6bb0 88b9 6025 153a
00000370: 4c8a ccb9 62d0 903a 3692 f338 abf7 6c3a
00000380: 5eb4 9eb7 09a1 7dba 0f43 04ba b432 22b9
00000390: 5e0f b1ba a38e 8939 ddef 7939 1337 6137
000003a0: e10c 9037 6f98 ee38 1b17 59b7 09d6 6138
000003b0: 768e 4038 cfc9 bb39 a848 3f38 49aa 63ba
000003c0: 3bf7 a337 65cf aa3a 76f7 4c38 abac 5fb8
000003d0: 5e05 0f39 08ef f7b8 d700 d6b6 e593 093a
000003e0: 481a 1c38 3839 cd38 c69e 0239 6910 dd37
000003f0: 193a ceba d673 b1b9 c909 4d38 0c4f ee38

exp_avg_sq f4 [16, 32]
2.3207313e-08 2.0800168e-07 1.2071816e-06 3.636533e-07 3.4598912e-07 1.3375006e-07 3.7598315e-07 1.5818135e-07
2.6238496e-07 4.010295e-08 1.7479056e-07 3.012284e-08 2.7961674e-08 3.343755e-07 7.2951465e-08 1.3652726e-06
1.7666576e-07 2.3220285e-07 8.090577e-08 2.2331303e-08 1.6948153e-08 2.6701494e-07 1.7665515e-08 1.2209858e-07
4.1335344e-09 1.7106626e-07 6.162478e-07 3.1847268e-08 1.4317111e-06 4.2443713e-08 3.4797736e-08 5.1927134e-07
2.807486e-07 5.6405343e-06 3.047735e-06 1.278031e-06 4.9372384e-06 1.0007639e-06 2.2327572e-06 9.391578e-07
1.4881281e-06 1.0617398e-06 2.472656e-06 7.707585e-07 1.763995e-07 1.0497978e-06 7.112512e-07 1.2380969e-05
6.9932054e-07 1.3857871e-06 2.2307486e-06 9.106108e-07 3.4266714e-07 2.2083486e-06 2.487575e-07 7.6480234e-07
1.7568428e-07 3.3599443e-07 9.647788e-07 8.5070945e-07 1.14035265e-05 1.0036814e-06 4.3364207e-07 5.877451e-06
3.6157417e-08 3.51004e-07 3.8393915e-07 1.2159309e-07 4.242925e-07 4.1767655e-07 2.979382e-07 4.0729944e-08
1.0119858e-06 1.8776182e-08 2.0613064e-07 8.105814e-08 1.5792128e-06 7.262649e-08 2.7165532e-09 1.1108661e-07
4.5876763e-07 4.2035742e-07 1.0930882e-07 8.486463e-08 4.0981494e-08 7.1059384e-07 9.1013796e-08 6.3162963e-07
2.6850512e-07 9.247607e-07 2.7532481e-08 3.1741743e-07 9.25196e-07 3.470795e-08 3.0732193e-07 2.477612e-08
6.7713233e-07 2.1092399e-06 6.851849e-07 3.4302937e-07 7.503135e-07 4.0146066e-08 4.7153494e-06 7.092711e-07
2.8468337e-06 5.726809e-08 8.3207556e-07 1.5749423e-07 2.9409655e-06 2.2651486e-06 8.39795e-08 1.842476e-06
5.57567e-07 5.3798385e-07 1.595911e-07 9.116896e-07 6.0031726e-07 3.415074e-07 3.6120582e-07 1.2144314e-06
1.7296273e-07 6.395379e-07 9.16953e-07 8.578926e-07 2.408466e-06 1.554346e-06 3.8086569e-07 1.8586164e-07
2.4461515e-06 3.7909776e-06 2.7338501e-06 3.877857e-06 1.166445e-06 1.5019337e-07 7.569958e-07 2.0304444e-06
5.6100494e-06 5.5984805e-07 6.366452e-06 3.6434537e-07 6.013851e-07 4.667391e-06 1.7601497e-08 3.072024e-06
9.269869e-07 6.8402517e-07 5.7442315e-07 2.8094807e-06 8.4496617e-07 3.9127553e-06 1.6962489e-06 4.2073775e-06
4.8012924e-07 7.7440717e-07 4.6019872e-07 1.9570816e-06 2.098951e-06 9.119347e-07 9.0851177e-07 4.0662337e-07
8.07479e-09 1.5461863e-07 2.169726e-08 1.4755425e-07 3.347945e-08 2.8593792e-09 1.8829077e-07 1.1923243e-08
6.0853196e-08 1.8876394e-08 1.1629691e-07 2.0301547e-08 2.3545542e-07 5.7912843e-08 4.661035e-09 3.4088018e-08
4.3456215e-08 1.1891345e-08 5.019215e-09 2.4041505e-08 1.01991935e-08 2.008029e-08 4.2049386e-08 5.8857065e-08
8.558325e-09 4.4711562e-08 2.1056408e-08 4.4328363e-08 1.3653536e-07 9.349784e-08 2.3788553e-09 2.4767969e-08
1.4432146e-07 6.2248814e-06 5.36524e-07 1.9638546e-06 1.968702e-06 7.8851696e-07 7.372639e-07 3.1522377e-06
3.2611238e-06 2.4247515e-07 2.9260175e-06 3.5041903e-06 4.2028276e-07 1.4425246e-06 2.3210822e-07 2.725509e-06
1.7151569e-06 4.809355e-06 3.5004064e-06 4.5160286e-06 9.2629455e-07 9.800184e-07 1.9974036e-07 2.7808717e-06
1.9822157e-06 1.1729074e-06 1.2353574e-06 3.0254648e-06 4.7610592e-06 1.990467e-06 1.3546214e-06 2.0941745e-06
4.021108e-08 8.052577e-07 8.3508894e-07 1.2303398e-07 2.226312e-06 1.8942076e-07 2.814106e-07 4.2825274e-08
1.6762291e-07 1.4045885e-08 1.2395955e-08 1.6431278e-08 2.0259169e-08 4.0098385e-07 7.4352156e-09 2.9745738e-06
8.569157e-09 4.835078e-07 7.852497e-08 1.7297415e-08 1.8539033e-07 7.638164e-08 8.469978e-09 5.066207e-07
5.3221796e-09 5.8498472e-08 3.8900956e-07 2.8046829e-08 4.103382e-06 4.835676e-07 4.415286e-08 2.2767545e-06
00000000: 6c59 c732 1157 5f34 7206 a235 213c c334
00000010: 62c0 b934 f09c 0f34 bbda c934 8fd8 2934
00000020: eadd 8c34 a93d 2c33 10ae 3b34 6a60 0133
00000030: 5f30 f032 3884 b334 7ea9 9c33 693e b735
00000040: 84b1 3d34 6f53 7934 6bbe ad33 0ed3 bf32
00000050: 6295 9132 415a 8f34 e1be 9732 341a 0334
00000060: f406 8e31 56ae 3734 3a6c 2535 71c8 0833
00000070: 3829 c035 5b4b 3633 8474 1533 0e64 0b35
00000080: cbb9 9634 d243 bd36 b087 4c36 d088 ab35
00000090: 8eaa a536 fc51 8635 7ad6 1536 6f1a 7c35
000000a0: b1bb c735 1a81 8e35 e8ef 2536 1fe6 4e35
000000b0: 5368 3d34 c7e6 8c35 cfec 3e35 dbb7 4f37
000000c0: f1b8 3b35 48ff b935 f8b3 1536 b370 7435
000000d0: d0f7 b734 2433 1436 f88c 8534 d14c 4d35
000000e0: baa3 3c34 b962 b434 8c7d 8135 4f5c 6435
000000f0: c651 3f37 3bb6 8635 50cf e834 eb36 c536
00000100: 804b 1b33 9f71 bc34 3220 ce34 418f 0234
00000110: 51ca e334 073d e034 50f4 9f34 0cef 2e33
00000120: 91d3 8735 4349 a132 c254 5d34 2f12 ae33
00000130: 57f5 d335 d6f6 9b33 1cae 3a31 828e ee33
00000140: 8b4c f634 7cad e134 29bd ea33 d33e b633
00000150: a103 3033 a3bf 3e35 5d73 c333 428d 2935
00000160: 1027 9034 123d 7835 9180 ec32 8569 aa34
00000170: fc5a 7835 cb11 1533 01fe a434 44d3 d432
00000180: 2ec4 3535 778c 0d36 8ced 3735 9929 b834
00000190: 2769 4935 116d 2c33 8b38 9e36 bd64 3e35
000001a0: 3b0c 3f36 eef6 7533 cc5b 5f35 af1b 2934
000001b0: 675d 4536 f502 1836 3858 b433 fe4a f735
000001c0: b6ab 1535 f869 1035 115c 2b34 d5ba 7435
000001d0: 7d25 2135 6b58 b734 c0eb c134 8cff a235
000001e0: a2b7 3934 b6ac 2b35 8824 7635 ee49 6635
000001f0: 21a1 2136 ec9e d035 c879 cc34 4291 4734
00000200: 9028 2436 8068 7e36 3077 3736 8a1e 8236
00000210: bf8e 9c35 d744 2134 5b34 4b35 c542 0836
00000220: f53d bc36 7748 1635 689f d536 3f9b c334
00000230: df6e 2135 959c 9c36 1a32 9732 f828 4e36
00000240: 0ed6 7835 da9d 3735 0f32 1a35 838a 3c36
00000250: a2d1 6235 504a 8336 abaa e335 192d 8d36
00000260: 3be2 0035 dbe0 4f35 3b11 f734 6856 0336
00000270: b4db 0c36 adcb 7435 74e0 7335 e44d da34
00000280: 4db9 0a32 3f05 2634 c860 ba32 676f 1e34
00000290: 0bcb 0f33 bb7e 4431 f92c 4a34 fad6 4c32
000002a0: 66ae 8233 a125 a232 e7be f933 9363 ae32
000002b0: 7ed1 7c34 d8bb 7833 e626 a031 2c68 1233
000002c0: 9da4 3a33 b04a 4c32 7b75 ac31 d483 ce32
000002d0: 8738 2f32 067d ac32 ca99 3433 07ca 7c33
000002e0: e907 1332 e208 4033 88df b432 8d63 3e33
000002f0: 8e9a 1234 fbc8 c833 4479 2331 57c1 d432
00000300: c8f6 1a34 53df d036 a605 1035 c4ca 0336
00000310: 0b1e 0436 79aa 5335 64e8 4535 088b 5336
00000320: aed9 5a36 882d 8234 995c 4436 8829 6b36
00000330: 39a3 e134 c59c c135 6c39 7934 e3e7 3636
00000340: 5834 e635 0b60 a136 86e8 6a36 6488 9736
00000350: 7aa6 7835 2d89 8335 3678 5634 039f 3a36
00000360: 3506 0536 cb6c 9d35 8fce a535 1709 4b36
00000370: 30c1 9f36 f693 0536 70d0 b535 a589 0c36
00000380: 8db4 2c33 e328 5835 e02a 6035 531b 0434
00000390: c067 1536 9563 4b34 c714 9734 e3ee 3733
000003a0: d6fb 3334 754e 7132 fdf5 5432 c324 8d32
000003b0: 6206 ae32 cd46 d734 d978 ff31 ca9e 4736
000003c0: 8d37 1332 67ca 0135 8fa1 a833 6b95 9432
000003d0: b50f 4734 4007 a433 5b83 1132 b6fe 0735
000003e0: 63de b631 c03f 7b33 11d9 d034 a1eb f032
000003f0: c8af 8936 83ce 0135 95a2 3d33 58ca 1836

exp_avg f4 [16]
-0.00081820204 -0.0008231274 -0.00037764251 -3.2555876e-05 -5.743136e-05 1.8877921e-05 7.988364e-05 -0.0007222958
-3.691504e-05 -8.589835e-05 -5.252926e-06 1.9047506e-05 0.000115821764 2.4672543e-05 -0.00050255045 -0.0007109477
00000000: 9c7c 56ba 25c7 57ba 52fe c5b9 9b8c 08b8
00000010: 74e2 70b8 075c 9e37 3487 a738 7358 3dba
00000020: 39d5 1ab8 5324 b4b8 4a42 b0b6 35c8 9f37
00000030: 56e5 f238 e2f7 ce37 97bd 03ba e45e 3aba

exp_avg_sq f4 [16]
4.125934e-07 3.1107234e-06 5.0408596e-07 2.522155e-06 4.6192895e-06 1.1963711e-07 2.241987e-06 6.810831e-07
7.8508987e-07 1.7563609e-06 1.4045305e-05 3.7204423e-08 3.3421908e-05 1.1840779e-05 2.5382328e-06 3.114279e-07
00000000: 6882 dd34 d2c1 5036 8650 0735 4b42 2936
00000010: 65ff 9a36 9975 0034 0b75 1636 add3 3635
00000020: f7be 5235 1abc eb35 20a4 6b37 b2ca 1f33
00000030: 802e 0c38 c2a7 4637 8256 2a36 5332 a734

exp_avg f4 [5, 3]
0.0 0.0 0.0 -0.00055845414 -9.418104e-05 0.0016405378 -0.00044048246 -0.00030867368
0.00058706786 0.0003037729 0.00013360233 -0.00019550374 0.0003874259 0.0007665446 -0.00015180255
00000000: 0000 0000 0000 0000 0000 0000 3965 12ba
00000010: 1083 c5b8 5007 d73a 8ef0 e6b9 7bd5 a1b9
00000020: 75e5 193a b543 9f39 9a17 0c39 2300 4db9
00000030: 6d1f cb39 f0f1 483a 302d 1fb9

exp_avg_sq f4 [5, 3]
0.0 0.0 0.0 8.8651717e-07 3.0859644e-07 1.2987658e-06 2.160603e-06 2.3108435e-06
7.5431933e-07 1.4561814e-06 1.5818896e-06 9.091417e-07 1.0008887e-06 2.18955e-06 7.174584e-07
00000000: 0000 0000 0000 0000 0000 0000 fff8 6d35
00000010: 2cad a534 4151 ae35 e0fe 1036 fd13 1b36
00000020: 6e7c 4a35 0372 c335 5051 d435 be0b 7435
00000030: 4656 8635 2ff0 1236 5e97 4035

exp_avg f4 [5, 3]
0.0 0.0 0.0 -4.7067108e-05 -0.0005458798 0.0005506074 5.523618e-05 -0.0004100557
-0.00013489662 0.00019726384 3.28834e-05 -0.00018391077 0.0004941166 -0.00022553044 0.00020996614
00000000: 0000 0000 0000 0000 0000 0000 ec69 45b8
00000010: 6019 0fba a356 103a 66ad 6738 bffc d6b9
00000020: 0973 0db9 9cd8 4e39 48ec 0938 2cd8 40b9
00000030: 9b87 013a 5e7c 6cb9 5b2a 5c39

exp_avg_sq f4 [5, 3]
0.0 0.0 0.0 3.0429914e-07 5.723045e-07 2.0302515e-07 3.9100416e-07 4.0172273e-07
1.15138185e-07 3.191695e-07 3.441144e-07 2.3381072e-07 1.958782e-07 3.5699887e-07 1.5696209e-07
00000000: 0000 0000 0000 0000 0000 0000 8e5e a334
00000010: 77a0 1935 21ff 5934 34eb d134 5aac d734
00000020: e341 f733 525a ab34 b9be b834 670d 7b34
00000030: 9752 5234 8da9 bf34 6989 2834

exp_avg f4 [5, 3]
0.0 0.0 0.0 0.0020186575 0.0024100442 4.6857953e-05 -0.00047959684 0.0005925418
-0.0005572562 0.00095210545 0.0010695785 -0.00021924794 -0.00035848372 -0.00012518845 -0.00049768144
00000000: 0000 0000 0000 0000 0000 0000 744b 043b
00000010: d5f1 1d3b 5889 4438 6672 fbb9 cf54 1b3a
00000020: d514 12ba b796 793a 1931 8c3a ece5 65b9
00000030: dff2 bbb9 0545 03b9 d676 02ba

exp_avg_sq f4 [5, 3]
0.0 0.0 0.0 2.5525437e-06 4.7549465e-06 2.7784057e-07 4.882092e-06 8.417938e-06
7.12116e-07 2.570158e-06 4.0359137e-06 4.8572696e-07 1.6558057e-06 2.9006462e-06 2.915931e-07
00000000: 0000 0000 0000 0000 0000 0000 5e4c 2b36
00000010: ae8c 9f36 1e2a 9534 dad0 a336 c53a 0d37
00000020: 3d28 3f35 fa7a 2c36 3c6c 8736 e762 0235
00000030: 0d3d de35 b9a8 4236 408c 9c34

exp_avg f4 [5, 3]
0.0 0.0 0.0 -0.0013324802 0.0009496291 0.0010319754 0.0002813046 0.0004866124
-0.00021694227 -0.0008790308 0.00087721396 0.0011071701 -0.0016566962 0.0033978857 0.0004304149
00000000: 0000 0000 0000 0000 0000 0000 9ea6 aeba
00000010: 88f0 783a 5943 873a 107c 9339 0320 ff39
00000020: ff7a 63b9 c26e 66ba d5f4 653a 771e 913a
00000030: 8025 d9ba 10af 5e3b 4fa9 e139

exp_avg_sq f4 [5, 3]
0.0 0.0 0.0 2.9395503e-06 4.440104e-06 1.5160728e-06 1.3087977e-06 5.9068957e-06
2.9330045e-06 1.8162411e-06 5.4264015e-06 1.4092018e-06 6.259154e-06 9.03002e-06 1.5029937e-06
00000000: 0000 0000 0000 0000 0000 0000 1745 4536
00000010: 34fc 9436 dd7b cb35 f2a9 af35 d933 c636
00000020: a2d4 4436 92c5 f335 6f14 b636 ce23 bd35
00000030: b905 d236 a47f 1737 78ba c935
