vertex-custom-ml/pytorch/custom_jobs/pytorch_tabular/training/saved_models/classification-4_epoch=30-valid_loss=0.17.ckpt (torch, 58438 bytes, 38 tensors)

_backbone.linear_layers.0.weight f4 [32, 28]
0	0xbd65b007	-0.056076076
1	0x3dc7ee0b	0.097622
2	0xbe11b701	-0.14229967
3	0xbdc16095	-0.0944225
4	0xbe222f12	-0.15838268
5	0xbe3b456a	-0.18288198
6	0xbe5dc74a	-0.21658054
7	0xbf2b83a0	-0.6699772
8	0xbd1b4292	-0.037905283
9	0xbeb7900d	-0.3585209
10	0x3d34acfb	0.04411028
11	0x3b994d5b	0.004678411
12	0xbe8eb6e6	-0.27873915
13	0xbdabbe19	-0.083858676
14	0x3de1d1ff	0.11026382
15	0xbea6c611	-0.32572988
16	0x3dc840b0	0.09777963
17	0xbc9e178c	-0.019298337
18	0xbdd71e0f	-0.1050378
19	0xbdc5e3c2	-0.09662582
20	0xbe998ea4	-0.2999164
21	0xbee56e1a	-0.44810563
22	0xbe8d7034	-0.27624667
23	0xbd3235bd	-0.04350828
24	0x3ea05b00	0.31319427
25	0xbd38bd8b	-0.045102637
26	0x3e0da4fb	0.13832466
27	0xbe03bd74	-0.1286524
28	0x3e6a4e1d	0.2288136
29	0x3f3a7038	0.7282748
30	0xbde2fc86	-0.11083321
31	0x3e4a812b	0.19775836
32	0xbe4acce1	-0.19804718
33	0xbefb5d42	-0.49094588
34	0x3f1cf72a	0.6131464
35	0x3e994eb7	0.29942867
36	0x3dd3f38d	0.10349188
37	0x3e0e27fa	0.13882437
38	0xbe061fde	-0.13098094
39	0x3892e95c	7.005289e-05
40	0xbe332e32	-0.17498091
41	0x3f02fa01	0.51162726
42	0x3e756c09	0.23966993
43	0xbe22b95a	-0.15891019
44	0xbe5eb49a	-0.21748582
45	0xbd982ec2	-0.07430793
46	0xbdc54f4b	-0.096342646
47	0xbea3f15e	-0.32020086
48	0x3edb7caf	0.42868564
49	0xbb072a51	-0.0020624588
50	0xbca64104	-0.020294674
51	0x3dbf8962	0.093523756
52	0xbd7d8100	-0.061890602
53	0x3e2a6c63	0.16642909
54	0xbefc4ce7	-0.49277422
55	0xbd77e855	-0.060524303
56	0xbe9926b7	-0.2991235
57	0xbf6b136b	-0.91826504
58	0xbd4d1d71	-0.050076906
59	0xbe1a0d11	-0.15044047
60	0xbdf764c8	-0.120797694
61	0x3f20072c	0.62510943
62	0x3da1e3c4	0.07904771
63	0xbf26eea2	-0.65207875
64	0x3da9fe88	0.08300501
65	0xbea6ac4c	-0.32553327
66	0xbe0c87ef	-0.1372373
67	0x3d0598b6	0.03261634
68	0x3e2e5fae	0.17028686
69	0x3e5bc1bb	0.21460621
70	0x3db974a1	0.09055448
71	0x3dc60b36	0.09670107
72	0xbe87272f	-0.26397082
73	0xbee319f4	-0.44355738
74	0xbe8fe0cc	-0.28101194
75	0x3caaaf1e	0.020835456
76	0x3dc664d6	0.09687202
77	0x3e0da30a	0.13831726
78	0xbcc6376c	-0.02419635
79	0xbc5d4884	-0.013506059
80	0xbe249577	-0.16072641
81	0xbca56f4e	-0.020194676
82	0xbdc38754	-0.09547296
83	0x3de8459a	0.113414004
84	0xbf4c15ec	-0.7972095
85	0xbe413399	-0.18867339
86	0xbe186c81	-0.14885141
87	0x3f016675	0.5054696
88	0xbe5b25dd	-0.21401162
89	0xbe2dce3b	-0.16973202
90	0x3deaed77	0.11471074
91	0xbf10f8c9	-0.56629616
92	0x3e1f5878	0.15561092
93	0x3f99749d	1.1988713
94	0x3c73a67c	0.014871236
95	0xbe6ccec3	-0.23125748
96	0x3e19a872	0.15005663
97	0x3d60d2c6	0.05488851
98	0x3ec820e0	0.39087582
99	0x3e911cd6	0.28342313
100	0xbbf5d2ef	-0.007501952
101	0x3d2937dc	0.041313037
102	0x3d9c2be2	0.076255575
103	0x3c81dcbc	0.015852325
104	0x3d8e0d0c	0.06936082
105	0x3e82daec	0.2555765
106	0xbf0c5305	-0.5481418
107	0x3ef1779d	0.4716157
108	0x3e8882db	0.26662335
109	0x3da0c692	0.07850374
110	0x3d9a6876	0.075394556
111	0x3d18b983	0.037286293
112	0x3e97fb5f	0.29683968
113	0xbe29d437	-0.1658486
114	0xbe2ec369	-0.1706673
115	0xbedf07e6	-0.43560714
116	0xbec501d5	-0.3847796
117	0xbe8784dc	-0.2646855
118	0x3e0c3230	0.1369102
119	0xbeb29f50	-0.3488717
120	0x3cdd22e7	0.026994182
121	0xbf5b5c96	-0.8568815
122	0xbe5e191f	-0.2168927
123	0x3ec2ad7b	0.3802298
124	0x3db7516b	0.08951076
125	0x3d3d17bc	0.046165213
126	0xbdfe181a	-0.12406941
127	0xbcc08973	-0.02350304
128	0x3cf9b076	0.030479651
129	0x3de45ef3	0.111509226
130	0x3defbd6a	0.1170605
131	0x3c641aee	0.013922436
132	0xbe51908c	-0.20465297
133	0xbe5a19ca	-0.212989
134	0xbdf4dbca	-0.11955984
135	0x3e5514c5	0.20808704
136	0xbe1d95a2	-0.15389112
137	0xbd9e264d	-0.07722149
138	0xbe65d53d	-0.22444625
139	0x3dcdbaf0	0.10045421
140	0x3d9310e1	0.07180954
141	0x3bf3719c	0.007429315
142	0xbe6623bd	-0.2247457
143	0x3c78cdb8	0.015185766
144	0xbe954838	-0.2915666
145	0x3cbfcaaf	0.023412077
146	0xbd9eaad2	-0.07747425
147	0xbcfaab94	-0.030599393
148	0x3d80ee36	0.06295435
149	0x3c5e570a	0.013570556
150	0xbec3d0ef	-0.3824534
151	0x3d9e70ab	0.077363335
152	0xbe2f40c0	-0.17114544
153	0xbe62f784	-0.22164732
154	0x3cc97c98	0.024595544
155	0xbe267bcb	-0.16258161
156	0x3f0e4578	0.5557475
157	0x3f979ada	1.1844132
158	0xbec76e48	-0.38951325
159	0x3d87928e	0.0661975
160	0x3e10eea9	0.14153542
161	0x3e4bbb69	0.1989571
162	0x3e0ee789	0.13955511
163	0xbef3a910	-0.47589922
164	0xbdf6edb1	-0.12057055
165	0xbd3c9078	-0.046036214
166	0xbeb1aa61	-0.347003
167	0xbe0fce76	-0.14043602
168	0xbf07d7b0	-0.5306349
169	0x3f232ce5	0.6374038
170	0xbd49f29f	-0.049303647
171	0x3d0f17de	0.03493487
172	0x3e161747	0.14657317
173	0xbf00073b	-0.5001103
174	0x3e71a094	0.23596412
175	0x3f4921b8	0.78567076
176	0xbe16ac83	-0.14714245
177	0xbe84888c	-0.25885427
178	0x3c76deaf	0.01506774
179	0x3dd74544	0.10511258
180	0x3b350105	0.0027619016
181	0xbe65a5c1	-0.22426511
182	0xbece8912	-0.4033895
183	0xbcf1dfc9	-0.029525654
184	0x3e98c385	0.2983667
185	0x3ebfc9cf	0.37458655
186	0xbe450bb0	-0.1924274
187	0xbdf9f863	-0.12205579
188	0x3d8e44ae	0.06946693
189	0xbe21a48c	-0.15785426
190	0xbe76041d	-0.24025007
191	0x3eb22725	0.3479549
192	0x3d4a6366	0.0494112
193	0x3d25b49b	0.040455442
194	0x3e2dade6	0.16960868
195	0x3e35f13d	0.17767806
196	0x3e4ea782	0.20181087
197	0xbe8a9c6e	-0.2707247
198	0x3c61bb62	0.013777586
199	0x3d8f73be	0.07004498
200	0x3ea536b7	0.32268307
201	0xbd8b9854	-0.06816164
202	0x3e0b5e0c	0.13610095
203	0x3ca50a44	0.020146497
204	0xbe5909c1	-0.21195127
205	0xbf4c4723	-0.79796046
206	0xbc83cd3a	-0.01608907
207	0xbdcd078f	-0.10011207
208	0x3e15de92	0.14635685
209	0xbe55d3f3	-0.20881633
210	0xbe0394c8	-0.12849724
211	0x3d858108	0.065187514
212	0x3e424912	0.18973187
213	0xbe67a4d6	-0.22621474
214	0xbe694f8d	-0.22784252
215	0x3e88c7ea	0.26715022
216	0x3e0b652b	0.13612811
217	0xbe6703d2	-0.22560051
218	0x3e4ca6f6	0.19985566
219	0xbe5685d1	-0.20949484
220	0x3ec2c136	0.38038033
221	0x3e5ccc2d	0.21562262
222	0xbd96cad8	-0.07362908
223	0x3dd68759	0.10475034
224	0x3d434d1f	0.04768097
225	0x3d868368	0.065680325
226	0x3e921aac	0.28535974
227	0x3e6e9023	0.23297171
228	0xbdc5bd81	-0.096552856
229	0xbdc18ade	-0.09450315
230	0x3efe7810	0.49700975
231	0xbed4492d	-0.4146208
232	0xbd0ac3bc	-0.033878073
233	0xbe455573	-0.19270878
234	0xbdb3b003	-0.08773806
235	0xbee637cf	-0.44964454
236	0xbdee1f64	-0.11627081
237	0xbf05d048	-0.52270937
238	0x3e260c98	0.16215742
239	0x3e8580e2	0.26074892
240	0xbe8da2ad	-0.27663174
241	0x3d51347d	0.051075447
242	0x3d952d63	0.072840475
243	0xbea16f45	-0.31530204
244	0x3eb6cb78	0.3570211
245	0x3d85fc20	0.0654223
246	0xbdea9ab0	-0.114552855
247	0x3e7742a7	0.2414652
248	0x3e964ee3	0.2935706
249	0xbf02afe4	-0.5104964
250	0x3eb2c69f	0.3491716
251	0x3ef69c03	0.48165902
252	0x3e93ca25	0.28865162
253	0xbe824b59	-0.2544811
254	0x3dfae2e5	0.12250308
255	0x3eb9d2d9	0.36293676

_backbone.linear_layers.0.bias f4 [32]
0	0xbe0b1c47	-0.13585006
1	0xb9149f23	-0.00014173663
2	0x3ea9fa2c	0.33198678
3	0xbe67319a	-0.22577515
4	0x3e5a75bc	0.21333975
5	0x3dbfa8c7	0.093583636
6	0x3e0d0e3c	0.13774961
7	0xbda65b7e	-0.081229195
8	0xbd211a97	-0.039332
9	0x3d4f4d07	0.05061057
10	0xbe8f8f50	-0.28039026
11	0xbdbf8f39	-0.093534894
12	0xbe849c7f	-0.25900647
13	0xbdc4dd48	-0.096125185
14	0xbe193352	-0.14960983
15	0x3ee67c5a	0.45016748
16	0x3d64b36e	0.05583518
17	0x3c2b1bce	0.010443641
18	0x3e9d778c	0.3075527
19	0xbe71f947	-0.23630248
20	0xbe03d46b	-0.12874
21	0xbd763307	-0.060107257
22	0xbda1da3a	-0.079029515
23	0xbe7d2fbd	-0.24725242
24	0xbe75210d	-0.23938389
25	0xbdac060f	-0.08399593
26	0x3d0a22d4	0.03372462
27	0xbdd4556a	-0.10367854
28	0x3e3e3536	0.18574986
29	0xbe1c18c6	-0.15243825
30	0xbe5310e0	-0.20611906
31	0xbb8e2a1d	-0.0043385164

_backbone.linear_layers.3.weight f4 [16, 32]
0	0x3ea84e2f	0.3287215
1	0xbd0a1a64	-0.033716574
2	0x3d5a4425	0.053287644
3	0x3e09ea90	0.13468385
4	0xbf0579a9	-0.52138764
5	0xbc9673ca	-0.01836576
6	0x3e4da427	0.2008215
7	0x3e853da4	0.2602359
8	0xbd23b625	-0.03996863
9	0xbd3724a3	-0.044712674
10	0x3e0a07eb	0.13479583
11	0xbedb23a5	-0.42800632
12	0x3ece922c	0.40345895
13	0xbe8130a2	-0.25232416
14	0x3e3125bc	0.17299551
15	0x3df91155	0.12161509
16	0x3e87a4ae	0.26492828
17	0xbe14cd81	-0.14531519
18	0xbdb1dce0	-0.08684707
19	0xbdd862cc	-0.10565719
20	0x3e03125d	0.12799974
21	0x3e603308	0.21894467
22	0xbea2cbf4	-0.3179623
23	0xbd902b42	-0.07039501
24	0xbf3191ce	-0.69363105
25	0x3eb7439c	0.3579377
26	0x3f1b16e6	0.60581815
27	0xbda4e5e3	-0.0805166
28	0x3b6ca6e5	0.003611022
29	0xbd086fe6	-0.03330984
30	0xbf079940	-0.52968216
31	0xbe915f63	-0.28393087
32	0x3f02d957	0.51112884
33	0x3e645211	0.22296931
34	0x3d6900ff	0.056885716
35	0xbe1e64f2	-0.15468195
36	0x3e80bb65	0.2514297
37	0x3dd175cd	0.10227547
38	0x3e2d0a4b	0.16898458
39	0x3eef06f3	0.4668499
40	0xbdc16f7a	-0.094450906
41	0x3f0105ca	0.5039946
42	0xbcc2dd7d	-0.023787254
43	0xbe4d3278	-0.20038784
44	0xbfa0cd28	-1.2562609
45	0x3d975ace	0.073903665
46	0xbe3f570b	-0.18685548
47	0x3f1a495a	0.60268176
48	0x3d21d256	0.039507233
49	0xbe2d716d	-0.169378
50	0x3e1dc88f	0.15408538
51	0xbf3e1af7	-0.74259895
52	0xbeb82980	-0.35969162
53	0xbea64b79	-0.32479456
54	0xbdbe93f7	-0.09305566
55	0xbe116659	-0.14199199
56	0xbf190c81	-0.59784704
57	0x3d6668b1	0.056252185
58	0x3e828ace	0.25496525
59	0xbe825b53	-0.254603
60	0x3e4389af	0.19095491
61	0xbdf605e9	-0.12012846
62	0xbefbadf8	-0.49156165
63	0xbe06480e	-0.13113424
64	0xbda5fb02	-0.081045166
65	0xbeeb995b	-0.46015438
66	0x3e4773df	0.19477795
67	0xbdf42a62	-0.119221464
68	0x3e2bec0d	0.16789265
69	0x3d2342b7	0.039858546
70	0xbee71682	-0.4513436
71	0xbed8ad02	-0.42319494
72	0xbdf6d765	-0.12052802
73	0xbedd54f5	-0.4322888
74	0xbe4f713e	-0.20258042
75	0x3ed28595	0.4111754
76	0x3eb94bb4	0.3619057
77	0xbefee410	-0.49783373
78	0xbe92dc47	-0.28683683
79	0x3d847f8c	0.0646964
80	0xbdc4a660	-0.09602046
81	0xbda4a614	-0.080394894
82	0x3e993666	0.29924315
83	0x3ed6c72e	0.41948837
84	0xbe288924	-0.16458565
85	0x3e81ed2c	0.2537626
86	0xbdead511	-0.114664204
87	0xbebab187	-0.36463568
88	0xbdb76fd5	-0.08956877
89	0x3e8cd9b2	0.27509838
90	0xbef1e025	-0.4724132
91	0xbdb8f240	-0.090305805
92	0xbe3e82f5	-0.18604644
93	0xbeb3ae96	-0.35094136
94	0x3e71e045	0.23620708
95	0xbe3c4122	-0.18384221
96	0xbeba68ef	-0.36408183
97	0xbe905059	-0.281863
98	0xbee1354e	-0.4398598
99	0xbeda1ce4	-0.42600167
100	0x3bed107e	0.007234632
101	0xbee6d273	-0.45082435
102	0x3e86abd2	0.26302963
103	0x3e7e4d85	0.24834259
104	0xbe1c7af7	-0.15281282
105	0xbe02e2b3	-0.12781791
106	0xbda3b592	-0.07993616
107	0xbe7e10b6	-0.24811062
108	0x3e150735	0.1455353
109	0x3d491eeb	0.04910175
110	0x3dcd401e	0.10021995
111	0x3ebb07c4	0.36529362
112	0x3b8a97b7	0.0042295116
113	0x3ec88b66	0.39168853
114	0xbe88b7a1	-0.26702598
115	0x3e208c5d	0.15678544
116	0x3e45e5c2	0.19325927
117	0xbf0b97e5	-0.5452865
118	0x3de903aa	0.11377652
119	0xbe126b59	-0.14298762
120	0xbdf68786	-0.12037568
121	0xbc699bd0	-0.01425834
122	0xbe332bcf	-0.1749718
123	0xbe3b134c	-0.1826908
124	0xbe5c491c	-0.21512264
125	0x3ea41fad	0.32055417
126	0x3e887270	0.2664981
127	0xbe7ec7ac	-0.24880856
128	0x3e82dda3	0.2555972
129	0xbe2bfe3c	-0.16796201
130	0x3e0d3592	0.13789967
131	0x3e91a038	0.2844255
132	0xbea29863	-0.31756887
133	0x3eb13935	0.34613958
134	0xbef33643	-0.47502336
135	0x3cbe5ad3	0.023236668
136	0xbd2e8c93	-0.04261453
137	0x3d283f48	0.041075975
138	0x3e597d90	0.21239305
139	0x3e0a429c	0.13501972
140	0xbdfcb6c5	-0.12339548
141	0x3bf9e6bf	0.007626384
142	0xbd82a788	-0.0637961
143	0xbe95eb82	-0.2928124
144	0xbe3a0181	-0.18164636
145	0xbe2e4f17	-0.17022358
146	0x3ed54cda	0.41660196
147	0x3dbca10d	0.092104055
148	0x3ea065cc	0.31327665
149	0x3f07fe59	0.5312248
150	0x3dc316ae	0.0952581
151	0xbedba830	-0.42901754
152	0x3c8c9c32	0.017164323
153	0xbdc4ee52	-0.096157685
154	0xbed54981	-0.41657642
155	0x3d3d53bd	0.046222437
156	0xbee7f563	-0.45304403
157	0x3e6c9912	0.23105267
158	0x3f20fc9d	0.6288546
159	0xbea1e6ae	-0.31621307
160	0xbf0a4dcb	-0.5402495
161	0xbe9acc7e	-0.3023414
162	0xbf34b2d2	-0.7058536
163	0x3f309c51	0.6898852
164	0xbedb647d	-0.42850104
165	0xbeb4dfa4	-0.35326874
166	0xbe0b9943	-0.13632683
167	0xbeb93645	-0.36174217
168	0xbe8adfa9	-0.27123764
169	0xbd5c6353	-0.05380566
170	0xbe27a061	-0.16369773
171	0xbe1403c8	-0.14454567
172	0x3f83927a	1.0279076
173	0xbf5839b4	-0.8446305
174	0x3e537770	0.2065103
175	0xbf7406cf	-0.9532289
176	0xbd06f5da	-0.032949306
177	0xbe7eb8bd	-0.2487516
178	0xbf082c52	-0.5319263
179	0x3e09b2fe	0.13447186
180	0xbf12a27a	-0.5727917
181	0xbf5a10a6	-0.85181653
182	0x3d4938c1	0.04912639
183	0xbe6a46c8	-0.22878563
184	0x3eaf817b	0.34278473
185	0xbd7faf1f	-0.062422868
186	0xbf75e73e	-0.9605597
187	0xbed1ab63	-0.4095107
188	0xbe540fa8	-0.20709097
189	0x3f129ebd	0.57273465
190	0xbf2ea938	-0.6822696
191	0x3e916623	0.28398237
192	0xbd83f247	-0.06442695
193	0x3e468162	0.19385293
194	0xbf5b6c3b	-0.8571202
195	0x3eac5c95	0.33664384
196	0x3d0787aa	0.033088364
197	0x3ec70dbd	0.3887767
198	0xbdebba0c	-0.11510095
199	0x3e819dc4	0.25315678
200	0xbeafa7da	-0.34307748
201	0x3e9c0f85	0.3048059
202	0xbdfff9f9	-0.124988504
203	0xbe17da7f	-0.14829443
204	0x3f29680e	0.661744
205	0xbe9bf13c	-0.30457485
206	0xbe014efa	-0.12627783
207	0xbed09338	-0.4073732
208	0x3d8da406	0.069160506
209	0x3d36398e	0.044488482
210	0xbe9289f2	-0.2862087
211	0xbd846d84	-0.06466201
212	0x3e53e2d7	0.20692001
213	0xbe5728b0	-0.21011615
214	0xbd45bf19	-0.048277948
215	0xbe8f6be5	-0.28012004
216	0x3ec340db	0.38135418
217	0xbdd40c25	-0.10353879
218	0xbf12ba4d	-0.5731552
219	0xbefa93ac	-0.4894079
220	0xbe968f16	-0.2940604
221	0xbdfd9b8a	-0.12383182
222	0xbf1a434f	-0.60258955
223	0x3e1e9676	0.15487084
224	0x3e533114	0.2062419
225	0xbed64ab4	-0.4185387
226	0xbd9cb089	-0.07650859
227	0xbe1e60d2	-0.15466622
228	0xbec41e71	-0.38304475
229	0xbd505bc4	-0.050868765
230	0xbe3c7038	-0.18402183
231	0xbe8ef528	-0.27921414
232	0xbe00908a	-0.12555137
233	0x3ed84508	0.42240167
234	0xbf0bad78	-0.5456157
235	0x3e7b91da	0.24567357
236	0xbf04a7b3	-0.5181839
237	0x3d812ec7	0.0630775
238	0xbe170cd9	-0.14750995
239	0x3f03a889	0.5142904
240	0xbf56c80e	-0.8389901
241	0x3e5a7c71	0.21336533
242	0xbebe3ed3	-0.37157306
243	0xbd763528	-0.060109288
244	0xbe243c75	-0.16038688
245	0x3d04db2b	0.032435577
246	0x3f13985d	0.5765436
247	0x3da31ac5	0.0796409
248	0xbefffa50	-0.4999566
249	0x3df5ea62	0.120075956
250	0x3c33b081	0.010967375
251	0xbf230ca3	-0.6369116
252	0x3f0e6c4a	0.55633986
253	0x3e5a327f	0.21308325
254	0xbea1ea0b	-0.31623873
255	0xbe6d7261	-0.23188163

_backbone.linear_layers.3.bias f4 [16]
0	0xbce5ebce	-0.028066542
1	0x3e677ff0	0.22607398
2	0xbd2e78b0	-0.042595565
3	0xbdc9d410	-0.09854901
4	0x3e2fb16f	0.1715753
5	0xbf179f1f	-0.59227175
6	0xbe282984	-0.16422087
7	0x3b409c7d	0.002939015
8	0x3e147e22	0.14501241
9	0x3daf5a3b	0.08562132
10	0xbc23eb8d	-0.01000489
11	0x3eb692cc	0.35658872
12	0xbe1e934e	-0.1548588
13	0xbd8f15aa	-0.06986554
14	0x3d8225a8	0.063548386
15	0x3e7c0714	0.24612075

_embedding_layer.cat_embedding_layers.0.weight f4 [5, 3]
0	0xbeaaaf31	-0.33336785
1	0xbeaa0742	-0.33208662
2	0x3f087e48	0.5331769
3	0xbf7445ad	-0.95418817
4	0xbfa7d75c	-1.3112597
5	0x3ee713a0	0.4513216
6	0xbfb254f7	-1.3932179
7	0xbfab2ab7	-1.337241
8	0x3f85c24c	1.044992
9	0xbf074b64	-0.5284941
10	0xbf8f06f8	-1.1174002
11	0xbebb3834	-0.36566317
12	0x3eac29c5	0.33625618
13	0xbe731595	-0.23738702
14	0xbfec4617	-1.845889

_embedding_layer.cat_embedding_layers.1.weight f4 [5, 3]
0	0xbd9c5489	-0.07633311
1	0x3ec36fd6	0.38171262
2	0x3fa7152b	1.3053335
3	0x3e69d9ad	0.22836943
4	0x3f14a472	0.58063424
5	0x3e8ced95	0.2752501
6	0xbf6ec483	-0.93268603
7	0xbf045366	-0.51689756
8	0x3f356ba3	0.70867366
9	0xbf95ab91	-1.1692983
10	0xbf0b0c6b	-0.54315823
11	0xbe19de09	-0.15026106
12	0xbef07644	-0.4696523
13	0x3e9bf88b	0.3046306
14	0x3f099579	0.537437

_embedding_layer.cat_embedding_layers.2.weight f4 [5, 3]
0	0xbe661470	-0.22468734
1	0xbfa888cf	-1.3166751
2	0x3f311827	0.6917748
3	0xbfa45671	-1.283888
4	0xbf8f5c16	-1.1199977
5	0xbf20bdab	-0.6278941
6	0x3f13af53	0.576894
7	0x3f5f406d	0.8720768
8	0xbe79a19b	-0.24378054
9	0x3f2b85be	0.6700095
10	0x3f5a93a5	0.8538154
11	0xbf077d1d	-0.5292528
12	0xbfb5afd0	-1.4194279
13	0xbfa26e5b	-1.2689928
14	0xbecda487	-0.40164587

_embedding_layer.cat_embedding_layers.3.weight f4 [5, 3]
0	0x3f93bd41	1.1542131
1	0x3f908fec	1.1293921
2	0xbe4f2d94	-0.2023223
3	0xbf170e61	-0.59006315
4	0xbfa7d3fd	-1.3111569
5	0x3ee0578b	0.4381679
6	0x4008b460	2.1360092
7	0xbb1c8504	-0.0023882994
8	0xc00ef586	-2.2337356
9	0x3fe55acf	1.7918338
10	0x3f52afc6	0.8229946
11	0xbe8e11fb	-0.27748093
12	0xbf9ce805	-1.2258307
13	0xbefd741e	-0.49502653
14	0x3f570585	0.839928

_embedding_layer.normalizing_batch_norm.weight f4 [16]
0	0x3fc4f256	1.5386455
1	0x3fc6137f	1.54747
2	0x3f1c1015	0.6096204
3	0x3f9675f9	1.1754752
4	0x3ebffd2b	0.3749784
5	0x3faf8c03	1.3714603
6	0x3f10294b	0.5631301
7	0x3f8a1179	1.0786582
8	0x3f2e4036	0.6806673
9	0x3fac4bff	1.3460692
10	0x3f25a938	0.6471133
11	0x3f250b60	0.6447048
12	0x3f241d20	0.6410694
13	0x3f34fd43	0.70698947
14	0x3f1a9921	0.60389906
15	0x3f1d8b2a	0.6154047

_embedding_layer.normalizing_batch_norm.bias f4 [16]
0	0xbd89bf1e	-0.06725906
1	0xbdb5fe5b	-0.08886405
2	0xbe5deb42	-0.21671775
3	0xbe713013	-0.23553495
4	0xbda00372	-0.07813157
5	0x3d8d618c	0.06903371
6	0x3d932abd	0.07185886
7	0xbe8686ba	-0.26274663
8	0x3e09f327	0.13471662
9	0xbe0e6e2d	-0.13909216
10	0xbd8eb91e	-0.06968902
11	0xbe27f14f	-0.16400646
12	0x3e190f05	0.14947136
13	0x3cc40550	0.023928314
14	0xbe3fcb58	-0.18729913
15	0x3e0d2785	0.13784607

_embedding_layer.normalizing_batch_norm.running_mean f4 [16]
0	0x3ae75188	0.00176482
1	0xbb075a62	-0.0020653238
2	0xbb041d26	-0.0020158975
3	0x3aee0762	0.0018160159
4	0x3b633b1a	0.0034672678
5	0xbaaf63cc	-0.0013381182
6	0x3ac87cb2	0.0015295951
7	0x3b0b5b0e	0.002126399
8	0xbad9ccf1	-0.0016616863
9	0xb9ee6c3c	-0.00045475538
10	0x3a1d09e1	0.0005990547
11	0x3b56e791	0.0032791833
12	0xbb017394	-0.0019752728
13	0x3b0d1cfb	0.0021532166
14	0xba04a80b	-0.0005060441
15	0x3b408419	0.0029375611

_embedding_layer.normalizing_batch_norm.running_var f4 [16]
0	0x3f7fcd76	0.99922884
1	0x3f8047aa	1.002187
2	0x3f7f0527	0.99617237
3	0x3f80e459	1.0069686
4	0x3f7e8e7d	0.9943617
5	0x3f80b99f	1.0056647
6	0x3f8001be	1.0000532
7	0x3f7fb3ca	0.9988371
8	0x3f802b2c	1.0013175
9	0x3f812901	1.0090638
10	0x3f803433	1.001593
11	0x3f8049db	1.0022539
12	0x3f804550	1.0021152
13	0x3f802978	1.0012655
14	0x3f7fbb78	0.9989543
15	0x3f7e3625	0.9930137

head.layers.0.weight f4 [2, 16]
0	0x3ec04704	0.3755418
1	0x3dcaa33e	0.09894417
2	0xbcba3610	-0.022730857
3	0x3e5d2906	0.2159768
4	0xbd871534	-0.06595841
5	0x3f7a274c	0.9771621
6	0x3f29c468	0.6631532
7	0x3ef00a60	0.46882915
8	0x3e93bdbc	0.28855693
9	0xbd23a1e2	-0.039949305
10	0x3dbeed7b	0.093226396
11	0x3ee0056e	0.43754143
12	0x3c8fb776	0.017543536
13	0xbea2c8fc	-0.31793964
14	0x3ef07206	0.46961993
15	0xbf1c25f4	-0.6099541
16	0x3eb7b593	0.35880718
17	0xbedd347b	-0.43204102
18	0x3eb0f04e	0.34558338
19	0x3e56aa35	0.20963366
20	0x3ee0525f	0.43812844
21	0x3e7f804a	0.24951282
22	0xbe923a9d	-0.28560343
23	0xbe371d74	-0.17882329
24	0xbddb92f5	-0.10721389
25	0xbebf1e1b	-0.37327656
26	0x3eac9499	0.3370712
27	0xbdb90d59	-0.09035749
28	0x3f26be75	0.65134364
29	0x3cd537ff	0.026027678
30	0xbdd2217d	-0.10260294
31	0x3e4f8328	0.20264876

head.layers.0.bias f4 [2]
0	0x3d207ecf	0.039183434
1	0xbd834d7c	-0.06411263

exp_avg f4 [32, 28]
0	0xb9479761	-0.00019034512
1	0xba9727cc	-0.0011532246
2	0xb9dd51a4	-0.00042213232
3	0x3a10610c	0.0005507625
4	0x39f33358	0.00046386826
5	0x39a30878	0.00031096092
6	0xb9b8ca46	-0.0003524592
7	0x3a1d96a6	0.0006011523
8	0xb9cf127f	-0.00039495897
9	0xba095b93	-0.0005239781
10	0x3888ad9d	6.517323e-05
11	0xb98e542b	-0.0002714706
12	0x398aa5f5	0.0002644506
13	0x3a0a218d	0.00052692817
14	0x3936f1d6	0.00017446963
15	0x3a25a5bb	0.0006318946
16	0xb7ac0ea5	-2.0510817e-05
17	0xb818dc4a	-3.6444784e-05
18	0x3996d249	0.00028766904
19	0x3a211819	0.00061452534
20	0x3a05b5b5	0.0005100624
21	0xb9e00f9a	-0.00042736233
22	0x3a146a09	0.00056615524
23	0x3a1c304f	0.0005958126
24	0x394fb070	0.00019806786
25	0xb9de9538	-0.00042454316
26	0x3903a415	0.00012554259
27	0x3a466c1c	0.000756921
28	0x3a6ed55d	0.0009110773
29	0xb991e145	-0.00027824394
30	0x3932a4e9	0.00017036837
31	0xb939c385	-0.00017715812
32	0xb982769a	-0.00024883897
33	0xb8b5db8e	-8.671648e-05
34	0xb91c573f	-0.00014909821
35	0x383d80a3	4.5180914e-05
36	0x39da9625	0.00041692067
37	0xba012816	-0.0004926933
38	0x3a34479e	0.0006877127
39	0x39ab48b2	0.00032669824
40	0xb7a530b3	-1.969221e-05
41	0xb933eeb3	-0.00017159693
42	0x3919b02c	0.00014656846
43	0xb9db52c5	-0.00041832603
44	0xb947a22a	-0.0001903853
45	0xb73581c7	-1.0818657e-05
46	0x3a5989fa	0.0008298453
47	0x394d6cd3	0.00019590864
48	0x37c9efe4	2.4072775e-05
49	0x37d2c3b4	2.5125082e-05
50	0x39ad68b4	0.0003307514
51	0x397c7f7f	0.00024080089
52	0x3970691b	0.00022927338
53	0xba02b96e	-0.00049867376
54	0x37d88cdd	2.5814801e-05
55	0x3a309054	0.0006735374
56	0xbacaa751	-0.0015461241
57	0xb9d73ee0	-0.0004105484
58	0x38351ac1	4.317868e-05
59	0x3918b0f0	0.00014561764
60	0x3a4f100a	0.00078988133
61	0xb9c84efd	-0.00038205824
62	0x39817b65	0.00024696733
63	0xb93bc7d7	-0.00017908156
64	0x39a2c8bc	0.00031048607
65	0xba291ee1	-0.00064514397
66	0xb9b36101	-0.00034213814
67	0xb9ad72d3	-0.00033082682
68	0xbaa2b1ef	-0.0012412647
69	0xba4a88ab	-0.00077260536
70	0xb9a174b3	-0.0003079526
71	0xb8ec1c04	-0.00011258575
72	0xb8e821a8	-0.00011068891
73	0x3917b12e	0.00014466487
74	0x39fa1b46	0.00047704036
75	0xba984e45	-0.0011620006
76	0xba93872d	-0.0011255495
77	0xba06d1bd	-0.0005142948
78	0x38d52591	0.00010163629
79	0x3893eefb	7.05402e-05
80	0x38a6a62b	7.946448e-05
81	0xba9edd2e	-0.001212036
82	0xb9df0da4	-0.00042544038
83	0x38b0c05d	8.4281644e-05
84	0xba2f48c9	-0.0006686566
85	0xb94efd5d	-0.00019740076
86	0xb9e5440c	-0.00043728983
87	0xba7a74e2	-0.000955416
88	0xba0b7415	-0.0005319727
89	0x38c949ec	9.598196e-05
90	0x392195cb	0.00015409959
91	0xba6ffb46	-0.0009154569
92	0xba07d754	-0.00051819277
93	0xbac33db1	-0.0014895705
94	0x3a2c9475	0.0006583401
95	0xb9d36b1f	-0.00040324868
96	0x3a0d1ec9	0.00053833105
97	0xb8c2192a	-9.255328e-05
98	0x38ae9024	8.323815e-05
99	0xba080685	-0.000518896
100	0xba0f1d75	-0.00054594065
101	0xb9dc3f43	-0.00042008804
102	0x398bce7f	0.00026665998
103	0x3800e8e0	3.073446e-05
104	0x3951cdce	0.00020008461
105	0x3a062b77	0.0005118171
106	0xba079f5b	-0.0005173587
107	0xb9dcba14	-0.0004210031
108	0xb9691358	-0.00022227818
109	0x3af73419	0.0018860131
110	0x39e30782	0.00043302408
111	0xbaabe963	-0.0013115819
112	0xb97ce801	-0.00024119021
113	0xb8b0e6e4	-8.435341e-05
114	0x39e39a46	0.00043411757
115	0x39989e72	0.0002910975
116	0x3998e24b	0.000291603
117	0x39af54a7	0.00033441672
118	0x37d461bc	2.531788e-05
119	0xb8e2bb12	-0.00010811364
120	0x39114ae2	0.00013856174
121	0x3a5376b0	0.0008066697
122	0x39c50125	0.0003757562
123	0x3904fcb9	0.00012682648
124	0x395808d4	0.00020602654
125	0x3a94b5f7	0.0011345734
126	0x39acbd46	0.00032947416
127	0xb92579b1	-0.0001578096
128	0x39b931aa	0.00035322952
129	0x3a079ed0	0.0005173506
130	0xb9a6e2a6	-0.00031830854
131	0x3982b9fa	0.00024934096
132	0x38a188d8	7.7025674e-05
133	0xb95e9bb0	-0.00021229568
134	0xb9004452	-0.00012232483
135	0xb92152a0	-0.00015384937
136	0x3903da74	0.00012574514
137	0xbab779aa	-0.0013998051
138	0xb9840c55	-0.0002518619
139	0x3a65eab9	0.0008770633
140	0x36f60f66	7.333164e-06
141	0x368f89e2	4.277784e-06
142	0x38b3d507	8.5750646e-05
143	0xb911e26e	-0.00013912629
144	0x380c6703	3.347454e-05
145	0x3825b89c	3.9510996e-05
146	0xb6f31031	-7.2438493e-06
147	0xb92925f2	-0.00016131232
148	0xb8d98305	-0.000103717706
149	0xb938db41	-0.00017629286
150	0x398631dd	0.00025595623
151	0x39b77df8	0.00034998334
152	0xb8d3c68d	-0.00010098247
153	0x382ed1ca	4.1680214e-05
154	0x395128a4	0.00019946933
155	0xb97d572b	-0.00024160433
156	0xb996edef	-0.00028787504
157	0x37bd0b59	2.253584e-05
158	0x3a9d4b07	0.0012000509
159	0x39e2cd13	0.0004325887
160	0x3861c6ca	5.3829317e-05
161	0xb9a441b9	-0.00031329485
162	0x3925816a	0.00015783837
163	0x3886e8b5	6.432963e-05
164	0x399a11ce	0.00029386434
165	0xba2ef4ab	-0.00066740316
166	0x393a7549	0.00017782034
167	0x39e5ae1d	0.00043808008
168	0x39da45c1	0.0004163217
169	0xba09792d	-0.0005244192
170	0x37a1264a	1.9210525e-05
171	0xb9a0bdb7	-0.00030658927
172	0x38ea4e21	0.00011172542
173	0x3aaadf72	0.0013036563
174	0x3a09932c	0.00052480656
175	0xba13cd98	-0.0005638241
176	0xb9726189	-0.00023115253
177	0x3a06ef2f	0.00051473355
178	0xb966de28	-0.00022017269
179	0xb86733b4	-5.5122844e-05
180	0xb92d4890	-0.00016525597
181	0xb9fd1533	-0.00048271715
182	0xb9974841	-0.00028854798
183	0xb9089226	-0.00013024415
184	0x3a251383	0.0006297158
185	0x3981ac5e	0.0002473322
186	0xbabf0f1c	-0.0014576646
187	0xb980e714	-0.0002458623
188	0xb8a02df0	-7.637951e-05
189	0xb7282f04	-1.0024527e-05
190	0xb9d95d10	-0.00041458802
191	0xb9c28c63	-0.0003710716
192	0xb941348e	-0.00018425492
193	0xb9da48b1	-0.0004163436
194	0xb91b0539	-0.00014783897
195	0x39bf566c	0.00036494748
196	0x3a822160	0.0009928159
197	0x3a173c01	0.0005769134
198	0x39491cee	0.00019179631
199	0x38818808	6.176537e-05
200	0x3821eadf	3.8604132e-05
201	0xb82e7016	-4.158922e-05
202	0x39ab7e73	0.00032709874
203	0x383dc754	4.524675e-05
204	0x3939d164	0.00017720979
205	0x3a7a8619	0.0009556725
206	0xb8f82829	-0.00011833042
207	0xb887c424	-6.473836e-05
208	0xb91d1ad8	-0.00014982687
209	0x39d540ae	0.00040674716
210	0x38bd6c05	9.0323425e-05
211	0xb9344ad6	-0.00017194016
212	0x388da099	6.7533176e-05
213	0x39e4ba0a	0.0004362616
214	0x3a06f066	0.00051475165
215	0x39d2b81e	0.000401915
216	0x38ad64e5	8.268076e-05
217	0xb9db1d21	-0.00041792638
218	0x393e0420	0.00018121349
219	0x38e0a1e8	0.0001071131
220	0x398ecb7c	0.00027235958
221	0xb99ccabd	-0.0002990569
222	0x38f92ea7	0.00011881935
223	0x39ae4f10	0.00033246772
224	0x39a198c2	0.00030822126
225	0x3a19d6e4	0.0005868508
226	0x395579a3	0.00020358576
227	0xb8d1021a	-9.966288e-05
228	0xb766f7c9	-1.376676e-05
229	0x3a04839b	0.0005055011
230	0x38395b82	4.419266e-05
231	0x3a00c74a	0.0004912509
232	0x38b3e60b	8.578234e-05
233	0xb6a72ef4	-4.982454e-06
234	0xb947e214	-0.0001906234
235	0x38a46b2c	7.840092e-05
236	0xb8bb1fdc	-8.922789e-05
237	0x3911e1d4	0.00013912405
238	0x37f22f5b	2.88707e-05
239	0x3943d5a2	0.00018676234
240	0x399e41b9	0.00030185076
241	0x38b9bddc	8.8568515e-05
242	0xba03cfbb	-0.00050282077
243	0xb95a2f7d	-0.00020807791
244	0xb97f66a3	-0.0002435693
245	0x3541a4e3	7.2138045e-07
246	0x3927ff3f	0.00016021448
247	0x3943c01e	0.00018668218
248	0x378c04e7	1.6691583e-05
249	0xba26fb68	-0.000636986
250	0xb94c1d72	-0.00019465925
251	0x3984ed2a	0.00025353703
252	0x37e4c562	2.7271632e-05
253	0xb8452c27	-4.700958e-05
254	0xb8816d93	-6.171609e-05
255	0x38e9e1b5	0.00011152347

exp_avg_sq f4 [32, 28]
0	0x36067c9c	2.0040088e-06
1	0x35d484fd	1.5833936e-06
2	0x350d203d	5.2573506e-07
3	0x35dd0279	1.6466503e-06
4	0x34703e50	2.2374411e-07
5	0x366d14c6	3.5327844e-06
6	0x350aa15c	5.1643815e-07
7	0x35b94ebe	1.3806491e-06
8	0x34af98c7	3.270745e-07
9	0x36fde9a9	7.567189e-06
10	0x354d90ae	7.657899e-07
11	0x350d6630	5.2675296e-07
12	0x35392417	6.897039e-07
13	0x34cea4c2	3.8490367e-07
14	0x350561da	4.9688754e-07
15	0x355090fe	7.769703e-07
16	0x3661ff93	3.3676376e-06
17	0x36a49abc	4.9055943e-06
18	0x35a94421	1.2611309e-06
19	0x364a23bc	3.0121146e-06
20	0x343e3cd5	1.771726e-07
21	0x350bc440	5.2067116e-07
22	0x367979d8	3.7174814e-06
23	0x35ccd1cc	1.5260243e-06
24	0x35735707	9.0651196e-07
25	0x365c0a71	3.2788632e-06
26	0x353d2c54	7.047249e-07
27	0x35c064b9	1.4334429e-06
28	0x361ce625	2.3379773e-06
29	0x35de91af	1.6582688e-06
30	0x34aeef4b	3.2584134e-07
31	0x35c2a872	1.450315e-06
32	0x3502bbed	4.870224e-07
33	0x36a51b2e	4.9205473e-06
34	0x34df66ca	4.1611776e-07
35	0x36556969	3.180083e-06
36	0x34e9ed59	4.3572325e-07
37	0x36702966	3.5786884e-06
38	0x34f8c58e	4.633734e-07
39	0x350677a7	5.0093007e-07
40	0x34fc39c8	4.69807e-07
41	0x3555de82	7.9672475e-07
42	0x34e6866d	4.2938646e-07
43	0x353a4072	6.938418e-07
44	0x362309bf	2.4294566e-06
45	0x364c0fd6	3.0407587e-06
46	0x35923708	1.0893864e-06
47	0x362b1508	2.5493227e-06
48	0x346a872e	2.1842126e-07
49	0x35210091	5.9978e-07
50	0x360e946d	2.1246044e-06
51	0x358b55f4	1.0381323e-06
52	0x3525444a	6.1566664e-07
53	0x362df3fd	2.5921029e-06
54	0x35b9c812	1.3841802e-06
55	0x35a8c3a6	1.2573917e-06
56	0x36a1c280	4.8208167e-06
57	0x36a1a3c8	4.8172406e-06
58	0x358fee53	1.0723692e-06
59	0x369232cf	4.357054e-06
60	0x35434fa3	7.275905e-07
61	0x36951630	4.443129e-06
62	0x357ed34e	9.492986e-07
63	0x3646c6af	2.9619948e-06
64	0x35a318bf	1.2151648e-06
65	0x36ec7e2a	7.0480355e-06
66	0x359763f2	1.1279465e-06
67	0x35ba2a7f	1.3870448e-06
68	0x35a76eb8	1.2474693e-06
69	0x35a60a46	1.2370954e-06
70	0x35ba26bf	1.3869357e-06
71	0x35839521	9.803663e-07
72	0x364c5f79	3.0453941e-06
73	0x3672e732	3.6195383e-06
74	0x364b2fb3	3.0277122e-06
75	0x360faad4	2.1408096e-06
76	0x35052713	4.960322e-07
77	0x3535a1ea	6.766337e-07
78	0x3613d498	2.2028453e-06
79	0x35fc9512	1.8818848e-06
80	0x350ef77d	5.3259265e-07
81	0x370b9bc7	8.321315e-06
82	0x35d04f2f	1.5520253e-06
83	0x36ac96e1	5.143564e-06
84	0x35f3843e	1.8143398e-06
85	0x3607c4c2	2.0231096e-06
86	0x35194a32	5.710491e-07
87	0x35adc911	1.2948022e-06
88	0x348c067c	2.608175e-07
89	0x35b0d3b4	1.3174636e-06
90	0x350594cb	4.9762883e-07
91	0x35a6eb56	1.2436456e-06
92	0x354e1393	7.6769464e-07
93	0x35f84d1d	1.8499883e-06
94	0x3505ba7c	4.981773e-07
95	0x355a52e4	8.133195e-07
96	0x350f9efc	5.3503004e-07
97	0x34fed6b6	4.746741e-07
98	0x34e432d4	4.2505292e-07
99	0x350f6d37	5.343058e-07
100	0x358e78e4	1.0615008e-06
101	0x35b22e9c	1.3275599e-06
102	0x359aac93	1.152412e-06
103	0x3554ac86	7.922721e-07
104	0x341bec08	1.4521368e-07
105	0x34c574fc	3.6779227e-07
106	0x35991124	1.1404377e-06
107	0x358d6168	1.0533668e-06
108	0x34881049	2.5343823e-07
109	0x36645fb4	3.4030354e-06
110	0x35135b87	5.489496e-07
111	0x35ee55c0	1.7757338e-06
112	0x3686983f	4.011235e-06
113	0x365fa6f8	3.3326778e-06
114	0x357dbf4d	9.4528224e-07
115	0x36332fda	2.6700932e-06
116	0x35656416	8.545479e-07
117	0x374b0567	1.2101001e-05
118	0x35913116	1.0817628e-06
119	0x36a0fcdf	4.7978097e-06
120	0x35cbec09	1.5193374e-06
121	0x377b899b	1.4992805e-05
122	0x35d1bf34	1.5627361e-06
123	0x35cedf78	1.5413234e-06
124	0x359c6dd7	1.1654873e-06
125	0x35b05fa8	1.3140861e-06
126	0x359f4120	1.1865377e-06
127	0x35988961	1.1364865e-06
128	0x3630759c	2.6294501e-06
129	0x3675d69f	3.663277e-06
130	0x365ba9d2	3.2732391e-06
131	0x3658127e	3.2197272e-06
132	0x34db57b2	4.0855736e-07
133	0x3580054c	9.538285e-07
134	0x3613aefa	2.2006557e-06
135	0x36057101	1.9884321e-06
136	0x35482269	7.455588e-07
137	0x36d8d7e4	6.4624346e-06
138	0x364d92b4	3.0632773e-06
139	0x36767580	3.672525e-06
140	0x347f1eb6	2.3759898e-07
141	0x34b38b10	3.344253e-07
142	0x33cb7ca3	9.4755954e-08
143	0x34b31b8d	3.3361394e-07
144	0x33ca7799	9.428113e-08
145	0x35850e13	9.913368e-07
146	0x34168955	1.40198e-07
147	0x3542cbe0	7.256731e-07
148	0x34086fba	1.2706633e-07
149	0x354d6362	7.651307e-07
150	0x33e6eb99	1.07530646e-07
151	0x34044cb8	1.2321368e-07
152	0x33dfe1e3	1.0425335e-07
153	0x33ea2e47	1.0904892e-07
154	0x340865bf	1.2703002e-07
155	0x33db16e0	1.0202143e-07
156	0x3322e9ae	3.7931095e-08
157	0x333e9d3f	4.4380837e-08
158	0x3589fcbe	1.0280853e-06
159	0x34a7a109	3.1223342e-07
160	0x333d0640	4.4010676e-08
161	0x340ac8a5	1.2925246e-07
162	0x347e09b8	2.3659129e-07
163	0x3456091f	1.9933621e-07
164	0x338d8cc1	6.591427e-08
165	0x34d097c8	3.8853454e-07
166	0x342341a7	1.5204442e-07
167	0x346569f5	2.1365834e-07
168	0x34f85fba	4.626325e-07
169	0x35075217	5.0410875e-07
170	0x34f04ad2	4.4757923e-07
171	0x34c86c78	3.7331824e-07
172	0x34678372	2.1561371e-07
173	0x356127d1	8.387697e-07
174	0x34ae65b0	3.2484013e-07
175	0x34fda2b3	4.7243302e-07
176	0x34e275ad	4.21814e-07
177	0x35af7d57	1.3074995e-06
178	0x347fdc36	2.3828838e-07
179	0x34979cdf	2.824008e-07
180	0x3444a11d	1.8312535e-07
181	0x34982eb4	2.8346187e-07
182	0x347ea766	2.3716493e-07
183	0x34929ff1	2.7310992e-07
184	0x34599315	2.0263208e-07
185	0x3477d434	2.3080867e-07
186	0x35b4785e	1.3446077e-06
187	0x3529cb1f	6.3252986e-07
188	0x33d12a72	9.740042e-08
189	0x34077238	1.2614407e-07
190	0x3574d449	9.1206e-07
191	0x3534d844	6.7369933e-07
192	0x33fa3755	1.1651597e-07
193	0x35784853	9.2492445e-07
194	0x34974db3	2.8182475e-07
195	0x34d62e7d	3.989443e-07
196	0x35fff3a1	1.9069886e-06
197	0x3618cef1	2.277022e-06
198	0x34f71e78	4.6029504e-07
199	0x354c149d	7.602592e-07
200	0x348c854d	2.617402e-07
201	0x36388380	2.749468e-06
202	0x34ae4105	3.2457334e-07
203	0x3584f8a6	9.907133e-07
204	0x34f16b67	4.4967894e-07
205	0x36a0662e	4.780267e-06
206	0x3510868a	5.383996e-07
207	0x3505caf7	4.9841714e-07
208	0x35075ab7	5.0423427e-07
209	0x34b7eedd	3.4260202e-07
210	0x34fbd408	4.6906666e-07
211	0x34b79f4b	3.4202307e-07
212	0x35cf6551	1.5452189e-06
213	0x362992be	2.5268378e-06
214	0x35b440c1	1.3429891e-06
215	0x35e5a09a	1.7108571e-06
216	0x34175b01	1.4096078e-07
217	0x3510a76e	5.388782e-07
218	0x357ff100	9.5345604e-07
219	0x353d31db	7.0480536e-07
220	0x34d92a0f	4.045e-07
221	0x36207036	2.3907173e-06
222	0x35a8c258	1.2573537e-06
223	0x35ab3c1e	1.2757989e-06
224	0x36880186	4.053293e-06
225	0x35b7f105	1.3704708e-06
226	0x352efe3f	6.519003e-07
227	0x3496b294	2.806961e-07
228	0x349c33bd	2.909491e-07
229	0x36f6418a	7.339001e-06
230	0x348b2315	2.5916293e-07
231	0x3619f286	2.2939944e-06
232	0x348715fa	2.51617e-07
233	0x3742c1e3	1.1608444e-05
234	0x347e7479	2.3697966e-07
235	0x34354b28	1.688428e-07
236	0x3445c0c7	1.8417187e-07
237	0x347fece3	2.3834905e-07
238	0x3461168e	2.0962963e-07
239	0x340a6b0c	1.2891195e-07
240	0x36f0bb03	7.1743284e-06
241	0x37142b7d	8.831613e-06
242	0x35560639	7.973027e-07
243	0x37005cf7	7.65104e-06
244	0x342dd3ea	1.6188974e-07
245	0x36229e19	2.4231906e-06
246	0x36462d6d	2.953074e-06
247	0x34be6996	3.5467082e-07
248	0x35e0bebe	1.6744814e-06
249	0x36750a6a	3.6513907e-06
250	0x36fb187f	7.4832346e-06
251	0x361f89ec	2.3773127e-06
252	0x3628b907	2.514165e-06
253	0x359be7e4	1.1615889e-06
254	0x34de7fed	4.14438e-07
255	0x35977afd	1.1286171e-06

exp_avg f4 [32]
0	0xb9154e17	-0.00014238838
1	0xb9be8dcc	-0.0003634527
2	0xb9925832	-0.00027913
3	0x39fe792f	0.00048536944
4	0xb98a6ae0	-0.0002640104
5	0xba114462	-0.0005541501
6	0x39990e7f	0.00029193235
7	0xba0991a7	-0.0005247839
8	0x36003d4a	1.9109161e-06
9	0x3995583a	0.00028485229
10	0x39837c46	0.00025078858
11	0x3ab4f4fa	0.0013805919
12	0x3a67eb6d	0.0008847032
13	0xba340841	-0.0006867685
14	0x39da23f3	0.00041606984
15	0xb9ac3375	-0.00032844735
16	0xb9d477ee	-0.00040525146
17	0xb9b696ea	-0.00034826185
18	0x39f44f0b	0.00046598198
19	0x3ade0c3c	0.0016940902
20	0x3a9bae71	0.0011877549
21	0x3a01e272	0.00049547025
22	0x39c10aa0	0.00036819745
23	0xb9d03b40	-0.00039716996
24	0xb98f4d67	-0.00027332755
25	0x385d0aef	5.270069e-05
26	0xba0f6b98	-0.000547105
27	0x3a4aa26a	0.000772989
28	0x39b4b2a2	0.00034465367
29	0x39ed0ce9	0.0004521378
30	0x3b440021	0.0029907303
31	0x3a2638d0	0.0006340863

exp_avg_sq f4 [32]
0	0x36d4fb39	6.3473385e-06
1	0x368e02b0	4.2322426e-06
2	0x36537508	3.1509571e-06
3	0x35b5ad98	1.3536073e-06
4	0x36b01a77	5.2482897e-06
5	0x34f1a5d7	4.5010412e-07
6	0x3539573c	6.9044813e-07
7	0x3666ec02	3.4410045e-06
8	0x37621d32	1.3477447e-05
9	0x35ceea00	1.5416299e-06
10	0x35258ae3	6.1669397e-07
11	0x36804859	3.8231196e-06
12	0x3788159c	1.6222526e-05
13	0x3742c457	1.1609015e-05
14	0x3638e7b3	2.7553003e-06
15	0x37167d8f	8.969931e-06
16	0x36e0dd10	6.7014553e-06
17	0x374a6155	1.20628e-05
18	0x368db8a2	4.2236215e-06
19	0x37250f4e	9.83833e-06
20	0x36a97c95	5.0510957e-06
21	0x3616efc4	2.2491304e-06
22	0x36ac7ceb	5.140542e-06
23	0x355edec2	8.30256e-07
24	0x36211302	2.4001934e-06
25	0x35fe2c40	1.8937353e-06
26	0x35c0a6e0	1.4353682e-06
27	0x3716524d	8.959859e-06
28	0x3656ff1f	3.2036985e-06
29	0x377e4b6c	1.515714e-05
30	0x3797da5b	1.8102282e-05
31	0x3678f781	3.7098946e-06

exp_avg f4 [16, 32]
0	0xb7bc38a2	-2.2437718e-05
1	0x382a1336	4.054905e-05
2	0xb880adb2	-6.135869e-05
3	0x38955a3e	7.1216826e-05
4	0xb77b3b65	-1.4974595e-05
5	0xb7050406	-7.9283545e-06
6	0x37264b51	9.911907e-06
7	0xb7ce91ac	-2.4624947e-05
8	0x365ff80e	3.3373976e-06
9	0xb75f8b3e	-1.3324256e-05
10	0xb7960763	-1.7884833e-05
11	0xb6fbfd5b	-7.5098774e-06
12	0x370eee50	8.519346e-06
13	0xb4cb7ea7	-3.7903848e-07
14	0x37327d31	1.0638775e-05
15	0x3441239b	1.7987479e-07
16	0xb7a8ba40	-2.011389e-05
17	0xb653407b	-3.1478983e-06
18	0xb76efbcb	-1.4244531e-05
19	0xb714c22c	-8.866697e-06
20	0x3730c070	1.0535223e-05
21	0x37c69de0	2.3676956e-05
22	0x37c24b8b	2.316178e-05
23	0x35d737e0	1.603501e-06
24	0x3781289a	1.5396905e-05
25	0x37076122	8.0692425e-06
26	0xb78a013a	-1.6451453e-05
27	0x377fb206	1.5240634e-05
28	0x37d1be35	2.5003314e-05
29	0x3714f8d1	8.8794195e-06
30	0x35a992f9	1.2634256e-06
31	0x3794beaf	1.7731769e-05
32	0xb9df723d	-0.0004261899
33	0x3930631a	0.00016821586
34	0xbb05d8f0	-0.0020423494
35	0x3a85432c	0.0010167114
36	0x38f916d8	0.000118775
37	0xb9e0a704	-0.00042849046
38	0xb945dc26	-0.00018869396
39	0x390626d4	0.000127937
40	0x39436715	0.0001863505
41	0x384b1597	4.841908e-05
42	0xbaa59f3a	-0.0012635954
43	0x39ebbe16	0.00044964318
44	0x3a09a653	0.00052509195
45	0x39be3cc0	0.00036284886
46	0xb86a0478	-5.579411e-05
47	0x3ac08994	0.0014689439
48	0xb97dd96f	-0.0002420896
49	0xb9a8be60	-0.00032185297
50	0xba08e4c6	-0.0005222078
51	0xb4c1949f	-3.6057187e-07
52	0x381abd92	3.6893012e-05
53	0xb7b9101a	-2.2061216e-05
54	0x396cc416	0.00022579762
55	0xb8d108f3	-9.9675635e-05
56	0x39b58f1a	0.0003462963
57	0xb9bd03eb	-0.00036051808
58	0x37140fc5	8.825159e-06
59	0x399b4622	0.00029616157
60	0xba5031b2	-0.00079419755
61	0x391c7875	0.00014922193
62	0x39b09903	0.0003368334
63	0xb8f30942	-0.00011588867
64	0x39edb421	0.0004533837
65	0xba1aec23	-0.0005909821
66	0x3aa2fa59	0.0012434229
67	0xb9e330dc	-0.00043333217
68	0x39dc6358	0.00042035687
69	0xb93ed582	-0.0001819935
70	0x3950e97f	0.0001992341
71	0xb99c1e39	-0.00029777156
72	0x39a8e30c	0.0003221262
73	0xb88e997b	-6.7996756e-05
74	0x394c6fe9	0.00019496646
75	0x39cbed02	0.00038895762
76	0xb89a3437	-7.353018e-05
77	0x3a563d5c	0.00081725954
78	0xb8d64dd9	-0.000102188154
79	0x380f26d5	3.4130022e-05
80	0xb90c2a86	-0.00013367282
81	0x388672b0	6.41098e-05
82	0x3a374903	0.00069917756
83	0xba24b967	-0.00062837306
84	0x3815002d	3.5524532e-05
85	0x39273b6c	0.00015948497
86	0x3a4d8637	0.0007840129
87	0x3a24251c	0.0006261633
88	0xb7ec9c41	-2.8206154e-05
89	0x39105bb1	0.00013767068
90	0xb7aaea0d	-2.0374568e-05
91	0xb867f10d	-5.5299188e-05
92	0x38e67678	0.00010989321
93	0xb9d8dfe9	-0.00041365557
94	0x3a2d1e31	0.0006603925
95	0xb8e05004	-0.000106960564
96	0x35f5dfc7	1.831905e-06
97	0x36fcd43c	7.5348926e-06
98	0xb630d71f	-2.635126e-06
99	0x361cb35f	2.335022e-06
100	0x37133953	8.77523e-06
101	0xb50e1bb5	-5.293944e-07
102	0x370ae1e0	8.278032e-06
103	0x36ac254f	5.1303427e-06
104	0x35c4ae38	1.4653842e-06
105	0x36025930	1.9423424e-06
106	0x35e8d023	1.7345923e-06
107	0x369c35ac	4.6554105e-06
108	0x35942f6c	1.1040661e-06
109	0x36f36db1	7.254734e-06
110	0x36ea09a2	6.974865e-06
111	0x37b919fc	2.2065818e-05
112	0x36a348ca	4.8662523e-06
113	0x3521ca4e	6.0271566e-07
114	0x350b4ed2	5.1896234e-07
115	0x3705c51e	7.973313e-06
116	0x36e0832f	6.690992e-06
117	0x3609d60b	2.053918e-06
118	0x362a577e	2.5382901e-06
119	0x35445696	7.314169e-07
120	0x3604cff8	1.9790587e-06
121	0x3435609d	1.6892086e-07
122	0x352dc65a	6.473616e-07
123	0x36cd603e	6.12068e-06
124	0x3714015b	8.821803e-06
125	0x34a216f3	3.019155e-07
126	0x364136cb	2.8791135e-06
127	0xb50d34f3	-5.2603644e-07
128	0x3a2fd1d0	0.0006706985
129	0xba57dbf1	-0.0008234373
130	0x3aa24f99	0.0012383341
131	0xba964655	-0.0011465052
132	0x3a08b1dc	0.00052144914
133	0x3895b793	7.139067e-05
134	0x39ee6acf	0.00045474476
135	0xb68d01de	-4.202345e-06
136	0xb9b23346	-0.00033989007
137	0xb975287a	-0.000233801
138	0x39a9f96c	0.00032420026
139	0x3ab1c91c	0.0013563964
140	0x38193159	3.6524e-05
141	0xb98a411d	-0.00026369924
142	0x3a4d85cd	0.0007840067
143	0x373be2fd	1.1198918e-05
144	0xb8101a98	-3.4357043e-05
145	0xb94bd3c5	-0.00019438479
146	0x3a7a9244	0.00095585384
147	0xb92fa3ed	-0.00016750368
148	0x3a0c0c95	0.0005342451
149	0x3a352d83	0.0006911384
150	0x3a499410	0.00076896045
151	0x3a7c777b	0.0009630841
152	0x373884f8	1.0998214e-05
153	0xb8d5aaf2	-0.000101884725
154	0xb9a49852	-0.00031394005
155	0x38d9ce4e	0.000103857936
156	0x3a6f7ba1	0.00091355486
157	0xb9b9c470	-0.00035432307
158	0x3aefa432	0.0018283187
159	0x3a23fdf2	0.00062557973
160	0x3899764f	7.317645e-05
161	0x3a122a7d	0.0005575789
162	0x3a3fc4c3	0.00073153916
163	0x3ac940e1	0.0015354418
164	0x3776ae30	1.4703299e-05
165	0x39b74086	0.00034952554
166	0x39f009f7	0.00045783792
167	0x3879bca3	5.9541908e-05
168	0xb8426901	-4.6350997e-05
169	0x393de68b	0.00018110329
170	0x3a9ff8b0	0.0012204852
171	0xb93b8728	-0.0001788406
172	0x39e3c632	0.0004344448
173	0x3a4a35b6	0.0007713692
174	0x3966bf42	0.00022005758
175	0x39641ba1	0.00021754067
176	0xb719600d	-9.141874e-06
177	0x39bcff58	0.000360484
178	0x3a83db33	0.0010059833
179	0xb794a3ce	-1.7719252e-05
180	0x3881aac7	6.183009e-05
181	0x39cbf77a	0.00038903562
182	0x3a65511d	0.00087477436
183	0x383d4054	4.512102e-05
184	0xb8cca6e7	-9.758566e-05
185	0x37d05443	2.483477e-05
186	0x39602e9e	0.00021379671
187	0x39c090fe	0.0003672912
188	0x3a26b07f	0.00063586974
189	0xb9164028	-0.00014329015
190	0xb929c2a0	-0.000161896
191	0x39938b0e	0.0002814163
192	0xb8f46536	-0.00011653679
193	0x39819962	0.00024719076
194	0x39bdec9e	0.00036225183
195	0xbad34cb8	-0.0016120886
196	0x39069da1	0.00012837957
197	0xba20f005	-0.00061392813
198	0xb962ef11	-0.00021642099
199	0x388782d8	6.461673e-05
200	0xb920d9f6	-0.00015339986
201	0x3a4163aa	0.0007377217
202	0x39aa3f5d	0.00032472136
203	0x38e119d4	0.00010733647
204	0xba28bb89	-0.00064366363
205	0x39e503ad	0.00043681022
206	0xba4ac699	-0.0007735282
207	0x3973e8a3	0.0002326095
208	0xb8dcc19e	-0.000105264815
209	0x39796753	0.00023784982
210	0x39a42bb4	0.0003131308
211	0x38c66c87	9.4615905e-05
212	0xb83e8666	-4.54247e-05
213	0x397ca55f	0.00024094198
214	0x38856063	6.3598876e-05
215	0xb9138520	-0.00014068605
216	0xba893b4b	-0.0010469941
217	0xba0380e4	-0.00050164596
218	0x3991f925	0.00027842182
219	0xb742ed92	-1.1618615e-05
220	0xb8999556	-7.3234245e-05
221	0xbaf08edb	-0.0018353121
222	0xb9264180	-0.00015855394
223	0xba3060a0	-0.00067282654
224	0xba42f500	-0.00074370205
225	0x3ad09f54	0.0015916624
226	0xba19616a	-0.00058510026
227	0xb9973238	-0.0002883838
228	0xb8fe7cb0	-0.00012134889
229	0xb7b0a1f8	-2.1056258e-05
230	0x39e56515	0.00043753596
231	0x39a8b832	0.00032180693
232	0xb9870e5d	-0.00025759908
233	0xb685d96f	-3.9890215e-06
234	0x39c47533	0.00037471353
235	0xb85fffe6	-5.3405667e-05
236	0x39dad2f1	0.00041737364
237	0xb8c56d65	-9.414068e-05
238	0x399de9e2	0.0003011963
239	0x3a0c6350	0.0005355375
240	0x38ce2361	9.829435e-05
241	0xb83ff36e	-4.576466e-05
242	0x391560ef	0.00014245858
243	0xb9fa3042	-0.0004771967
244	0xb98f7918	-0.00027365307
245	0x3a01409c	0.0004930587
246	0xb97e5db4	-0.00024258235
247	0xba68fb62	-0.00088875566
248	0x37b2cdbd	2.1315058e-05
249	0x39da39bb	0.00041623213
250	0x3812072f	3.4815803e-05
251	0x39a553c9	0.00031533677
252	0xb9788777	-0.00023701588
253	0x3a7682f2	0.00094036676
254	0xb9784e3c	-0.00023680268
255	0x390ebd12	0.0001361261

exp_avg_sq f4 [16, 32]
0	0x32b7ae6a	2.1383318e-08
1	0x34a33df7	3.04062e-07
2	0x3506f505	5.027544e-07
3	0x3561d037	8.4122024e-07
4	0x34011b9b	1.2024104e-07
5	0x33f42c84	1.1370233e-07
6	0x347f33b7	2.376754e-07
7	0x3398d72c	7.117191e-08
8	0x341aa20d	1.4401321e-07
9	0x3339f2f7	4.3294644e-08
10	0x35a1c102	1.2051607e-06
11	0x336d6858	5.5275763e-08
12	0x34389ad2	1.7192659e-07
13	0x33637080	5.2954874e-08
14	0x3478429c	2.3121032e-07
15	0x3488bd8e	2.5469893e-07
16	0x3377433b	5.7570315e-08
17	0x334c8623	4.7619448e-08
18	0x341b3c53	1.4457446e-07
19	0x334b1b82	4.728964e-08
20	0x32d163f3	2.4376254e-08
21	0x3545ada5	7.3640905e-07
22	0x337d9355	5.904015e-08
23	0x33c6abc1	9.251335e-08
24	0x32faa50d	2.9178887e-08
25	0x3387e229	6.327566e-08
26	0x32ced36a	2.4077696e-08
27	0x33425def	4.5254577e-08
28	0x35ac4f67	1.2838108e-06
29	0x342029e5	1.4916402e-07
30	0x33e164a7	1.04956875e-07
31	0x3448617c	1.8661916e-07
32	0x35b90e57	1.3787748e-06
33	0x36c4fbfc	5.87059e-06
34	0x3751cbad	1.2504793e-05
35	0x36e95b95	6.9546027e-06
36	0x369bdf8d	4.6453847e-06
37	0x3606f7ac	2.011172e-06
38	0x3661e666	3.3661722e-06
39	0x3610d967	2.1584217e-06
40	0x368046ae	3.8229255e-06
41	0x35824958	9.707101e-07
42	0x36fd8529	7.5554894e-06
43	0x364cdba5	3.0526219e-06
44	0x359d1596	1.1703694e-06
45	0x36a12be9	4.8032857e-06
46	0x3612f001	2.1895396e-06
47	0x377405ae	1.4544856e-05
48	0x3518c68e	5.691335e-07
49	0x3561361b	8.3897766e-07
50	0x3698826e	4.545137e-06
51	0x35a8710b	1.2549875e-06
52	0x34f1e519	4.505644e-07
53	0x36bf22db	5.6963013e-06
54	0x354674f0	7.3930914e-07
55	0x35af5b04	1.3065005e-06
56	0x35ac58af	1.2840809e-06
57	0x357014fd	8.943751e-07
58	0x35d372c7	1.575413e-06
59	0x358180c6	9.648727e-07
60	0x373b8a15	1.1178218e-05
61	0x36740eb5	3.6367394e-06
62	0x36318433	2.6452005e-06
63	0x3619f505	2.2941397e-06
64	0x34943f0b	2.7613018e-07
65	0x34dfbf44	4.167615e-07
66	0x35869b02	1.0028891e-06
67	0x3527d008	6.2515073e-07
68	0x3497d496	2.8280618e-07
69	0x33cad0e0	9.444352e-08
70	0x34eb8703	4.3870395e-07
71	0x34a122e0	3.0013962e-07
72	0x342002f6	1.4902238e-07
73	0x348dffdb	2.6449456e-07
74	0x357fccd9	9.5292995e-07
75	0x35b7f589	1.3706023e-06
76	0x36ab3e1e	5.1034285e-06
77	0x34bd2e46	3.5237662e-07
78	0x32ac64be	2.0069248e-08
79	0x34b19ac0	3.3081415e-07
80	0x3608b251	2.0369373e-06
81	0x35b511a2	1.3490683e-06
82	0x35042ca8	4.9238815e-07
83	0x35a56f8e	1.2325925e-06
84	0x344f077f	1.9281104e-07
85	0x3587544f	1.0082821e-06
86	0x356b7315	8.771179e-07
87	0x34250c53	1.5371306e-07
88	0x340aa095	1.2910671e-07
89	0x3694b037	4.431258e-06
90	0x335ce9be	5.143533e-08
91	0x34fc72fb	4.7022317e-07
92	0x3584f603	9.906365e-07
93	0x342aefa3	1.5919663e-07
94	0x34927d01	2.7285571e-07
95	0x3529d3fe	6.3265895e-07
96	0x35fffa6c	1.9071863e-06
97	0x3688458e	4.061213e-06
98	0x35243183	6.116681e-07
99	0x3550dbd2	7.780592e-07
100	0x35af8912	1.3078409e-06
101	0x34b75296	3.4146495e-07
102	0x36deaf34	6.636512e-06
103	0x36908b86	4.307777e-06
104	0x36e605e7	6.8552213e-06
105	0x356964e6	8.694609e-07
106	0x362ea9ee	2.6026933e-06
107	0x352c87f9	6.427286e-07
108	0x37011a99	7.695192e-06
109	0x36c7b930	5.952221e-06
110	0x33489358	4.6700137e-08
111	0x372bd2ee	1.0241505e-05
112	0x3634f066	2.696202e-06
113	0x36e99dc9	6.9623097e-06
114	0x354183fa	7.2090154e-07
115	0x369bdc65	4.6450173e-06
116	0x3597af39	1.1301373e-06
117	0x358da579	1.0553478e-06
118	0x3574c65e	9.1185746e-07
119	0x3686beb4	4.015712e-06
120	0x349c0656	2.9061874e-07
121	0x366c21c6	3.51864e-06
122	0x35c05a04	1.4331313e-06
123	0x366e3ba5	3.5499481e-06
124	0x35be44a3	1.4176079e-06
125	0x359c0b21	1.1626145e-06
126	0x350afe75	5.177929e-07
127	0x35a95945	1.2617462e-06
128	0x37069650	8.02202e-06
129	0x372256cd	9.676162e-06
130	0x37957a97	1.781927e-05
131	0x375f361d	1.3304435e-05
132	0x3690fa61	4.3206824e-06
133	0x36074176	2.015467e-06
134	0x35c4a23b	1.4650353e-06
135	0x37319e2b	1.05868485e-05
136	0x3777258f	1.4731092e-05
137	0x361f73b6	2.37602e-06
138	0x376e3884	1.4199064e-05
139	0x37171019	9.004049e-06
140	0x3638aa9c	2.7517444e-06
141	0x377e295c	1.51492095e-05
142	0x36237f9e	2.4363176e-06
143	0x3796f92c	1.7997423e-05
144	0x3690033a	4.29191e-06
145	0x36c9fada	6.0194698e-06
146	0x36f37f6b	7.2567977e-06
147	0x372ad176	1.01815585e-05
148	0x361e0e7e	2.355227e-06
149	0x377f3a64	1.52127795e-05
150	0x3681979d	3.8621497e-06
151	0x372aebb3	1.0187668e-05
152	0x36171ef3	2.2518768e-06
153	0x36ec2e96	7.0387714e-06
154	0x35f58643	1.8292998e-06
155	0x36e8a91a	6.933825e-06
156	0x372d3f30	1.03263155e-05
157	0x3701b894	7.731975e-06
158	0x36d02a7a	6.203828e-06
159	0x3689c10c	4.105392e-06
160	0x330191ef	3.016788e-08
161	0x361b9670	2.3184366e-06
162	0x351e74c9	5.902953e-07
163	0x36851bbd	3.966938e-06
164	0x340923f2	1.2772196e-07
165	0x346ba138	2.1944732e-07
166	0x3568063e	8.643582e-07
167	0x334cd80b	4.769394e-08
168	0x34c0a6c7	3.5884133e-07
169	0x34cb9050	3.7916698e-07
170	0x355e359c	8.2779457e-07
171	0x35b185dd	1.3226487e-06
172	0x3690de56	4.3174177e-06
173	0x349b6cec	2.895025e-07
174	0x3565545f	8.5431924e-07
175	0x3502793b	4.860519e-07
176	0x341f2072	1.4819832e-07
177	0x34dab9a8	4.0740747e-07
178	0x35871f36	1.0067367e-06
179	0x34427aef	1.8112381e-07
180	0x3312444d	3.4055393e-08
181	0x34a15d64	3.0056538e-07
182	0x3506ce94	5.02195e-07
183	0x34cdb88f	3.831851e-07
184	0x35a445dd	1.2239285e-06
185	0x35566549	7.98686e-07
186	0x33798a2a	5.810049e-08
187	0x3482c07f	2.4354446e-07
188	0x35fb7dff	1.8737627e-06
189	0x35fdc85f	1.8908285e-06
190	0x3458097f	2.0120022e-07
191	0x360e6671	2.1219278e-06
192	0x3307699e	3.1528195e-08
193	0x364b9f24	3.034199e-06
194	0x348969a2	2.5595097e-07
195	0x366a1975	3.4883535e-06
196	0x341cf6c3	1.4618404e-07
197	0x34bd2237	3.5228888e-07
198	0x3562ce3c	8.449167e-07
199	0x33bef26d	8.8916615e-08
200	0x343351fc	1.67005e-07
201	0x35029c09	4.8655835e-07
202	0x35675e6e	8.619162e-07
203	0x34c9204e	3.7462672e-07
204	0x368dafee	4.2226084e-06
205	0x34523bbf	1.957951e-07
206	0x35269f44	6.207158e-07
207	0x3551ae95	7.811262e-07
208	0x33266f28	3.8750983e-08
209	0x350cad21	5.2406e-07
210	0x3524dd8c	6.1417154e-07
211	0x333fee67	4.468748e-08
212	0x33719bf7	5.6254034e-08
213	0x34a96eee	3.1559415e-07
214	0x34928ac2	2.729558e-07
215	0x33f372db	1.13364614e-07
216	0x35bd18ec	1.408885e-06
217	0x34c5e962	3.6863918e-07
218	0x342b08ea	1.5928859e-07
219	0x33fb62fd	1.1706104e-07
220	0x3584eb64	9.903274e-07
221	0x352a8d4c	6.353555e-07
222	0x3311f7ad	3.3985703e-08
223	0x3594ebbf	1.109547e-06
224	0x34305c98	1.6424963e-07
225	0x35a53862	1.2309868e-06
226	0x352cbeff	6.435293e-07
227	0x34874d64	2.520202e-07
228	0x34c4f4a1	3.6685836e-07
229	0x33a32d00	7.5984644e-08
230	0x34a1afda	3.0116536e-07
231	0x348c1412	2.6091635e-07
232	0x3492a088	2.731142e-07
233	0x33b71100	8.524694e-08
234	0x33a02774	7.457757e-08
235	0x35e94d79	1.73824e-06
236	0x33fc5b03	1.17512194e-07
237	0x357a9cfc	9.33607e-07
238	0x340933d0	1.2777969e-07
239	0x35ef7854	1.7841908e-06
240	0x33062899	3.123623e-08
241	0x34d92c63	4.0451695e-07
242	0x341cd56a	1.4606272e-07
243	0x3569096e	8.6812986e-07
244	0x342ed295	1.6281622e-07
245	0x355b0b88	8.160064e-07
246	0x34eaebff	4.3757606e-07
247	0x3505be68	4.982344e-07
248	0x32384c49	1.0727555e-08
249	0x34f50c05	4.5643552e-07
250	0x340f777d	1.3361382e-07
251	0x3393a722	6.875622e-08
252	0x35b0a5a0	1.3161225e-06
253	0x35286354	6.272942e-07
254	0x340a342e	1.2871234e-07
255	0x34c15499	3.6010604e-07

exp_avg f4 [16]
0	0xb581f810	-9.683445e-07
1	0xba63a091	-0.0008683289
2	0x39cac298	0.00038673426
3	0x36d2027a	6.258776e-06
4	0xb9a33683	-0.00031130397
5	0x3a81ee2d	0.0009912901
6	0x38ede297	0.00011343246
7	0xb933df45	-0.00017153945
8	0xb98e806e	-0.00027180038
9	0xb969b9ca	-0.00022289823
10	0xb9b093ed	-0.0003367955
11	0xba332cd9	-0.0006834991
12	0x39d2c46e	0.00040200673
13	0x390eec96	0.0001363031
14	0xba0a7695	-0.00052819523
15	0x39bf7ad6	0.0003652188
