vertex-custom-ml/pytorch/custom_jobs/pytorch_tabular/training/saved_models/classification-2_epoch=30-valid_loss=0.16.ckpt (torch, 58438 bytes, 38 tensors)

_backbone.linear_layers.0.weight f4 [32, 28]
000000 4e 43 ed bd c8 7c 85 be 80 7b 15 bd 4b 2f bb bd
       -0.11585103 -0.26071763 -0.036494732 -0.0913988
000010 eb c6 27 3d 11 f6 1d be 01 aa b5 be ac 3e 2f bf
       0.040961187 -0.15425898 -0.35481265 -0.68455005
000020 db 0d 04 bc 08 8a 1b be 76 4e 47 3f 11 53 f3 bd
       -0.008059944 -0.15189373 0.77854097 -0.11881078
000030 7d 7e b7 bd eb f3 7d bc fd f3 bf 3c f0 cc 52 bd
       -0.089596726 -0.015500049 0.023431772 -0.051464975
000040 7c 9b 5d 3e b7 58 29 3c 6b 46 c8 be d6 a1 36 bd
       0.21641344 0.010336093 -0.39116225 -0.044587933
000050 fe 06 f8 bd 6f 30 d5 be a2 29 2b be 17 c8 4f 3e
       -0.12110709 -0.41638514 -0.167151 0.20291172
000060 10 55 85 3e 89 a0 89 3d ca 65 1e 3e eb 13 11 be
       0.2604146 0.06720073 0.15468517 -0.14167754
000070 42 be 98 3e ec ea 76 3e 7a fe 4d bc 59 7f a1 3d
       0.29832655 0.24113053 -0.012572879 0.07885618
000080 78 2c 02 bf 37 7b 58 be 37 74 60 3e 2e e1 56 3e
       -0.50849104 -0.21140753 0.21919332 0.20984337
000090 73 95 0a be 70 28 93 3c 1c 03 16 bf da 01 b6 be
       -0.13533573 0.017963618 -0.58598495 -0.35548288
0000a0 24 81 62 3e ef f2 62 3e 47 01 49 3e 36 18 4c be
       0.22119576 0.22162984 0.19629394 -0.1993111
0000b0 91 d1 88 be f7 5e 8a be 74 ab 94 bc 98 ff a1 be
       -0.26722386 -0.27025577 -0.018148161 -0.31640315
0000c0 f2 cb c9 3e bd 0f 02 bd 35 ae 43 ba 76 3b da 3d
       0.3941341 -0.03175329 -0.00074646185 0.106558725
0000d0 a6 95 3f bd e1 3e e0 3d 31 fc 52 be 61 cd 16 3e
       -0.046773575 0.10949493 -0.20604016 0.14726783
0000e0 8d f8 a7 bd b2 e6 02 bf 21 c6 97 3d c7 8f 17 be
       -0.08201704 -0.51133263 0.07410837 -0.1480094
0000f0 3d 59 1d 3f ad 29 94 3e ce 7f 4a 3d 12 08 98 be
       0.6146429 0.28938046 0.04943829 -0.29693657
000100 4c 47 cc 3e 55 53 a4 bd 0e 6e 6c 3e 5c 29 b8 bd
       0.39898145 -0.08023707 0.23088858 -0.08992264
000110 42 01 81 bd 52 ad be 3e 28 74 24 3e 69 da 50 3d
       -0.06299068 0.37241608 0.16059935 0.050989542
000120 0c fc c3 bd 8f 94 ce bd d0 76 8c 3e 08 29 83 3e
       -0.095695585 -0.10086929 0.27434397 0.25617242
000130 21 b8 08 be b9 74 81 be 9b 30 0e 3d 6e f9 03 be
       -0.1335149 -0.25284365 0.034714323 -0.12888119
000140 4b b8 86 3e 89 23 9b bd db 01 34 bc 6b 52 d0 bd
       0.2631248 -0.07575137 -0.0109867705 -0.1017197
000150 92 e1 0a 3b 9d 65 b3 3d eb e4 b3 be 7f 47 52 be
       0.002119158 0.087596156 -0.35135588 -0.20535086
000160 5c aa d6 be da f6 8c bd 03 c7 46 3e 9e cf 0c bf
       -0.4192685 -0.06883021 0.19411854 -0.550043
000170 d6 a3 4f 3e 38 bf d6 3e 4e 1e 0d be 4b d9 c3 3d
       0.20277342 0.41942763 -0.13781092 0.0956293
000180 99 d6 f7 3d 71 49 15 3e c5 a7 c2 3d 02 2a d8 3e
       0.12101478 0.14578797 0.09504656 0.4221955
000190 7f 85 13 bd d1 83 83 3e 70 c8 c0 3e d3 cb 89 3d
       -0.036015984 0.25686505 0.37652922 0.067283295
0001a0 00 21 6f bd 68 a2 18 be ce 06 01 bf 66 04 b3 3e
       -0.05838108 -0.14905703 -0.5040101 0.34964293
0001b0 de 00 ce 3e 0e f3 41 3e 39 34 50 3e ec 4d 82 bd
       0.40235037 0.18940374 0.20332421 -0.06362519
0001c0 c7 af d1 3e fa 7d db 3e de 8a fa bd 10 c2 b3 bd
       0.4095442 0.4286955 -0.12233518 -0.08777249
0001d0 7b c3 3d bf 8c 49 5c 3c 1f d2 0f 3e 1b cf 52 bf
       -0.74126405 0.013445269 0.14044999 -0.8234727
0001e0 49 77 ab bd b5 be 40 be 1a d8 44 bf f3 db be 3e
       -0.08372361 -0.18822749 -0.76892245 0.37277183
0001f0 aa 00 1a 3e 2c 81 21 3e dd 62 d8 bd 12 d9 44 3e
       0.15039316 0.15771931 -0.10565732 0.19223431
000200 4a 9a ed 3d ef 6b 94 3c 34 7a 0c 3e 12 3f 37 3e
       0.11601694 0.018117873 0.13718492 0.17895153
000210 bf 8b 5f 3d 18 60 5f be 05 87 d0 bd 8f f7 41 3e
       0.05457663 -0.21814 -0.10182003 0.18942092
000220 e2 49 4a be 26 35 25 3d 39 d7 f9 bd 74 43 52 bd
       -0.19754747 0.04033389 -0.121992536 -0.05133386
000230 c6 4a af bd ce 43 fd 3e 6a 12 d8 bd f6 6d 91 3e
       -0.08559184 0.49465793 -0.10550387 0.28404206
000240 f8 d5 ec bd e1 21 87 bb 66 27 8f bb 8a 2a 91 3d
       -0.11564249 -0.0041239117 -0.0043687103 0.07088192
000250 cb eb 60 3e a4 2b b1 3e c9 00 21 3f 33 b7 26 be
       0.21964948 0.34603608 0.62891823 -0.16280822
000260 22 9b 6c 3d aa 5b ec bd 80 67 8f bd 74 f3 28 be
       0.057765134 -0.11540921 -0.07002163 -0.1649912
000270 ce 7d df 3e 3a c3 83 3f 46 ba 69 be 2c c5 5f 3e
       0.4365067 1.0293953 -0.22824964 0.21852559
000280 46 af 2d 3e e7 c2 3a be 2b 0c de 3e ab c6 7a be
       0.16961393 -0.18238412 0.43368658 -0.24489848
000290 62 0d 03 3e e6 8e 42 be 75 e2 ea bc e0 cd b3 bd
       0.12798074 -0.18999824 -0.028672436 -0.08779502
0002a0 42 5b 8b be e1 6f 4f 3f 30 9b 11 be 77 31 38 bc
       -0.27218062 0.8103009 -0.14219356 -0.011242262
0002b0 93 21 c1 be fe fc ff bd 68 f3 6a 3e 36 51 6c 3f
       -0.37720928 -0.12499426 0.22944415 0.9231142
0002c0 6e e0 59 bd d3 c5 db 3d ed 60 7e 3e dd d4 a2 3e
       -0.05319255 0.10731091 0.24841662 0.31803027
0002d0 bc 6a 22 3e 35 13 11 bd 6d 4c ad bc 26 11 b9 3d
       0.15861028 -0.035418708 -0.021154607 0.09036474
0002e0 5e 58 b4 3e 99 b8 a0 3e c9 ca 8b bd 11 ac 32 bd
       0.3522367 0.31390837 -0.068257876 -0.043621127
0002f0 13 69 0c 3e 37 c8 6a be e5 5a 86 be 56 e2 88 3e
       0.13711958 -0.22927938 -0.26241222 0.2673518
000300 e0 b0 0f 3e 46 78 34 3c 0c 92 87 3e 87 4b 12 3e
       0.14032316 0.011015004 0.26478612 0.14286624
000310 73 28 f5 3e c5 6c d2 be fb 62 d8 bd 10 9a e9 bd
       0.47882423 -0.4109861 -0.10565754 -0.11406338
000320 9b 15 59 3f 2c b9 02 be b0 0a 45 be f6 a0 e2 be
       0.8479859 -0.1276595 -0.19242358 -0.44263428
000330 8e c6 8e 3c 67 92 0a be 26 3a d9 3e 55 79 04 bf
       0.017428663 -0.1353241 0.42427176 -0.5174764
000340 d9 aa 08 be 7a 74 f8 3c a3 3f e0 bd 0a 23 0d 3a
       -0.13346423 0.030328978 -0.10949638 0.00053839444
000350 26 e9 7e 3e b8 a6 09 be 2e d5 0e bd 58 89 c5 3e
       0.24893627 -0.13442504 -0.034871273 0.38581347
000360 90 f9 89 be 50 d9 87 be 0e 12 d8 3d 7c 14 24 be
       -0.26948214 -0.26532984 0.10550319 -0.16023439
000370 cb 6c af 3e 4a 53 cc 3d f4 35 54 be ce aa 87 3c
       0.3426269 0.09976824 -0.20723706 0.016560938
000380 de 5a e0 3d 10 8a 3a be 2f 70 d3 3e 3b ba 58 be
       0.109548315 -0.18216729 0.41296527 -0.21164791
000390 5e ae 4f bd 2a a9 dd bd dd d8 f4 3e d8 bb 77 be
       -0.0507034 -0.10823281 0.47821704 -0.2419275
0003a0 b0 34 76 3e fb b3 b5 be b2 91 f7 3e 7a f6 23 be
       0.24043536 -0.35488877 0.48353344 -0.16011992
0003b0 8e 54 c5 3d fa 18 78 be 53 21 1a 3e b7 0d 4e 3e
       0.09635268 -0.24228278 0.15051775 0.2012242
0003c0 89 30 a3 be ec d3 fb 3d 9d 01 c2 3e 7f 09 b4 be
       -0.31872967 0.1229628 0.37891856 -0.35163495
0003d0 b8 00 ad 3e 36 df b7 3d ef e4 54 bc 18 bc 0e 3f
       0.3378961 0.08978121 -0.012994035 0.5575576
0003e0 9e 48 96 3e 67 d6 ed be d8 0f a7 3e 61 11 d8 3e
       0.29352278 -0.46452639 0.32629275 0.4220076
0003f0 4b 6d 87 3e 11 59 7f be 3d 2d 8f 3d d3 b0 42 bd
       0.2645057 -0.2493632 0.069910504 -0.047531914

_backbone.linear_layers.0.bias f4 [32]
000000 c4 d1 cd bd 6b b7 84 bc 95 00 68 be 45 96 dc be
       -0.10049775 -0.016200742 -0.22656472 -0.43083397
000010 fa 55 57 3e bb 09 bd bd e4 43 95 bd 16 77 08 be
       0.21028891 -0.092303716 -0.0728834 -0.13326678
000020 70 a6 dc bc f3 8d 46 3e c8 19 4e be 97 23 4d bd
       -0.026934832 0.19390087 -0.20127022 -0.05008277
000030 4f 58 cc bd be e5 ce bd e2 7a d4 be 53 ea 48 3d
       -0.09977781 -0.101024136 -0.41500002 0.049051594
000040 fa 66 db 3d 05 b3 b6 3d 88 02 27 3e 63 59 19 be
       0.107130006 0.08920864 0.1630956 -0.14975505
000050 78 3d 96 bd 9b 7a 49 bd 9f 3f 04 bd 79 c4 c0 be
       -0.07335943 -0.04918919 -0.032287236 -0.37649897
000060 43 0a aa be e5 0e 13 be 9b 5a b3 be 48 5d 3a bd
       -0.33210954 -0.1436115 -0.35030064 -0.045499116
000070 c8 3f f9 3d ab 5f 25 be 30 96 35 bd 57 88 fa 3d
       0.121703684 -0.16149776 -0.044332683 0.12233036

_backbone.linear_layers.3.weight f4 [16, 32]
000000 1e f0 0f 3e 44 02 b4 3d 99 92 60 3d 83 4f 53 3e
       0.14056441 0.08789495 0.054827306 0.206358
000010 63 83 dd be 8e 43 9b bb 5b 7a 4c 3e ed 15 77 3d
       -0.43264303 -0.0047382778 0.1996855 0.060323644
000020 b7 39 a2 bd 78 4a 26 3e 68 c0 24 3e ee 8c c2 be
       -0.079211645 0.16239345 0.16089022 -0.37998146
000030 9c 81 dd 3e df 7e ca be 93 a1 5f 3e dc 2d 4b 3d
       0.43262947 -0.3954992 0.2183898 0.04960428
000040 b8 54 5f 3e eb 2f a5 be 7e d7 ff 3c e2 62 51 be
       0.21809661 -0.3226312 0.031230684 -0.20447877
000050 b1 ed df 3d 0f f1 7a 3e 7a 08 99 be ab cb 2d be
       0.10934008 0.24506019 -0.2988928 -0.16972224
000060 08 3b 1f bf b0 0d 67 3e a3 a6 08 3f 56 b2 11 bd
       -0.6219945 0.22563815 0.5337927 -0.035570465
000070 5d 69 ad 3c 42 f7 39 3a ff 2f f2 be fc cb 3a be
       0.021168405 0.0007094034 -0.47302243 -0.18241876
000080 8d c2 85 3e fc a2 4f 3e ff ee 5d 3c 1b f8 46 3e
       0.26124993 0.20277017 0.013545751 0.19430582
000090 4f 36 e0 3e 8c 37 4b bd 83 7b 3e 3e 69 96 89 3d
       0.43791434 -0.04961352 0.18601803 0.067181416
0000a0 33 84 67 be 8b d0 d9 3e 35 0c 63 3e 8f 83 73 bd
       -0.22609024 0.42541918 0.22172625 -0.059451636
0000b0 f4 d1 d1 be 71 b8 17 3e d5 4c 86 be 95 7c 24 3f
       -0.40980494 0.14816453 -0.26230493 0.642526
0000c0 b5 9e 73 be d4 11 10 bf ed f8 c9 3e d6 3c 05 bf
       -0.2379101 -0.56277204 0.39447728 -0.52045953
0000d0 49 b1 a3 bd 2d 1f 1c be 7b 82 55 be b5 48 eb be
       -0.07992799 -0.15246268 -0.20850556 -0.4595391
0000e0 6e b0 29 bf 63 35 c4 be 80 5b 8b bd 71 36 af bd
       -0.66284835 -0.3832198 -0.068045616 -0.08555306
0000f0 e5 34 1d 3e f3 92 84 bd 73 89 30 3c 32 88 5f 3d
       0.15352209 -0.06473341 0.010774958 0.054573245
000100 1d ab e7 ba 24 06 08 bf 78 df 4b 3d 91 d2 1b be
       -0.0017674897 -0.5313437 0.049773663 -0.15217043
000110 81 fa 9d bd f6 a6 ea bd a8 99 d4 be 05 44 fd be
       -0.077137955 -0.114576265 -0.4152348 -0.49465957
000120 e3 af 08 be df 2e e4 be 23 98 76 be a4 a3 95 3e
       -0.13348345 -0.4456701 -0.24081473 0.2922641
000130 a3 67 c6 3e ed 91 d5 be 74 14 e2 be 1d ea 62 bd
       0.38750944 -0.41712895 -0.4415623 -0.05539905
000140 6e 5e ea bd 5d 70 78 bd b2 f3 a0 3d 51 ee 70 3e
       -0.11443792 -0.060654033 0.07858981 0.2352841
000150 df 9e a5 be 92 58 b2 3d 58 4b 1e bd dd cd 9b be
       -0.32347772 0.087083 -0.038646072 -0.304305
000160 37 3f eb 3c 68 12 9a 3e 74 f0 cd be 5d c5 92 bd
       0.028716667 0.30092168 -0.40222514 -0.0716655
000170 92 a2 66 be 24 c7 d0 be 02 41 e1 bc 2f fd 71 be
       -0.22522953 -0.40776932 -0.027496818 -0.23631738
000180 34 5d bf be b2 36 6c be 2f 63 de be 15 b5 c2 be
       -0.37375796 -0.2306774 -0.43435046 -0.3802878
000190 a1 72 ec 3d c4 af 1c bf 3e b6 94 3e 20 5c 8a 3e
       0.11545301 -0.612057 0.2904529 0.2702341
0001a0 c3 ce f9 bd 29 aa ee bd 50 93 82 bc 3e ae 18 3d
       -0.1219764 -0.11653549 -0.015939385 0.037275545
0001b0 95 91 25 3e 6a af b0 3d 1d 7e 76 bd 06 3e b4 3e
       0.16168816 0.086272076 -0.060178865 0.3520357
0001c0 90 24 03 3e 1a ea d9 3e a1 5e 5d be 95 d6 39 3e
       0.12806916 0.42561418 -0.2161813 0.18148263
0001d0 5d c8 53 3e 2b c0 10 bf 89 47 f5 3d 6a 36 41 be
       0.20681901 -0.56543225 0.11976535 -0.18868414
0001e0 36 d4 bb 3d a1 f5 4c bd 44 c7 17 be b0 ca 96 bd
       0.091713354 -0.050038937 -0.14822108 -0.07362878
0001f0 db cc 18 bd 97 7a 19 3f ec 75 35 3e c3 0e 37 be
       -0.03730474 0.5995268 0.17720765 -0.17876725
000200 ba 8f 05 3f 9f 56 15 be 46 05 4d 3e 4c c3 67 be
       0.52172434 -0.14583825 0.20021543 -0.22633094
000210 2b 28 e9 be 35 ba 22 3e 63 c1 2c bf 54 7d 97 3e
       -0.45538458 0.15891345 -0.67482585 0.29587805
000220 63 3c 81 3d 71 ed 90 bc 0a 1a f6 3d 94 b4 5c bc
       0.06310346 -0.017691346 0.12016685 -0.013470788
000230 28 d7 b5 be c3 4c 6a 3e 32 62 7d be 5b 08 13 be
       -0.35515714 0.22880845 -0.2474449 -0.14358656
000240 e5 e4 e9 bd 4e 1d 35 3e 05 48 f6 3d fb 96 7f 3d
       -0.11420611 0.1768696 0.120254554 0.062399846
000250 63 55 94 3e 1c b2 df 3e 49 a0 a5 3e 32 ec ae be
       0.28971395 0.43690574 0.3234885 -0.34164578
000260 46 99 e5 bd 66 22 fd 3d b8 f0 8f 3e 0a 02 39 3d
       -0.11210875 0.123600766 0.2811334 0.04516796
000270 1b 5a a7 be a1 b7 5e bd e6 7d ab 3e 9a be d2 be
       -0.32685933 -0.05437434 0.3349449 -0.41161042
000280 5f 2b 68 be e9 a0 91 bd 37 05 10 bf f1 e7 a8 3e
       -0.22672795 -0.07110769 -0.5625796 0.32989457
000290 8c 9f 37 3e 97 f6 08 be 76 80 2e be 81 1c bc 3c
       0.17931956 -0.13375317 -0.17041191 0.02296281
0002a0 92 65 b1 3d 98 87 fb 3e 19 44 17 3e 4b 0e 92 be
       0.08661951 0.49126887 0.14772071 -0.2852653
0002b0 f5 8a 3f 3f a7 5c 2e be e7 d4 fe be ef 69 33 be
       0.74821407 -0.17027532 -0.49771807 -0.17520879
0002c0 ec 29 33 3e 38 5d a6 be 7a 7c 86 be 47 8c 64 3e
       0.1749646 -0.32492995 -0.26266843 0.22319137
0002d0 ce 28 3d be c3 f0 c2 be 83 79 7a 3e 07 47 1c be
       -0.18472597 -0.38074312 0.24460416 -0.1526147
0002e0 79 cb bc be cb c3 31 be 03 0c 8b be 96 db c2 bd
       -0.36873987 -0.17359845 -0.27157602 -0.09514539
0002f0 b5 97 73 bd dd cc 92 3e a2 1a f8 be 18 b9 37 3d
       -0.05947085 0.28671923 -0.4845782 0.044854254
000300 ad b0 8f be 3b 69 86 3e b3 c9 78 be b5 38 e6 bd
       -0.2806448 0.2625216 -0.24295692 -0.11241285
000310 95 30 66 3e c3 42 60 3e 47 60 48 be ef 8a a2 be
       0.2247947 0.21900468 -0.19567977 -0.31746623
000320 18 50 25 3d 94 a0 c5 3e 3c e9 ac 3e 49 32 a8 bc
       0.040359586 0.38599074 0.33771694 -0.02053179
000330 18 ac fb 3e 0c 68 58 3d 8d 80 37 bf 11 cb 8c 3d
       0.49154735 0.0528336 -0.7168053 0.06874669
000340 46 3b d5 bd 95 e1 b3 be ed 48 8c 3e 82 da c1 bd
       -0.10411696 -0.35133043 0.27399388 -0.09465505
000350 74 69 84 bd 82 7b 17 bd 04 4b ea bd 07 96 d8 be
       -0.06465426 -0.03698302 -0.11440089 -0.42301962
000360 5f b4 bd be ba ea 13 bf 57 c5 51 bf 0d 89 ad bd
       -0.37051675 -0.5778004 -0.8194174 -0.08473406
000370 51 3b f3 3d eb 39 2f be f5 9e ba be 6d 3b 1d 3e
       0.11876548 -0.17111938 -0.364494 0.153547
000380 d7 93 2b 3e 47 48 ec be 4a 35 88 be aa 31 dd bd
       0.16755615 -0.46148893 -0.26603156 -0.10800488
000390 03 44 a2 be 7c 24 36 3e 16 cf e7 3d ad cd 67 be
       -0.31692514 0.17787355 0.113187954 -0.22637053
0003a0 d2 88 18 be 78 00 34 3d 4a 43 ce be 53 05 c9 3d
       -0.14895943 0.04394576 -0.40285712 0.09815469
0003b0 4f 13 70 be ed b4 f9 bd 3e 25 15 3f 7f 48 f5 3e
       -0.23444866 -0.12192712 0.5825995 0.47906873
0003c0 ef 1d 13 bf 06 71 b2 3e 52 91 2e be 85 d9 43 3d
       -0.5746755 0.34851855 -0.17047623 0.047814865
0003d0 01 e9 89 bd 0e 3c 39 3c 92 06 2d 3e 41 00 c3 bc
       -0.06733895 0.011305822 0.16897038 -0.023803832
0003e0 f4 4f 1e bf 7c a5 bf 3c e9 dc f4 3b e3 dc d1 be
       -0.6184075 0.023394339 0.0074726236 -0.40988836
0003f0 7d 16 c7 3c 97 c3 2a 3e 14 5a b1 be 95 8b d4 bd
       0.024302715 0.16676174 -0.34639037 -0.10378186

_backbone.linear_layers.3.bias f4 [16]
000000 29 c4 0f bd 73 d0 0a 3e 81 ee b0 bd 61 af 0e bd
       -0.035099182 0.1355608 -0.08639241 -0.034835223
000010 5b a9 c8 3d b7 7d 87 3d 10 40 9f 3e 33 7d a6 bd
       0.09797927 0.06615775 0.31103563 -0.081293486
000020 07 de 12 3e e6 b9 91 3e df cd b0 bc f9 b5 e1 bc
       0.14342509 0.28462142 -0.021582542 -0.027552592
000030 2a 73 91 bd e5 96 46 bd 41 82 86 3d 36 60 51 3e
       -0.07102044 -0.048483748 0.06567813 0.20446858

_embedding_layer.cat_embedding_layers.0.weight f4 [5, 3]
000000 31 af aa be 42 07 aa be 48 7e 08 3f 45 bf 5f bf
       -0.33336785 -0.33208662 0.5331769 -0.8740123
000010 4b 9f 8d bf df 16 f6 be eb 16 ce bf d8 8b 77 bf
       -1.1064237 -0.48064324 -1.6100744 -0.9669776
000020 26 60 f5 3f 35 ad 38 bf da 2c e8 bf 3c dc 8b be
       1.9169967 -0.7213929 -1.8138688 -0.27316463
000030 6b 54 e0 3e 88 e5 98 3e a0 ec e6 bf
       0.43814406 0.29862618 -1.8040962

_embedding_layer.cat_embedding_layers.1.weight f4 [5, 3]
000000 89 54 9c bd d6 6f c3 3e 2b 15 a7 3f c3 7f 83 3e
       -0.07633311 0.38171262 1.3053335 0.25683412
000010 f2 70 c7 3e 57 00 1f 3d 74 da 82 bf 79 b9 bc be
       0.38953358 0.038818683 -1.0222917 -0.36860254
000020 41 9a 52 3f 51 e1 96 bf ed cd 0e bf 40 e9 b4 bd
       0.8226662 -1.1787511 -0.5578297 -0.088335514
000030 1b c1 3d bf 7c a9 bb 3e 44 95 30 3f
       -0.7412278 0.36652744 0.6897776

_embedding_layer.cat_embedding_layers.2.weight f4 [5, 3]
000000 70 14 66 be cf 88 a8 bf 27 18 31 3f 9c 57 ad bf
       -0.22468734 -1.3166751 0.6917748 -1.3542361
000010 3b 78 91 bf 66 d0 1e bf fd e1 57 3e 05 80 40 3f
       -1.1364816 -0.6203674 0.21082301 0.7519534
000020 56 71 eb be b3 1b 23 3f 0e 00 8e 3f d5 b7 8e be
       -0.45984906 0.6371414 1.1093767 -0.27874628
000030 eb fa c2 bf b5 f5 9f bf 64 61 06 bf
       -1.5232824 -1.2496859 -0.52492356

_embedding_layer.cat_embedding_layers.3.weight f4 [5, 3]
000000 41 bd 93 3f ec 8f 90 3f 94 2d 4f be a3 37 1a bf
       1.1542131 1.1293921 -0.2023223 -0.60241145
000010 93 be 90 bf 65 b3 a9 3e 48 2a cd 3f 2c 08 c9 3d
       -1.1308159 0.3314468 1.6028528 0.09816012
000020 96 b7 d8 bf df 23 f1 3f a1 75 3a 3f e3 8b 64 bf
       -1.6931026 1.8839072 0.7283574 -0.8927595
000030 d9 88 b0 bf 36 21 f8 be 2b cb 8b 3f
       -1.3791763 -0.48462838 1.0921377

_embedding_layer.normalizing_batch_norm.weight f4 [16]
000000 6f 67 b8 3f c8 84 b2 3f 54 05 3d 3f 0e c4 3c 3f
       1.4406565 1.3946772 0.73836255 0.73736656
000010 ca f0 c6 3f 04 e6 31 3f ee 4c 13 3f 43 47 95 3f
       1.5542233 0.694916 0.5753926 1.1662372
000020 ca 40 27 3f b8 1c 1f 3f 4d 85 b9 3f 03 ea a5 3f
       0.65333235 0.62153196 1.4493805 1.296204
000030 cc 5a 52 3f b7 80 14 3f 2b 23 36 3f 2b d3 30 3f
       0.82169795 0.58008903 0.7114741 0.69072217

_embedding_layer.normalizing_batch_norm.bias f4 [16]
000000 dc 8f 5c 3d c5 0a 38 be 23 34 74 bd db a0 dc bc
       0.053848132 -0.17972858 -0.059620034 -0.02693217
000010 93 8b 2e bc fc 58 16 3d 2a 51 cf bd 3c b3 6d be
       -0.010653394 0.036705956 -0.10122903 -0.23212904
000020 ae 87 85 3d fd 9c 23 3d d1 c7 90 3d 59 99 9c bd
       0.065200195 0.039944638 0.07069362 -0.07646436
000030 79 96 fa bc cb 49 f2 3c c9 70 de 3d 53 1a 72 3d
       -0.03058933 0.029576203 0.10861356 0.059107136

_embedding_layer.normalizing_batch_norm.running_mean f4 [16]
000000 88 51 e7 3a 62 5a 07 bb 26 1d 04 bb 1a 3b 63 3b
       0.00176482 -0.0020653238 -0.0020158975 0.0034672678
000010 cc 63 af ba 14 03 8b 3a b2 2d 72 bb 0e 5b 0b 3b
       -0.0013381182 0.0010605776 -0.0036953506 0.002126399
000020 48 5b 97 bb f1 cc d9 ba 3c 6c ee b9 09 f1 6f bb
       -0.004619036 -0.0016616863 -0.00045475538 -0.0036612174
000030 91 e7 56 3b 94 73 01 bb 0b a8 04 ba 19 84 40 3b
       0.0032791833 -0.0019752728 -0.0005060441 0.0029375611

_embedding_layer.normalizing_batch_norm.running_var f4 [16]
000000 76 cd 7f 3f aa 47 80 3f 27 05 7f 3f 7d 8e 7e 3f
       0.99922884 1.002187 0.99617237 0.9943617
000010 9f b9 80 3f 1b 29 7f 3f 3a 70 7e 3f ca b3 7f 3f
       1.0056647 0.99672097 0.99389994 0.9988371
000020 22 09 81 3f 2c 2b 80 3f 01 29 81 3f e4 2d 80 3f
       1.0080912 1.0013175 1.0090638 1.0014005
000030 db 49 80 3f 50 45 80 3f 78 bb 7f 3f 25 36 7e 3f
       1.0022539 1.0021152 0.9989543 0.9930137

head.layers.0.weight f4 [2, 16]
000000 53 b9 b7 3e 87 e7 ec 3a 42 cc 0b 3d c5 de 16 3e
       0.3588358 0.0018074372 0.034130342 0.14733417
000010 96 e9 71 bd 8e f1 2f 3f ff d1 00 3f 57 a3 bb 3e
       -0.059060656 0.6872796 0.5032043 0.36648056
000020 cb 15 26 3f 33 8e 10 3d d4 50 e6 3d 89 ff 07 3e
       0.64877003 0.03529186 0.112458855 0.13281073
000030 93 34 1c bd 2f 1e b1 be 98 75 da 3e 9e cb 1a bf
       -0.038136076 -0.3459334 0.42667842 -0.60466945
000040 43 43 c0 3e 89 78 ab be 67 d3 93 3e 3d 7a 8e 3e
       0.37551317 -0.334904 0.28872225 0.27827635
000050 46 ca dc 3e cc 15 0a 3f a9 ab 00 be a8 9e 9c bd
       0.43123072 0.5393951 -0.12565483 -0.07647449
000060 9b 52 ef be 2a a4 e5 be c0 bb a2 3e b4 84 5b 3e
       -0.4674271 -0.4485181 0.31783867 0.21437341
000070 7c ff 34 3f 97 45 5d 3d 3d 5f 74 bd d1 19 4a 3e
       0.7070234 0.054021444 -0.05966114 0.1973641

head.layers.0.bias f4 [2]
000000 f4 ea a6 3d 09 f9 d9 bd
       0.081502825 -0.10643203

exp_avg f4 [32, 28]
000000 62 bf 5e 3a 34 62 c3 ba fc e0 bf b8 e6 ab 18 ba
       0.0008497146 -0.0014906586 -9.149496e-05 -0.00058239547
000010 23 7a 69 b9 71 0e 92 37 92 ee d9 38 b1 f2 da ba
       -0.00022266111 1.7411281e-05 0.000103918035 -0.0016704408
000020 06 02 08 39 99 92 2f ba 4e 2d cd ba b4 8c 42 ba
       0.00012970724 -0.0006697565 -0.0015653761 -0.0007421479
000030 ec 69 86 b9 e2 af 9f b6 f4 b3 4f 3a d2 09 a5 b9
       -0.0002563739 -4.7590447e-06 0.00079232384 -0.0003147857
000040 25 01 a0 ba 02 3b 18 ba 20 bf 8c 3a e4 70 33 ba
       -0.0012207372 -0.00058071327 0.0010738112 -0.000684513
000050 fb 8a 14 b9 fa 1e 00 39 2d b4 38 ba f7 92 2a ba
       -0.00014166154 0.00012218571 -0.0007045891 -0.0006506885
000060 7d 48 05 b9 0e f3 29 3a 13 69 8b b9 29 b7 45 ba
       -0.00012710872 0.00064830563 -0.00026590432 -0.00075422466
000070 cb 25 5b 3a 25 ab b4 39 6e 9d 03 b9 ca 56 27 b9
       0.00083598186 0.00034459788 -0.0001255178 -0.00015958693
000080 22 fa 8c ba 5a 55 c1 39 73 02 a7 b8 46 6c 97 39
       -0.0010755698 0.0003687542 -7.963637e-05 0.00028881634
000090 01 2c a7 39 58 66 17 3a 0c 47 ca 3a a1 6a 7a ba
       0.00031885508 0.0005775443 0.001543255 -0.0009552632
0000a0 b2 e0 07 ba 1b 5b 15 ba 10 47 a9 39 8f 39 f2 b9
       -0.00051833235 -0.00056974747 0.00032287138 -0.0004620072
0000b0 4a 38 bb 3a 7f be 8a 39 68 5c 98 ba 3b ec 49 3a
       0.0014283743 0.00026463342 -0.0011624219 0.00077027426
0000c0 0c c7 11 b9 e4 f3 19 ba 91 48 ab 39 7a 93 47 b8
       -0.00013902428 -0.00058728294 0.00032669728 -4.7582645e-05
0000d0 b7 8c c9 39 85 15 be b9 29 9a a5 39 34 8f 3b 39
       0.00038442548 -0.00036255657 0.0003158611 0.00017887057
0000e0 42 ab 78 ba 41 91 2a 39 bb 70 2e 39 fa f2 ae 39
       -0.00094859686 0.00016266575 0.00016635928 0.00033368898
0000f0 cf 9b 44 3a 3e 9b b4 39 f4 10 71 38 fe 04 55 ba
       0.0007500024 0.0003444794 5.7474666e-05 -0.0008126049
000100 a1 ed c6 38 2c 94 23 b9 0e ca f1 b8 b9 cb 9f 3a
       9.4856376e-05 -0.0001560009 -0.00011529411 0.0012191451
000110 5a b7 67 b8 98 52 49 b9 75 4d 29 39 9e f0 c4 39
       -5.524545e-05 -0.00019199622 0.00016145951 0.00037563307
000120 d3 75 a4 ba 22 e1 99 ba 0d bd c9 39 2d 6c 17 ba
       -0.0012547321 -0.0011740068 0.0003847856 -0.00057763123
000130 e4 3f 84 39 bf 50 be 39 1e 08 29 ba 4f 40 8a b9
       0.00025224604 0.00036299785 -0.0006448048 -0.00026369325
000140 f3 a3 03 ba 3f ae 1f 3a f3 0a 87 b8 90 6d 83 b9
       -0.0005021684 0.00060913333 -6.439341e-05 -0.00025067898
000150 ed d5 72 b9 e9 a7 dd 38 b9 9a 02 ba 5f 06 ff 38
       -0.00023158612 0.00010569377 -0.0004982162 0.00012160534
000160 1b c1 09 3a 7f 5e 0b b9 a8 2a 68 b9 81 74 48 3a
       0.000525491 -0.00013291276 -0.00022141135 0.0007646755
000170 d8 c2 c3 38 9f 3f 0c 39 6a e0 66 3a 53 03 7b b8
       9.334617e-05 0.00013375141 0.0008807244 -5.984616e-05
000180 d7 1d 1b b7 70 84 14 b9 40 b7 15 39 54 a7 3e 38
       -9.245668e-06 -0.00014163717 0.00014278013 4.5455366e-05
000190 b3 4c 1b 3a 50 d3 0c 3a 27 e8 25 ba 86 37 e4 39
       0.000592421 0.0005372064 -0.0006328844 0.00043528917
0001a0 fb c6 9d 38 32 41 3b b9 18 57 4e 3a d8 54 46 3a
       7.5234064e-05 -0.00017857997 0.00078712543 0.0007565743
0001b0 6c 4d 32 39 5f 31 fe b8 88 c7 56 39 b2 82 dc 39
       0.00017004245 -0.0001212086 0.00020482962 0.00042059046
0001c0 f8 7c 77 3a d7 0b 13 bb 6a 04 5e 39 6c ed 62 ba
       0.0009440924 -0.0022437477 0.00021173214 -0.00086565944
0001d0 52 33 f6 ba 89 5e ff 3a 97 cd 05 b8 4f 3b 55 3b
       -0.0018783605 0.001948313 -3.190114e-05 0.0032536571
0001e0 52 a4 7b b9 2e 2a 5d 39 01 c4 5c ba c5 2e 5e bb
       -0.0002399844 0.00021091916 -0.0008421541 -0.0033902389
0001f0 97 9a 85 ba be 8c 2a 39 f7 13 25 ba ca dd a1 ba
       -0.0010193166 0.00016264894 -0.00062972255 -0.0012349423
000200 f5 99 32 3b e5 9b 83 3a 4b 2e 4b bb cc 84 9c 3a
       0.002725241 0.0010040967 -0.0031002935 0.0011941432
000210 c2 ba 6e 39 05 1e 06 ba 7c 67 b1 39 c5 23 09 ba
       0.00022767021 -0.00051161676 0.00033837173 -0.00052314653
000220 b5 de 4b 3a 09 27 d1 ba 8e e0 ae b8 12 11 bb 3a
       0.00077770214 -0.0015957068 -8.338793e-05 0.0014272055
000230 67 92 85 38 6b 6e 04 3a c8 b0 c5 b9 c9 2e e4 b9
       6.369204e-05 0.0005051854 -0.0003770648 -0.00043522406
000240 b1 20 4d 39 1f 27 6b b9 d1 9b b1 38 cc 6e c0 b9
       0.00019562502 -0.0002242592 8.469041e-05 -0.00036703644
000250 30 41 46 b9 24 9a 08 39 d3 1d 68 b8 57 7f db 39
       -0.00018907036 0.00013027393 -5.5340886e-05 0.0004186581
000260 27 b7 93 b7 c7 cd 1b ba d0 04 90 b9 65 4d d3 b9
       -1.7609053e-05 -0.0005943444 -0.00027469406 -0.0004030272
000270 bf 6e b4 b8 6b 2a 85 b8 8e bc 4c ba 2b 9d b4 b9
       -8.603697e-05 -6.349835e-05 -0.0007810079 -0.00034449375
000280 d9 cf d0 37 6e c9 8b 39 de bf ec b9 41 a7 50 b9
       2.4892319e-05 0.00026662223 -0.0004515638 -0.00019898733
000290 dc 95 ba b9 4e e1 92 3a 1e eb 23 38 d0 14 38 ba
       -0.00035588339 0.0011206062 3.90812e-05 -0.0007022144
0002a0 5f dc ab 3a b6 08 4d ba fc 7f 87 ba 60 bb 2b 3a
       0.001311194 -0.00078214274 -0.0010337825 0.00065510534
0002b0 52 b0 f4 3a 30 15 09 b9 4c 9a a8 38 fb 30 38 ba
       0.001866827 -0.00013073231 8.039604e-05 -0.00070263416
0002c0 b4 3c b6 39 88 35 5c b9 fe bc b5 b9 04 11 39 ba
       0.00034758972 -0.00021000777 -0.0003466382 -0.00070597255
0002d0 9f e9 c1 39 67 5f a5 b9 fc 21 c5 b9 ee b1 20 b9
       0.0003698589 -0.00031542333 -0.00037600088 -0.00015325073
0002e0 47 76 0b 3a e3 73 c5 39 dd e3 0b b9 ac 20 16 3a
       0.0005320054 0.0003766111 -0.00013340959 0.00057269144
0002f0 d6 29 50 39 b9 a3 68 b9 8a 3c ab b7 ed 8b 0e b9
       0.00019852011 -0.00022186236 -2.041298e-05 -0.00013594302
000300 e1 1e 6e 38 c8 85 59 39 d4 f5 10 3a bc 0e f0 39
       5.677238e-05 0.0002074457 0.00055297953 0.00045787345
000310 c3 c7 16 3a 2b 17 2e 39 1d dd ca b9 a1 5a ed 39
       0.0005751813 0.00016602564 -0.00038693185 0.00045271686
000320 52 b0 65 b6 bc ad 3d ba 92 77 69 3a a6 53 8c b9
       -3.422629e-06 -0.0007235666 0.0008906062 -0.00026765204
000330 d3 32 33 3a 1f e9 76 b9 7b df ec 39 f0 ee 64 b9
       0.00068358815 -0.00023547233 0.00045179934 -0.00021832786
000340 3f 87 4b 3a ce 39 2d 39 00 bc 98 b9 f2 99 c5 b9
       0.00077639887 0.000165201 -0.0002913177 -0.00037689466
000350 c4 15 f1 ba cf 4b 82 ba 89 c7 b0 3a 73 8d 6e ba
       -0.0018393327 -0.0009940806 0.00134872 -0.0009100057
000360 53 d3 81 39 ff ed ea 39 55 57 8b b9 2b bc d0 38
       0.00024762246 0.0004480928 -0.00026577213 9.953262e-05
000370 59 2f cc b9 94 30 bb 3a 2a a9 84 b8 c6 da dd ba
       -0.0003894519 0.0014281445 -6.32576e-05 -0.0016926161
000380 03 2d de b9 af 30 6a ba c0 b4 99 b8 d8 af 62 39
       -0.00042376676 -0.0008933646 -7.329276e-05 0.00021618546
000390 18 9f 53 39 98 65 fc b8 bc f1 bf 39 d1 b3 80 ba
       0.00020181795 -0.0001203522 0.00036610465 -0.0009819214
0003a0 71 61 c3 b8 c0 03 36 b9 ed fd bd b8 a4 0c 14 39
       -9.3164745e-05 -0.0001735827 -9.05952e-05 0.00014119089
0003b0 e9 84 45 b9 8c 0a 0e b8 09 04 64 b9 89 fb bb 38
       -0.00018836897 -3.386526e-05 -0.00021745278 8.963707e-05
0003c0 0c 48 80 b9 6c 58 c4 b9 06 c6 46 b9 f9 b3 87 b9
       -0.00024467742 -0.00037449913 -0.00018956521 -0.00025883297
0003d0 62 92 a5 38 02 dd 53 39 cd bf a7 b9 62 7b 15 b9
       7.895079e-05 0.0002020486 -0.00031995625 -0.00014255711
0003e0 7e 24 73 b9 f6 16 98 39 5b de cb b9 1a 0b ad b9
       -0.0002318788 0.00029008806 -0.00038884845 -0.00033005403
0003f0 6d 7e d7 3a ed f5 2b 3a ad 08 2a 3a 6d 95 d4 39
       0.0016440876 0.0006559778 0.0006486278 0.00040547122

exp_avg_sq f4 [32, 28]
000000 de ea 12 36 4b 6f 0a 36 a3 ca 2d 35 83 83 5b 35
       2.1892406e-06 2.0628383e-06 6.47424e-07 8.177523e-07
000010 79 9f 3b 36 00 1b 1f 35 3c 45 a4 35 75 11 f8 35
       2.7957997e-06 5.9271406e-07 1.2239102e-06 1.848252e-06
000020 3b 9e 3a 35 d5 a5 c1 35 c3 3d 4c 36 ab eb 13 36
       6.9520655e-07 1.4427884e-06 3.043432e-06 2.2041884e-06
000030 36 21 a6 35 0b 2b 0d 35 f1 2f 88 35 4b 20 a2 35
       1.237763e-06 5.258923e-07 1.0146742e-06 1.2079339e-06
000040 85 fb 52 36 ff e0 e1 36 77 3d ab 35 ab b4 24 36
       3.1438842e-06 6.7317155e-06 1.2758381e-06 2.4543067e-06
000050 b3 39 60 34 49 89 0e 35 14 0d 82 36 27 79 1e 36
       2.0882617e-07 5.30989e-07 3.8758244e-06 2.3614355e-06
000060 72 b1 64 35 9f 38 5c 36 19 41 88 35 89 1e 15 36
       8.5194836e-07 3.2815512e-06 1.0151736e-06 2.2220504e-06
000070 7d 21 d2 36 f5 3d 95 36 b4 39 c8 35 bc 79 0c 36
       6.2623863e-06 4.447759e-06 1.4917955e-06 2.0932484e-06
000080 ec bb 04 37 7e fd d7 35 cb 57 0a 36 fa 45 bb 36
       7.911567e-06 1.6092524e-06 2.0614705e-06 5.5811806e-06
000090 6f ae 00 36 36 51 eb 35 40 f8 7f 37 75 d8 08 37
       1.917502e-06 1.75325e-06 1.5256985e-05 8.1566295e-06
0000a0 81 6c 07 36 45 15 d7 35 3f 69 04 36 46 54 1f 36
       2.0179725e-06 1.6024939e-06 1.9730794e-06 2.37419e-06
0000b0 43 bf c8 36 37 db 4e 37 7a 00 99 36 72 08 e7 36
       5.9827303e-06 1.2329597e-05 4.559811e-06 6.8853196e-06
0000c0 56 69 33 35 0e 8e 0c 36 61 55 bf 36 12 85 66 36
       6.683598e-07 2.0944312e-06 5.702183e-06 3.4350128e-06
0000d0 c3 c5 ef 35 29 ef 01 37 7f 26 f9 35 36 8b a3 36
       1.7864444e-06 7.744683e-06 1.856315e-06 4.873985e-06
0000e0 eb 70 b4 35 f7 be 38 36 16 98 9d 35 65 8f 9d 35
       1.3443909e-06 2.7529293e-06 1.1741674e-06 1.1739145e-06
0000f0 ac 21 9d 36 ad c9 54 35 1f 03 4c 35 3d 63 0e 36
       4.6828845e-06 7.926963e-07 7.6000464e-07 2.1217413e-06
000100 27 36 41 35 09 c4 2e 35 62 6d 86 36 71 31 63 36
       7.1976905e-07 6.510532e-07 4.006245e-06 3.3854415e-06
000110 ab cb 70 35 d7 12 2b 35 b5 7d 5c 35 64 73 1b 35
       8.9703343e-07 6.372988e-07 8.2139314e-07 5.7909915e-07
000120 d3 fc 39 36 44 03 8c 36 54 7a c9 35 c2 47 e7 35
       2.7714311e-06 4.1727053e-06 1.5011269e-06 1.7231725e-06
000130 41 62 6f 34 aa a5 01 35 c7 ef 12 36 56 96 f2 35
       2.2294354e-07 4.829732e-07 2.1895264e-06 1.8074159e-06
000140 8b 3b fc 34 03 69 62 36 bb f0 44 35 85 c2 09 36
       4.698198e-07 3.373775e-06 7.3366e-07 2.0527816e-06
000150 59 00 2a 35 f1 b1 55 35 56 e6 76 35 63 80 98 34
       6.333044e-07 7.960762e-07 9.1977324e-07 2.840562e-07
000160 3e 26 f8 35 36 ba 9d 34 6e c4 b3 34 6a dd 52 35
       1.848857e-06 2.9379015e-07 3.348427e-07 7.8553296e-07
000170 3c 43 c4 34 ff 15 09 35 4e d5 a3 35 f9 45 38 35
       3.6556764e-07 5.1068486e-07 1.2206526e-06 6.8647165e-07
000180 96 50 ed 34 0f 47 99 34 cc 33 c4 34 81 03 0b 35
       4.4203324e-07 2.8550173e-07 3.6545532e-07 5.1786634e-07
000190 38 db 9a 35 f3 13 9a 35 f7 a4 c0 35 6c 32 2a 35
       1.1537695e-06 1.14797e-06 1.4353126e-06 6.340331e-07
0001a0 eb c3 bc 33 da 66 8c 34 6a 01 2b 35 f7 4e 2a 35
       8.7900695e-08 2.6151866e-07 6.370452e-07 6.3444844e-07
0001b0 af b9 16 34 f3 e3 b9 35 85 84 cb 34 1c 79 45 35
       1.403739e-07 1.3849916e-06 3.7908117e-07 7.3564456e-07
0001c0 13 35 71 37 8f 53 f7 36 16 ee 18 36 f5 e8 52 36
       1.4377077e-05 7.370901e-06 2.278835e-06 3.1428037e-06
0001d0 5d 68 42 37 9f 73 2b 36 90 5e 17 36 44 05 18 37
       1.15876e-05 2.5548286e-06 2.2555796e-06 9.061132e-06
0001e0 00 88 53 36 92 58 22 36 2b ee 76 37 d2 5d 20 37
       3.1520613e-06 2.4191436e-06 1.4718195e-05 9.558587e-06
0001f0 ef 6d 7a 36 b8 ca f3 35 c8 69 35 36 8e 46 0b 36
       3.7316893e-06 1.816391e-06 2.7032675e-06 2.0753682e-06
000200 56 dc 49 37 2a c2 b4 37 40 49 10 37 bd 4b f1 36
       1.2031835e-05 2.1548087e-05 8.600124e-06 7.191177e-06
000210 54 22 6b 35 d8 e7 1a 36 e5 d9 bd 36 75 10 9b 36
       8.7594276e-07 2.308274e-06 5.658005e-06 4.621276e-06
000220 29 49 11 36 db e1 57 37 78 b5 ac 36 59 84 f2 36
       2.1649269e-06 1.2867585e-05 5.147125e-06 7.2275693e-06
000230 e2 1c ed 35 65 1f bf 35 88 c0 a3 34 24 58 d6 34
       1.7666282e-06 1.4239746e-06 3.05012e-07 3.9924737e-07
000240 23 d2 92 35 c1 36 77 34 bc 65 cc 34 48 b1 4e 35
       1.0939006e-06 2.3023587e-07 3.8071983e-07 7.699896e-07
000250 49 80 c6 34 a0 64 e4 34 6b 4c b3 35 7e 8c 68 35
       3.6973714e-07 4.2541524e-07 1.335878e-06 8.663118e-07
000260 e2 1a db 34 4e 66 88 34 e7 e7 90 34 03 0e a7 34
       4.081149e-07 2.540641e-07 2.699082e-07 3.111637e-07
000270 45 cd ab 34 38 51 c9 34 50 68 3d 36 01 1c 5b 35
       3.2000585e-07 3.7498262e-07 2.8223913e-06 8.162461e-07
000280 a8 ec b9 33 a9 8a ad 34 4d 8f 39 35 2e e0 25 35
       8.657781e-08 3.232465e-07 6.91264e-07 6.1793514e-07
000290 ea 26 72 34 b1 11 6f 35 fc 95 34 35 c8 d1 1d 35
       2.2552163e-07 8.906018e-07 6.727348e-07 5.879233e-07
0002a0 92 d6 c0 35 5e 74 2f 36 46 39 54 35 5a f4 15 35
       1.4367563e-06 2.6144767e-06 7.90595e-07 5.5862404e-07
0002b0 ce 28 4e 36 72 07 e8 34 20 5b 05 35 d5 6b b0 35
       3.0720144e-06 4.3218785e-07 4.9678965e-07 1.3144405e-06
0002c0 34 d1 28 35 d9 49 40 35 65 2c 6a 36 1b 32 c9 35
       6.288931e-07 7.1633036e-07 3.4894558e-06 1.499025e-06
0002d0 b8 1f 16 35 50 82 2c 35 cd 91 3a 35 26 24 30 35
       5.592551e-07 6.426462e-07 6.950257e-07 6.561771e-07
0002e0 da d3 90 35 da 24 dc 35 74 35 71 36 90 91 c2 35
       1.0790493e-06 1.6402003e-06 3.5942912e-06 1.4496491e-06
0002f0 46 8d 49 34 a8 a8 d0 34 6c 43 0e 36 b7 07 d9 35
       1.8770979e-07 3.8865733e-07 2.1198894e-06 1.6170005e-06
000300 24 11 da 34 30 6b 2e 36 d6 e8 4f 35 67 ae c3 35
       4.0618136e-07 2.5990412e-06 7.745233e-07 1.457939e-06
000310 e1 f7 ee 36 50 dc 06 37 3b 36 c3 35 1f ae f0 35
       7.1218096e-06 8.038318e-06 1.4544415e-06 1.7932069e-06
000320 a9 30 02 37 b6 d2 89 35 6e 56 97 35 08 ce 8b 36
       7.759933e-06 1.026862e-06 1.1275531e-06 4.166508e-06
000330 30 31 f7 35 30 46 06 36 98 3c 9b 36 a8 b4 af 36
       1.841725e-06 2.000841e-06 4.626414e-06 5.2364376e-06
000340 1d 7c f4 35 a6 32 7e 35 9d 26 ae 35 d6 59 98 35
       1.8215538e-06 9.4696077e-07 1.2975248e-06 1.1351028e-06
000350 a9 c3 cc 36 0a 41 38 37 05 79 92 36 ef 42 8a 36
       6.1024516e-06 1.0982398e-05 4.3652276e-06 4.1205126e-06
000360 3a 22 11 35 b3 9f b3 35 23 7e 8b 36 f5 7a 7b 36
       5.4066516e-07 1.3383018e-06 4.157207e-06 3.7473485e-06
000370 e0 8f a7 35 00 0b ac 36 6b 7f c7 35 2d 36 5d 36
       1.2484343e-06 5.12728e-06 1.4863739e-06 3.29631e-06
000380 f6 cc 63 36 5a aa 6c 35 99 09 43 35 bf 94 c5 34
       3.394494e-06 8.8164745e-07 7.265713e-07 3.6802336e-07
000390 1f 7e 88 36 97 ce 79 35 19 95 f4 34 00 73 32 36
       4.0677983e-06 9.3060356e-07 4.5557024e-07 2.6591006e-06
0003a0 77 ea b3 34 1a 9b 46 35 df 3b 87 36 fd 8a 66 36
       3.3511944e-07 7.398645e-07 4.0302834e-06 3.4353573e-06
0003b0 db ea db 34 51 8b 20 35 91 bc ce 34 20 35 c0 34
       4.096281e-07 5.9807377e-07 3.850769e-07 3.580144e-07
0003c0 fc 10 ca 36 d9 86 1e 37 f4 21 57 35 c1 55 d4 36
       6.0220464e-06 9.4489305e-06 8.014315e-07 6.3280754e-06
0003d0 78 f6 7d 34 0c 6e 06 36 1b 14 16 36 68 e7 46 35
       2.3652126e-07 2.0031612e-06 2.2363445e-06 7.409749e-07
0003e0 74 e1 a8 35 e6 c8 d3 36 3d 69 89 36 4f 4e 86 36
       1.2582591e-06 6.3116777e-06 4.0951695e-06 4.0026275e-06
0003f0 16 fd 12 37 56 f6 96 36 88 88 ee 35 d9 93 03 36
       8.761204e-06 4.4990256e-06 1.7772118e-06 1.960658e-06

exp_avg f4 [32]
000000 de 9b af 39 bb 49 86 ba 12 94 83 3a ae b5 9b b9
       0.0003349473 -0.0010245362 0.0010038635 -0.00029699266
000010 7d 68 f0 ba bc 9c 2c 3a 95 1c 81 b9 67 73 50 3a
       -0.0018341687 0.00065846345 -0.00024626093 0.00079517666
000020 05 8b f5 39 7f c2 0c bb 30 4f 23 ba d5 b9 0a 3a
       0.0004683362 -0.0021478233 -0.00062297564 0.00052919734
000030 35 4e 10 ba 12 c8 c2 3a 34 50 86 3a c8 47 07 3a
       -0.0005504818 0.0014860651 0.0010247291 0.00051605375
000040 9d 4f cb 39 c4 ca a8 3a 67 7d 75 b9 7f ec 0b b8
       0.00038778494 0.0012877812 -0.00023411737 -3.3360437e-05
000050 87 e6 36 3a 99 16 1c 39 07 70 17 3a f2 e1 03 b9
       0.00069771 0.00014885738 0.0005776886 -0.00012577305
000060 09 04 43 3a 7c b7 12 b8 f2 27 ab 3a 94 d4 10 3a
       0.0007439261 -3.4979996e-05 0.0013058169 0.00055248407
000070 52 94 93 3a 96 59 b4 3a 7b 96 96 3a 7c 2c 96 ba
       0.0011259413 0.0013759609 0.0011488938 -0.0011457349

exp_avg_sq f4 [32]
000000 68 9d a1 36 58 05 2d 37 f3 50 29 36 6f 35 5e 35
       4.8164984e-06 1.0312848e-05 2.523008e-06 8.27792e-07
000010 eb 93 4c 37 00 d6 b4 35 30 94 fe 35 34 6d eb 36
       1.2193787e-05 1.3473327e-06 1.8967603e-06 7.0162587e-06
000020 2b 0d 2f 37 68 d8 e2 36 c1 21 3e 35 b1 b0 5c 36
       1.0433879e-05 6.760518e-06 7.0829634e-07 3.2885403e-06
000030 e2 4b 75 37 e7 88 1a 37 7b fe 2a 36 88 cb 39 36
       1.4620806e-05 9.21099e-06 2.5480101e-06 2.768562e-06
000040 30 eb d9 36 6d 35 14 37 06 d0 47 35 1d 74 06 37
       6.4944834e-06 8.833927e-06 7.443599e-07 8.014057e-06
000050 5f b9 5a 36 a6 7a cd 35 d1 e5 c7 36 2d f6 04 36
       3.2592432e-06 1.5309386e-06 5.9574163e-06 1.9812826e-06
000060 57 68 9d 35 22 45 84 35 7a 3c 2b 36 4c 01 16 37
       1.1727778e-06 9.854887e-07 2.5516188e-06 8.940999e-06
000070 78 89 f1 35 9b 3d 99 37 d6 0d d2 36 a8 68 ba 36
       1.7995908e-06 1.8267709e-05 6.2600984e-06 5.5554156e-06

exp_avg f4 [16, 32]
000000 57 24 93 b6 fe d2 0d b7 1c 28 87 b7 09 54 28 b6
       -4.385172e-06 -8.45338e-06 -1.6111931e-05 -2.5082866e-06
000010 a1 e6 15 b7 67 94 b4 37 39 70 83 37 3e d6 c7 b7
       -8.93479e-06 2.1526777e-05 1.5668675e-05 -2.3822413e-05
000020 d6 6a 0b 36 86 5b 64 35 8b 1e 12 37 82 a1 75 37
       2.07748e-06 8.5069803e-07 8.7093895e-06 1.4640742e-05
000030 44 54 61 37 66 16 9e b7 72 79 bb 37 4c 8e 78 37
       1.3430665e-05 -1.8845498e-05 2.234869e-05 1.4815083e-05
000040 3f a9 ac 37 cf 1c 88 37 5c 8e b3 37 c7 e5 aa 35
       2.058281e-05 1.6225878e-05 2.1404754e-05 1.2732861e-06
000050 3c 08 19 b6 b2 12 f5 b4 b6 c1 18 b6 cc 8e b5 35
       -2.280357e-06 -4.564841e-07 -2.276252e-06 1.352711e-06
000060 e4 40 3d 36 b7 22 a3 b7 0a 48 90 b7 ce ce 7f 37
       2.8200966e-06 -1.944728e-05 -1.7199683e-05 1.5247335e-05
000070 cd 51 dc 37 ff 74 4c 37 1d 37 7e 36 dc 7b 44 b7
       2.6264135e-05 1.2186588e-05 3.788103e-06 -1.1711349e-05
000080 8e 58 41 39 30 2a 73 b9 15 fc 1c b9 6f d3 ad b9
       0.00018438903 -0.00023190002 -0.00014971227 -0.00033154662
000090 1b 32 58 b9 5f 96 3a b8 67 64 0b 3a a5 82 2e b8
       -0.00020618031 -4.44859e-05 0.00053173903 -4.1606505e-05
0000a0 56 d0 5e b9 09 33 b3 38 60 e2 30 ba c5 fe d6 39
       -0.00021249181 8.544891e-05 -0.00067475997 0.0004100708
0000b0 a4 b0 b6 b8 e8 56 66 ba 40 2e 5b 39 96 75 02 3a
       -8.711338e-05 -0.0008786754 0.00020902697 0.0004976628
0000c0 c6 7b e8 38 f9 d2 13 3a 9c 35 54 b8 d0 9d c8 38
       0.00011085677 0.00056390424 -5.0594666e-05 9.566138e-05
0000d0 7f 08 36 b8 5a b2 7e b9 02 46 b8 b9 53 46 02 39
       -4.3400094e-05 -0.00024289769 -0.00035147375 0.00012423964
0000e0 ab d2 54 39 c2 6a cf 39 c8 49 4c 39 24 12 d1 38
       0.00020296375 0.00039561657 0.00019482442 9.9692756e-05
0000f0 7b 72 22 38 cf 52 80 39 05 12 5b b9 87 0b 92 39
       3.8730428e-05 0.0002447576 -0.0002089218 0.0002785588
000100 c6 5c c0 b6 97 b1 fd b5 4f 69 b3 b8 01 7c 13 37
       -5.732846e-06 -1.8901654e-06 -8.5550004e-05 8.790755e-06
000110 72 f0 63 38 0e 67 b2 36 c9 72 36 38 02 7c c2 b7
       5.434495e-05 5.3168105e-06 4.3499083e-05 -2.3184348e-05
000120 6c 16 fa b6 41 95 2b 37 48 57 db 37 45 a7 97 b6
       -7.453191e-06 1.0227145e-05 2.6147478e-05 -4.5196234e-06
000130 49 6e c3 38 62 20 df b7 3e 82 f0 36 00 87 3d 38
       9.318867e-05 -2.6598751e-05 7.1677196e-06 4.518684e-05
000140 15 71 98 b6 28 3d 10 38 59 f4 82 b6 2f 8d 95 b8
       -4.5431175e-06 3.438923e-05 -3.9027477e-06 -7.131171e-05
000150 f6 94 78 b8 c4 30 a4 36 89 9b 48 b7 da 86 93 37
       -5.926654e-05 4.893258e-06 -1.1957142e-05 1.758656e-05
000160 bb c9 16 33 0a 5d 9c b7 54 a1 3e b7 b3 4b 91 36
       3.510807e-08 -1.8639974e-05 -1.1362445e-05 4.3301493e-06
000170 4f 49 a7 37 a0 81 db 36 a8 90 4a b8 45 80 d5 37
       1.9942088e-05 6.541799e-06 -4.8295275e-05 2.5451309e-05
000180 ba 60 6b 38 cb 3f 8e b8 0d 20 ff 38 ba a2 97 b7
       5.611845e-05 -6.78297e-05 0.000121653175 -1.8076378e-05
000190 50 d1 23 b8 a4 02 99 38 f1 8d 8e b9 24 d4 d9 38
       -3.9057166e-05 7.2961004e-05 -0.00027190105 0.000103868806
0001a0 66 47 2f 39 12 61 1b 39 e0 09 04 39 fc ef f6 b9
       0.00016715899 0.00014818113 0.0001259218 -0.0004709958
0001b0 cc ae d0 37 e2 51 37 38 c0 52 63 b8 0f b6 81 39
       2.4876928e-05 4.370686e-05 -5.4198084e-05 0.00024740442
0001c0 fe 79 5f b9 32 5e 6c b9 e9 4c d0 38 d1 ab bb 38
       -0.00021312383 -0.00022541804 9.9325385e-05 8.948858e-05
0001d0 fd d6 32 39 41 c9 03 39 f2 b4 9d 38 03 4a a1 38
       0.00017055492 0.00012568106 7.520047e-05 7.690864e-05
0001e0 96 33 5c b9 73 4a 5e 38 e0 23 48 37 e5 1d b2 b9
       -0.00021000052 5.299826e-05 1.1929282e-05 -0.0003397308
0001f0 37 7d aa b9 77 6b c0 b9 84 aa 2c 39 36 f5 89 b9
       -0.0003251822 -0.0003670116 0.0001646672 -0.00026313373
000200 5c 4e 65 b9 43 ad 77 b9 98 67 1c 3a f2 3e b5 39
       -0.00021868333 -0.000236203 0.00059663644 0.00034569908
000210 6c 7f 4c 3a 89 8e a3 39 78 34 3a 3a 8f 89 43 3a
       0.000780097 0.0003119598 0.00071031554 0.00074591575
000220 5b a5 97 38 f5 83 7c 39 13 cf 93 3a 28 91 bd 38
       7.231041e-05 0.0002408175 0.0011276923 9.03926e-05
000230 9e b2 c7 38 2a b6 06 3b ae 0f 1a 39 f4 ab 7d b9
       9.5223295e-05 0.0020555356 0.00014692426 -0.00024192018
000240 25 6d ae b9 30 26 48 b8 68 03 44 39 28 ae 03 ba
       -0.00033269185 -4.771928e-05 0.00018693286 -0.0005023205
000250 7d c8 07 36 3a 0c 84 39 12 50 ad 3a 8a 8c 3d 3a
       2.0233267e-06 0.0002518611 0.0013222715 0.000723072
000260 ac 49 f5 38 44 76 20 ba fe 5c 34 b9 87 6c 7a 38
       0.00011696233 -0.00061211386 -0.0001720078 5.970572e-05
000270 02 d4 0f b9 c6 97 5d b7 51 f7 8a 3a a6 6b 8a b9
       -0.00013716522 -1.3207964e-05 0.001060227 -0.00026401615
000280 18 38 08 b8 58 5d 24 b9 cb 98 a4 b8 ae 4a 3a b9
       -3.2477168e-05 -0.00015675032 -7.848589e-05 -0.00017766163
000290 47 fd 89 b9 c6 4a 34 37 03 ac e3 b7 65 4d 61 b8
       -0.00026319383 1.0746246e-05 -2.7140608e-05 -5.371626e-05
0002a0 ea 27 26 b9 ef 53 af b9 2c b8 04 ba 12 d2 01 b9
       -0.00015845863 -0.00033441136 -0.0005062844 -0.00012380656
0002b0 2d 4e 6c b9 66 e7 5f b9 5f 42 82 37 3e 0d 0b b8
       -0.00022535837 -0.0002135314 1.5528114e-05 -3.3152515e-05
0002c0 da d6 3b b9 7b fa 14 b8 02 e4 05 b9 fc 41 44 b9
       -0.00017913748 -3.5519228e-05 -0.00012768808 -0.00018716598
0002d0 0e cd 6b b8 9e 63 6c b7 62 28 a6 b9 e1 9c b2 b7
       -5.6219338e-05 -1.408989e-05 -0.00031692075 -2.1292306e-05
0002e0 ce 59 86 b8 73 08 45 b9 03 83 de b7 8e 2d 28 b9
       -6.406345e-05 -0.00018790532 -2.652547e-05 -0.00016038699
0002f0 b3 a0 59 b9 39 39 46 b9 6b de 66 b8 7d a3 91 b9
       -0.00020754598 -0.00018904069 -5.5043416e-05 -0.00027778363
000300 ba 6e a7 b9 8e f4 43 b9 36 8f b9 b9 12 59 3f ba
       -0.0003193522 -0.00018687753 -0.0003539265 -0.0007299344
000310 9e 52 24 ba 59 22 37 38 ec 04 a8 39 b8 74 f9 39
       -0.00062684144 4.366259e-05 0.00032047124 0.00047579943
000320 1b ca 18 ba c7 9e e0 b8 89 b7 1c ba 1c 42 84 38
       -0.0005828456 -0.00010710727 -0.00059782766 6.306564e-05
000330 f9 60 a2 b9 0a 49 9e ba 85 b4 65 39 c8 c4 3b 3a
       -0.00030971298 -0.0012076211 0.0002190639 0.00071628066
000340 21 45 8c b9 58 c3 18 b8 7a 4f b3 b8 09 ec af 39
       -0.00026754386 -3.6421552e-05 -8.550189e-05 0.0003355446
000350 17 1b 58 b8 9e ab 86 39 fb 73 24 ba dd 1d 48 b8
       -5.1523642e-05 0.00025686336 -0.0006273386 -4.7711528e-05
000360 22 10 ab b7 f1 32 a8 39 e2 ec 51 39 7d 1c 49 b9
       -2.0392301e-05 0.0003208141 0.00020020039 -0.00019179466
000370 f6 51 15 ba 91 1b 9e b9 c7 26 26 b9 cd fd 77 ba
       -0.0005696112 -0.00030156647 -0.0001584544 -0.00094601215
000380 0a 50 f8 b9 50 20 c4 39 77 90 40 b9 52 55 79 b8
       -0.0004736188 0.00037408108 -0.00018364364 -5.9445687e-05
000390 82 9a 02 39 ca 36 e1 b9 d3 7f eb b9 50 25 aa 39
       0.00012455325 -0.00042956165 -0.0004491793 0.00032452727
0003a0 6b 7f c4 b9 78 b3 5e 39 66 1d ce 39 ac 44 8f 39
       -0.00037478967 0.00021238427 0.00039313285 0.0002732625
0003b0 13 05 f4 38 33 97 1c 3a 69 e8 87 ba f8 a1 0c 3a
       0.00011635772 0.0005973458 -0.0010368946 0.00053647114
0003c0 21 73 32 39 5c 43 03 ba 53 cb 1c b7 2b 77 a1 b8
       0.00017018292 -0.0005007291 -9.345665e-06 -7.699275e-05
0003d0 75 bf 33 b8 a5 04 84 38 25 09 5b 39 d4 d5 84 ba
       -4.2855234e-05 6.2951156e-05 0.00020888874 -0.0010134527
0003e0 33 12 ca b8 16 d2 12 b9 0a 7d 6c 38 46 eb 62 39
       -9.6355005e-05 -0.00014001908 5.6383236e-05 0.00021640686
0003f0 b0 d1 f1 39 13 3c cb 39 c5 c7 f0 b9 a7 e9 2c b8
       0.0004612333 0.00038763936 -0.00045925207 -4.12256e-05
