vertex-multicloud/bq_omni/saved_models/classification-3_epoch=3-valid_loss=0.03.ckpt (torch, 180114 bytes, 27 tensors)

_backbone.linear_layers.0.weight f4 [32, 61]
000000 ec aa 83 3e 51 d8 ce 3d 3d 61 79 bc 00 4f 60 3e
       0.2571634 0.10099853 -0.015220937 0.21905136
000010 23 73 bc 3b 90 23 c9 3d dd 23 e8 3d 66 97 aa 3d
       0.00575103 0.09821236 0.113349654 0.08329658
000020 56 22 07 bd bf 11 89 bd ac 7b 77 bc 87 43 6a 3e
       -0.03299173 -0.06692838 -0.015105169 0.22877322
000030 68 1d e8 bc 1d 70 ab 3e a8 80 62 3d 54 f3 23 be
       -0.028334334 0.33483973 0.055298477 -0.16010791
000040 2f 2e 5e 3e 69 d9 3b 3e 92 c4 11 be 12 16 ca be
       0.21697305 0.18344654 -0.14235142 -0.39469963
000050 6d f3 b9 bc 35 7d 91 be 48 5e 45 3d 3c 94 b2 3d
       -0.022699082 -0.28415838 0.048185617 0.0871968
000060 db b5 24 be b2 e9 8c 3e 75 c9 8d be d8 f9 91 3e
       -0.16084997 0.27522045 -0.27692762 0.28510928
000070 08 1a 15 3b dc e7 a8 3c 10 1e 31 be 7c 31 4a 3b
       0.0022751112 0.020618372 -0.17296624 0.003085225
000080 35 e7 f2 39 cc cd 34 3d 65 91 c2 be ad a9 0a be
       0.000463301 0.044141576 -0.38001552 -0.13541289
000090 3f f3 8b 3e 31 1b 13 3e 55 ff d9 3d 85 01 ce be
       0.2733402 0.14365841 0.10644404 -0.40235534
0000a0 0f f3 0d be 63 52 8b 3c f3 7e aa be 8c e4 8e bd
       -0.13862251 0.017007058 -0.3329998 -0.069771856
0000b0 8e 48 9c bd 1c 92 a4 be 75 44 71 3e 42 98 fa bd
       -0.07631026 -0.32142723 0.2356127 -0.12236072
0000c0 cf 46 92 3e 92 ce 3a 3d 0f 83 5d 3e 8b de 68 3e
       0.28569648 0.045607157 0.21632026 0.22741143
0000d0 32 13 58 3e d5 82 eb 3d b8 f5 23 3e 51 dc c6 3d
       0.21101072 0.114995636 0.16011703 0.09709991
0000e0 be 74 81 be 65 69 d4 3e 5d c1 49 3e 5a be 73 be
       -0.2528438 0.4148666 0.19702668 -0.23803082
0000f0 57 6c dd 3d 5c 07 05 bf b7 77 dd bd f6 6d 79 3e
       0.1081168 -0.51964355 -0.108138494 0.24358353
000100 14 af a4 3c dc 71 c4 be e1 52 3d 3d 20 3d 47 be
       0.020103015 -0.38368118 0.046221618 -0.19456911
000110 35 a3 0b 3e 5e 4c b5 bd 7a a4 a7 3e c0 2c 93 3e
       0.13636477 -0.088524565 0.32742673 0.2874508
000120 21 3e 63 bd e6 1f c7 3e f5 cc 4a 3e 2c e5 a1 be
       -0.055479173 0.38891524 0.19804747 -0.31620157
000130 c5 62 ae bd 18 78 06 3f 36 46 77 3e 85 1f 7f 3e
       -0.085149325 0.52527 0.24147877 0.24914367
000140 45 51 f5 bd ec e4 45 be 8e 72 d5 bd ae b8 22 bd
       -0.119783916 -0.19325608 -0.1042224 -0.039726906
000150 06 e7 1b 3e 45 6c 9d be 0b 3e a4 bd ba 69 10 3f
       0.15224847 -0.30746666 -0.08019646 0.56411326
000160 d6 7f db 3c 2a b8 35 be 4c 25 4f be b7 cf 24 3e
       0.026794355 -0.17746034 -0.20229071 0.16094862
000170 60 e6 30 be a6 64 4e 3c bf 0b d1 bc 2e 17 af 3d
       -0.17275381 0.012597239 -0.025518296 0.08549343
000180 fb f2 44 be fe 2b 25 3e aa e3 24 3e 8b 62 2f be
       -0.19233315 0.16130063 0.16102472 -0.17127435
000190 fe 8f c3 be 8b dd ac 3d 35 29 a1 3e 4f 4e 67 bd
       -0.38195795 0.084406935 0.3147675 -0.056471165
0001a0 5e 15 ea bd b8 a3 68 3e d1 8d 37 3e 97 ff e3 3d
       -0.11429857 0.22718704 0.17925192 0.11132734
0001b0 b6 27 a8 bd 78 82 b5 3e 59 78 0d 3e 9c 9d 7f be
       -0.08210699 0.35451102 0.1381544 -0.24962467
0001c0 50 96 55 bd b8 c5 a5 3a a8 c5 7e 3e 7d 88 dd bd
       -0.052145302 0.0012647426 0.24880087 -0.10817049
0001d0 0d ef e2 bd ee f0 8c be be 59 ce bd 07 d0 93 3e
       -0.110807516 -0.27527565 -0.10075711 0.2886965
0001e0 e9 94 63 3e b4 6b 0c 3e 09 06 eb be cd 3e 00 3e
       0.22224773 0.1371296 -0.45903042 0.12523957
0001f0 c6 d2 5e 3e 30 c6 6b be 48 da fa ba ad 43 f5 be
       0.21760091 -0.23024821 -0.0019138539 -0.47903195
000200 90 d9 05 3e 94 cf 8b be 99 b8 ea bd b1 7c 8e be
       0.13071275 -0.27306807 -0.114609905 -0.27829507
000210 6c af 43 be f6 77 8a 3e 94 bb 12 3e b0 e1 c1 be
       -0.19109887 0.27044648 0.14329368 -0.37867498
000220 dc 9a dc be 5f c8 4a 3d 28 43 15 be b0 3e 22 bd
       -0.43086898 0.049507495 -0.145764 -0.039610565
000230 bc 5d 39 be 6e 0c 49 be 3e 00 48 3e bb a7 3d be
       -0.18102163 -0.19633648 0.19531342 -0.18521015
000240 09 ad 4f 3e 59 84 e8 bc db 05 89 3c b5 3d 81 3e
       0.20280851 -0.02838342 0.016726425 0.2524239
000250 82 6f a8 be d2 e8 a0 3d 5d e4 51 3e e7 92 c1 bc
       -0.32897574 0.07856907 0.2049727 -0.023629619
000260 b6 1a c8 3d dc ad 3a 3d a7 9d 07 3c a2 5e c7 3d
       0.0977072 0.04557596 0.008277333 0.09734847
000270 fa 6f 52 3d ea 43 4a 3d 07 ac a4 bd f9 c1 8a be
       0.05137632 0.049381174 -0.08040624 -0.27101114
000280 84 a9 02 be 0b c2 32 be 86 5f ad 3e 3c 20 fd be
       -0.12759978 -0.17456834 0.3386194 -0.49438655
000290 a0 bb fc 3d f3 7b 14 be 5f 1e cf 3e d8 da 14 3e
       0.12340474 -0.14500408 0.4045286 0.14536607
0002a0 01 8d 96 3e 54 56 af 3e fa 43 bf bd 77 dc ca be
       0.29404452 0.3424555 -0.093391374 -0.39621326
0002b0 8f 0d 8f be 36 a8 58 bd d7 54 13 be de 3c 2d 3e
       -0.27940032 -0.052894793 -0.14387833 0.1691775
0002c0 41 1c 58 be aa cc 4b 3e e5 66 77 be 9f 31 be bc
       -0.21104528 0.19902292 -0.24160345 -0.02321702
0002d0 58 16 1b 3e 81 cc 13 3e d8 07 cd 3e b7 88 17 3d
       0.15145242 0.14433481 0.40045047 0.036995616
0002e0 98 34 b9 3d 65 e6 05 3e 73 52 dd bc 6c f2 e8 3e
       0.090432346 0.1307617 -0.027016854 0.45497453
0002f0 c4 53 37 be 14 70 18 be 4d 8a 3b bd 84 63 8f 3e
       -0.17903048 -0.14886504 -0.04578619 0.28005612
000300 d1 4e df 3e d3 3a be bd 16 b0 8e 3c 0a 9b d3 3e
       0.4361482 -0.092885636 0.017417949 0.41329223
000310 07 29 54 be 82 ca e2 bd fe 7b 3e 3e 66 b7 7a 3d
       -0.20718776 -0.110737815 0.18601987 0.06121006
000320 ef d5 6e be 0d 11 19 be 3b a9 d0 be fe 04 56 3e
       -0.23323797 -0.1494791 -0.40754113 0.20900342
000330 4f 1e 9a bd 53 5c 9c bd 29 ff 60 be 75 7e 7a 3e
       -0.07525312 -0.07634797 -0.21972336 0.24462302
000340 ab 17 61 be fa 35 66 bd a8 0d 19 3c 64 be 50 be
       -0.21981685 -0.05620382 0.009341635 -0.20385128
000350 c7 d4 5f bd e7 30 11 3e cf 60 5e 3d 81 fc 15 3e
       -0.05464628 0.14178811 0.054291543 0.14647104
000360 c4 a1 68 3c 22 94 0f be ac cc e1 3d 84 81 2e be
       0.014198724 -0.14021352 0.11025366 -0.17041594
000370 16 e2 7b be 2d 82 3d be 15 18 52 3e d8 7b 18 be
       -0.24597964 -0.1850669 0.20516999 -0.14890993
000380 a4 40 06 3e 32 77 36 be 81 7c 3c 3e d6 bd 12 be
       0.13110596 -0.17818907 0.1840687 -0.14330229
000390 66 23 82 3e 61 66 c9 3c 01 36 87 bd 41 61 23 3e
       0.25417632 0.02458495 -0.06602097 0.15955068
0003a0 a3 86 0f 3d 7a 42 37 3e 76 c6 94 be 6e 68 19 3e
       0.03504051 0.17896453 -0.29057664 0.14981243
0003b0 33 8b d4 3c 54 83 19 bd 0e 9a ee bd 6d d6 8d 3c
       0.025945282 -0.03747876 -0.11650477 0.01731416
0003c0 ea 5b 13 3e c0 ad 24 3d a8 48 44 3d 31 e8 ec ba
       0.14390531 0.040204763 0.047920853 -0.001807457
0003d0 12 0c 22 3e 81 17 d2 bd cd 0d 97 3e 57 e2 79 be
       0.15824917 -0.10258389 0.29502717 -0.24402748
0003e0 7d bc bd 3e 2c 41 4f bb 1e b4 b1 bd a6 5e 13 bd
       0.37057868 -0.0031624539 -0.08676933 -0.035978936
0003f0 f3 1c 9c 3d 7e 58 a0 3e af b8 a9 3d 45 15 d3 3d
       0.07622709 0.31317514 0.08287179 0.10306791

_backbone.linear_layers.0.bias f4 [32]
000000 62 73 2e 3c cf f4 b0 3c 6a a8 d3 bc 3b e7 df bc
       0.010647627 0.021601109 -0.025837142 -0.027331939
000010 f7 73 9d be 2a 57 b6 3d 20 eb 71 3c cc 81 b1 3d
       -0.30752537 0.08903344 0.014765531 0.08667335
000020 4a 6a 41 bd 82 cd 66 3d 35 0e 20 bc f1 78 99 3d
       -0.047220506 0.05634833 -0.009769012 0.07493771
000030 71 c2 ad 3b 5a 4e 15 be 84 a3 4c bd 2d e4 80 3d
       0.0053027202 -0.1458067 -0.04996063 0.06293521
000040 99 8b 97 bd 41 f5 24 3e fc e9 e7 3c 2c e1 c1 bc
       -0.07399673 0.16109182 0.028309815 -0.02366694
000050 4b 94 0d be ae fa 15 be 3c 5a 48 3d dd 20 d5 bb
       -0.138261 -0.14646408 0.04891418 -0.0065041617
000060 2f 43 b0 bc d2 51 93 3d ce 3d b6 3c 11 a2 59 3d
       -0.02151641 0.0719334 0.022246268 0.053133074
000070 b1 35 e8 3d 27 67 94 3d 2a 02 3c 3e 1b 0b 43 bb
       0.11338366 0.07246237 0.183602 -0.0029761258

_backbone.linear_layers.3.weight f4 [16, 32]
000000 19 2e e4 be ed f7 a0 3d 5b d7 b4 be f2 15 08 bf
       -0.4456642 0.07859788 -0.35320553 -0.53158486
000010 c5 d0 40 3e f8 47 a5 be 15 20 22 bf 8f 22 07 bf
       0.1882964 -0.3228147 -0.63330203 -0.5278711
000020 17 17 b6 3e 5a 78 4d be 67 37 d5 3c 46 b7 de bd
       0.3556449 -0.20065442 0.026027394 -0.108748004
000030 03 fe 7f be fb b6 6f 3b ac 48 00 3e 6c c3 a3 3e
       -0.24999242 0.003657757 0.12527722 0.31985033
000040 87 85 30 3d ca 3c eb 3e 9f 9b 96 bc f8 ac 27 be
       0.04309609 0.45944816 -0.018384753 -0.16374576
000050 7d be 7e 3e 0a 14 24 3e 36 44 1b 3e 63 2d 26 be
       0.24877353 0.1602327 0.15162739 -0.16228251
000060 b8 73 8a bd b6 4b 0d bd 72 7d 4a 3d 0d 0d ed bd
       -0.06760353 -0.03449603 0.04943604 -0.11574755
000070 3b b7 11 3d 6c 27 c6 3d 89 8d 88 be f2 d5 b0 be
       0.035575133 0.09675488 -0.26670483 -0.34538227
000080 95 79 06 be 92 76 b9 be 40 55 0c bd 66 68 0d be
       -0.13132317 -0.36223274 -0.03426099 -0.13809356
000090 a4 88 97 3e 41 12 3a 3e 91 f5 77 be 74 96 b2 3c
       0.29596436 0.18171026 -0.2421477 0.021800257
0000a0 14 e8 26 3e 84 0b 79 be 29 92 c9 be 0a 21 4d 3e
       0.16299468 -0.24320799 -0.39369324 0.20032135
0000b0 1b ec fa be 0d 8b ba 3d 10 69 cc 3e d3 58 0d be
       -0.4900826 0.09108553 0.39923906 -0.13803415
0000c0 68 07 3c be 38 86 31 3b 5e fa 39 3e e8 b8 55 bc
       -0.183622 0.0027088057 0.18161914 -0.013044573
0000d0 3d 61 05 be 87 4c 63 bc e2 d2 0e 3e d8 d5 d0 be
       -0.13025375 -0.013873226 0.13947633 -0.4078815
0000e0 63 de a7 bd c9 df 44 bd 11 a3 a2 bc 50 0c 18 be
       -0.08196714 -0.04806498 -0.019853147 -0.14848447
0000f0 07 b7 d4 be 72 ef a1 be b3 f8 27 3d 6a 86 42 3e
       -0.4154589 -0.31627995 0.041008662 0.18996587
000100 e6 5a d2 be 96 45 13 bf 31 b5 09 bf f8 07 04 3f
       -0.41084975 -0.57528055 -0.537921 0.5157466
000110 86 1a 0a be 45 85 24 be aa 95 71 be 7f 17 ab be
       -0.1348668 -0.16066463 -0.23592249 -0.33416364
000120 0b d8 d1 3e 1c e8 a2 3d bb 45 2f 3c 4f 32 2b 3e
       0.4098514 0.079544276 0.010697777 0.1671841
000130 59 73 21 3e c3 df 50 3d b7 06 f0 be c3 59 99 3e
       0.15766658 0.050994646 -0.46880123 0.29951295
000140 8b 5d 80 3e 97 a0 ef be ad af 40 3e 0c a1 49 bd
       0.25071368 -0.46802208 0.18817015 -0.049225852
000150 8c cc a5 3c 55 8a 5b 3e 3a 72 f5 bc a6 08 0b bf
       0.020239137 0.21439488 -0.029961694 -0.5431007
000160 6b cc 64 be a5 cf 03 bf 7c 58 c6 bd 1a a6 94 be
       -0.22343604 -0.51488715 -0.09684846 -0.29032975
000170 dc b9 61 be 65 45 02 be b0 ae 58 3b e2 e0 6e bd
       -0.22043556 -0.12721784 0.0033063106 -0.058319934
000180 c2 3a 04 bd 11 3d 0c 3e 47 58 3e 3e 5c d5 7a 3e
       -0.0322826 0.1369517 0.18588363 0.24495453
000190 93 5c 09 3e 3a 1f 8b bd 42 9d 01 bd 8c c9 b2 3e
       0.1341422 -0.06793065 -0.031644113 0.34919393
0001a0 39 14 6c be bc 65 8d 3e 9e 3a 88 3c e6 95 95 3e
       -0.2305459 0.2761668 0.016629513 0.29215926
0001b0 fa ac b6 3e e8 7b eb 3c fa 27 49 3e 19 8e 3f 3e
       0.35678846 0.028745607 0.19644156 0.1870655
0001c0 17 10 f2 3d 73 e5 06 3e 0e 93 71 3d e2 6f f5 3c
       0.11819475 0.13173465 0.058978133 0.029960576
0001d0 6c da db 3e 4f c3 c9 3d 0c 30 25 bd 15 81 b3 bc
       0.4294008 0.09851705 -0.040329024 -0.021912137
0001e0 f3 d2 f6 bd 29 76 0a 3f 22 50 fe 3c 94 b0 a4 bc
       -0.12051954 0.5408655 0.03104407 -0.02010373
0001f0 f0 99 f5 3e 5d 4b 7b 3e 5e 14 0e 3f f5 c4 b4 3c
       0.47969007 0.24540468 0.5549983 0.022066573
000200 3d ac f4 be 11 71 81 be 70 5e 8e be 58 1a 51 bd
       -0.47787657 -0.25281575 -0.27806425 -0.051050514
000210 6c 6f 82 be 1c 32 b4 bd 5a c8 bc 3c 3e e5 0e be
       -0.25475633 -0.0879862 0.023044754 -0.13954636
000220 7c 1d e8 bd 3b 9e d1 3c 6f f5 a4 be a3 0f ee 3d
       -0.11333749 0.025588145 -0.322185 0.11624076
000230 67 81 c0 bd 30 5d cf 3e 46 3e 26 3e 49 c3 ec bd
       -0.093996815 0.40500784 0.16234693 -0.11560685
000240 9f 82 5f 3e 3a a0 c0 be de af dc 3e ce 4d 76 3e
       0.21827172 -0.37622243 0.43102926 0.24053118
000250 4f c6 96 be c4 0a ec 3d b7 20 ac bd a3 cc cb be
       -0.29448172 0.11525491 -0.08404677 -0.39804563
000260 78 02 9b be 46 0c 36 be d8 bd ad 3e e2 af 1b be
       -0.3027532 -0.1777812 0.33933902 -0.15203813
000270 19 2f 8b be f5 52 8b be 7c 89 ed bd 26 8a 76 be
       -0.2718437 -0.2721173 -0.11598489 -0.24076137
000280 b5 f3 74 be b5 0a 57 3e d7 56 19 bd aa 79 5c 3e
       -0.23921092 0.21000178 -0.037436333 0.21530786
000290 15 09 0e bd a7 67 b0 3d c7 90 13 3d 33 32 8f be
       -0.03467663 0.0861352 0.036026742 -0.27967986
0002a0 34 0e 53 3d 3e 94 7c be 68 70 9b 3e 6e 32 38 bd
       0.051527217 -0.24665925 0.30359197 -0.04496997
0002b0 b4 89 6c be 23 3f 07 be d7 2e b7 bc 17 98 56 bd
       -0.23099405 -0.13207678 -0.022361202 -0.052391138
0002c0 ad 65 a6 3e 21 8c d7 be 31 23 0b 3e 3c e8 85 3e
       0.32499447 -0.42099097 0.13587643 0.26153743
0002d0 46 fb d9 3e f7 39 a6 3e 87 a8 9e be ea 60 c1 3e
       0.4257452 0.324661 -0.3098795 0.37769252
0002e0 7f 97 46 3d c2 b3 b5 be ba 53 65 be fd cd 47 3e
       0.04848432 -0.35488707 -0.2239522 0.19512172
0002f0 ae 2e 98 3d 6c d4 25 3e 52 fc cc be a3 77 21 be
       0.074307784 0.16194314 -0.40036255 -0.15768294
000300 7a e5 8e be d0 61 96 3e 86 7a 00 3d cf 30 e8 3d
       -0.27909452 0.293715 0.031366847 0.113374345
000310 ab 11 c5 3e 86 16 64 3e a4 16 09 be ec 90 7b 3e
       0.38490042 0.22274217 -0.13387543 0.24567002
000320 22 15 a5 3e 3f 73 e2 bd 78 8e ba 3d e9 02 2d 3e
       0.32242686 -0.11057138 0.09109205 0.16895641
000330 bf 7e 85 3e f6 b6 41 3e d3 5a 09 3e bd 7b dd 3d
       0.26073262 0.1891745 0.13413553 0.10814617
000340 3c 64 bf 3e 4e af 4a 3e ae 81 ad bc ab 4f 04 3e
       0.3738116 0.19793436 -0.02118 0.12921016
000350 c4 45 89 3d b6 1c 9b 3d 07 8a 27 3f a4 1a b9 3e
       0.0670276 0.075738356 0.6544499 0.36153138
000360 2b 42 b4 3e f0 be 47 3e d8 fd fa 3e 94 bb a9 3d
       0.35206732 0.1950643 0.49021792 0.08287731
000370 6c 71 00 3d b3 58 78 be c7 d4 dc 3e b1 5c fa 3d
       0.031358168 -0.24252586 0.43131086 0.12224711
000380 2e f3 de bd 8d 74 16 3f ce 36 15 3e 5d 8e 48 bc
       -0.108862266 0.5877159 0.14571688 -0.012240973
000390 ec 47 c1 be bf de 1c 3f 3d 22 0d 3e 94 12 1f 3e
       -0.37750185 0.61277384 0.13782592 0.1553443
0003a0 76 5c bb be f9 65 47 be 84 b6 d1 3d cb 8b 60 3e
       -0.3659398 -0.19472493 0.1023989 0.21928327
0003b0 ae 12 f2 3d ee e7 85 bd 1c 64 bf 3e c2 6e aa bd
       0.11819969 -0.06538378 0.37381065 -0.083219066
0003c0 a5 fa 6b 3d d8 79 67 3e 70 40 bd 3d 14 96 8c 3e
       0.05761208 0.22605073 0.09240806 0.2745825
0003d0 2c 75 e4 3c b8 9f c0 bd 90 5d b3 3e 2e 1d 08 bc
       0.027887903 -0.09405464 0.3503232 -0.008307738
0003e0 d3 c1 74 3e 64 6b dd 3e 23 3a 2a 3e 4b 1e 9f be
       0.23902063 0.43245995 0.1662374 -0.310778
0003f0 0b cd d3 3d 6a 17 90 3e b7 c0 d8 3d c9 63 9b 3d
       0.10341843 0.28142864 0.105836324 0.07587392

_backbone.linear_layers.3.bias f4 [16]
000000 41 8c 34 be 60 a7 2b be fa cd 7a be 9e c9 67 3e
       -0.17631628 -0.16763067 -0.24492636 0.22635505
000010 f0 44 4a be a5 e6 5a be c2 c1 c1 3d 1c 42 68 3d
       -0.1975286 -0.21377046 0.094607845 0.05670367
000020 ad 58 5c 3d ef eb b5 3d f8 50 16 3e b8 c9 a7 3d
       0.053795505 0.088828914 0.14679325 0.08192772
000030 84 6b 1c be ba 0e 9f bc a2 3c 1b 3a e8 6f 88 bd
       -0.15275389 -0.019416202 0.0005921816 -0.066619694

_embedding_layer.cat_embedding_layers.0.weight f4 [16, 8]
000000 35 e5 b4 bf 0f a3 e4 3f 3b 65 3f be 2d d6 e9 3e
       -1.4132448 1.7862262 -0.1869096 0.45671216
000010 91 56 02 3f 3e ed fe 3d 75 c4 46 bf 20 54 68 bf
       0.5091334 0.12447594 -0.7764352 -0.90753365
000020 1e 87 e1 3f e4 96 77 bf 81 21 b3 bf 13 9d 8d bf
       1.761936 -0.96714616 -1.39946 -1.106356
000030 8f 9a 85 bf 49 56 15 3f 0d e3 4f bf 7e 69 8e 3e
       -1.0437793 0.58334786 -0.81205827 0.2781486
000040 48 91 53 bf aa 00 e1 3e ff 3a 36 bf 1d 08 09 c0
       -0.82643557 0.4394582 -0.7118377 -2.1411202
000050 76 68 53 3f d4 56 ee bc 68 4a d3 bf 07 2f c5 bf
       0.8258127 -0.029094137 -1.6507082 -1.5404977
000060 e8 6c 9f 3f 6e a9 e0 bf 44 c9 28 3f 0e a2 36 3e
       1.245511 -1.7551706 0.65932107 0.17835256
000070 06 39 7a 3f a7 66 8c 3f f4 3d 31 bf 56 71 b7 3f
       0.9774326 1.0968827 -0.6923516 1.4331462
000080 5b 51 81 bf 0b d9 1c bf da cf 2b 3d 0e ba 9f bf
       -1.0102953 -0.6126868 0.04194627 -1.2478654
000090 54 e6 73 3f 8a e5 08 40 7c c7 92 3e c4 76 a9 bb
       0.9527333 2.13901 0.2866782 -0.0051716287
0000a0 45 99 0b be c7 5e 80 3f 2f 34 5d 3f 89 d9 82 3f
       -0.13632686 1.0028924 0.8640775 1.0222636
0000b0 94 a6 31 c0 01 1b f3 3e 38 34 13 40 b7 5b 5c bf
       -2.7757921 0.4748154 2.3000622 -0.86077446
0000c0 5c dd e3 3f 8f f8 c2 3e ed d8 5c bf 12 ec f8 be
       1.7801929 0.3808026 -0.862685 -0.48617607
0000d0 2c 24 84 be 4c 7b de 3f 4e 1a 9b 3c 75 6c 96 bf
       -0.25808847 1.7381377 0.018933441 -1.1751848
0000e0 06 ce d7 3e ab 92 f3 3e 31 59 65 3e 69 b8 19 3f
       0.4214937 0.47572836 0.22397305 0.6004701
0000f0 e0 ed 03 40 0d b4 50 bf fe b6 2b bf 6e ed 49 be
       2.0613937 -0.81524736 -0.670761 -0.19719478
000100 d7 80 ab bc e1 eb c3 be bf 79 f1 bf 18 24 72 bf
       -0.020935459 -0.382659 -1.8865279 -0.94586325
000110 ba 8d 99 3f 91 db bb 3f ab 4a 6e be 97 2c d1 bf
       1.1996377 1.4676381 -0.23270671 -1.6341733
000120 2f 23 03 3f 00 8e 3f bf f3 e3 43 bf 54 8d a4 be
       0.5122556 -0.7482605 -0.765197 -0.32139075
000130 43 fd 28 3e 5d 84 0b bf dc d8 be bf 58 ce db be
       0.16502862 -0.54498845 -1.490993 -0.42930865
000140 0c d7 56 3f 3a df 06 3f 3d 81 1e bc f9 2c 2f 3f
       0.83921885 0.52684367 -0.0096743675 0.68428
000150 e2 8e 3f be 26 ef dd 3f d9 fb c6 3f f9 36 5f 3f
       -0.18706849 1.7338607 1.5545608 0.87193257
000160 77 61 b5 3f 39 52 4d 3f 65 ed 1e bf 60 df a0 3e
       1.4170369 0.80203587 -0.62080985 0.31420422
000170 c5 1c 6e be 70 fb c9 bf 14 a6 49 3f e4 60 94 bf
       -0.23253162 -1.5779858 0.7876904 -1.1592069
000180 45 f8 cc 3e 7e 68 34 3e 21 a2 92 bf 71 68 c3 3f
       0.40033165 0.17617986 -1.1455728 1.5266248
000190 d0 eb e3 bf 7f 15 9f 3f c3 e1 4d be be 1f 89 3f
       -1.7806339 1.2428435 -0.20105653 1.0712812
0001a0 62 ea 0a 3e 2e 31 7d bf 31 56 c6 bf 8b 04 ac bf
       0.13565972 -0.9890317 -1.5495054 -1.3438886
0001b0 88 6e d4 bf 62 09 ec bf 83 1c dd 3c cf 7c 45 3f
       -1.6596231 -1.8440363 0.026991135 0.7714357
0001c0 98 89 19 be 93 de 9a bf da d8 01 be 54 33 6e bf
       -0.14993894 -1.2099174 -0.12680379 -0.9304707
0001d0 c5 5f e4 3c 93 fc 86 3e 3c 78 17 c0 8b fb 2c 3f
       0.027877698 0.26364574 -2.3667135 0.67571324
0001e0 34 ea 2e 3f fa 22 3b be 4d ab b7 be 8f be f8 3f
       0.68326116 -0.18275061 -0.3587288 1.9433154
0001f0 c8 7c 02 bf b3 7c 0f 3f 8b 10 e1 bf e9 29 f6 bc
       -0.5097165 0.5604965 -1.7583174 -0.030049281

_embedding_layer.cat_embedding_layers.1.weight f4 [187, 50]
000000 f5 d1 7e be 04 2a 9f bf f3 84 cf 3f 2a dd 1a 3e
       -0.2488478 -1.2434697 1.6212448 0.1512343
000010 cb a1 ba 3f cd ff 5b 3f ca c6 d2 3e f2 13 c4 be
       1.4580625 0.85937196 0.4116729 -0.38296467
000020 ba 13 54 3e b9 53 58 bf 63 f6 85 3e 45 65 4a bf
       0.2071065 -0.8450275 0.2616454 -0.79060775
000030 65 f8 b4 be 66 1d db be a7 2f d8 3f 2d 3d 9b 3f
       -0.3534576 -0.42795867 1.6889542 1.2128044
000040 07 6e ae bd 8f 35 85 3f 03 30 06 bf 4a 60 03 bf
       -0.0851708 1.040697 -0.5241701 -0.513188
000050 21 ec db 3e 97 53 e8 3f 6d 4f 93 bf e3 97 9c be
       0.4295359 1.815051 -1.1508614 -0.3058463
000060 a1 c3 4e 3f c6 b0 4b 3f 65 e9 64 3e 22 37 52 bd
       0.80767256 0.7956661 0.22354658 -0.05132211
000070 9f ef 3c 3f 21 44 c0 3f 30 10 52 3f b2 38 68 bd
       0.7380313 1.5020791 0.8205595 -0.056694694
000080 d4 63 fe bf 11 8c 7f 3f ce 4b 53 3b cc 20 a0 3d
       -1.9874215 0.998231 0.0032241228 0.078187555
000090 e4 06 89 bf ae b0 82 bf 4a b8 dd 3f 04 c1 0a 3f
       -1.0705228 -1.0210168 1.7321866 0.5420077
0000a0 c8 59 9c 3e 10 77 91 3f f8 37 2f 3f 8b c8 89 3e
       0.30537248 1.136446 0.68444777 0.26910815
0000b0 4a 2f 52 3f dd db 8c 3e 19 57 c7 be 7c 1d 4f be
       0.8210341 0.27511492 -0.38933638 -0.20226091
0000c0 09 09 06 40 23 92 c4 be 01 c0 00 3f bc 3b 22 40
       2.0943015 -0.38392743 0.50292975 2.534896
0000d0 0a a7 14 bd b3 a4 56 bd 7e 1c f5 3e 44 eb 6f bf
       -0.036292113 -0.052403163 0.478733 -0.9371836
0000e0 85 5e de bd 7e 4a a7 3f 83 8d 84 3f fb 9f 68 3f
       -0.10857872 1.3069608 1.0355686 0.9086911
0000f0 7b 51 1b bf 51 73 97 3e bd d5 f8 be 09 8f ed 3f
       -0.60671204 0.29580167 -0.4860057 1.8559276
000100 f6 be 63 3f e6 71 86 3c 77 d6 47 3f d0 1a db bf
       0.8896326 0.016411733 0.7806162 -1.7117558
000110 26 61 89 bd 19 3a e7 bc 4b bf 32 3f 5f a0 ca be
       -0.06707983 -0.028225945 0.6982314 -0.39575478
000120 d2 a5 13 c0 d2 0b ea 3f ae ac d8 bf 02 e6 9b be
       -2.3069959 1.8284857 -1.6927698 -0.3044892
000130 de 01 d8 3e ee 03 a2 3f 77 2a ee 3c d7 43 48 bf
       0.42188925 1.2657449 0.029072983 -0.78228515
000140 dc b6 4e be 78 c0 71 3f ad b5 81 bf 72 85 cd 3d
       -0.20186943 0.9443431 -1.0133568 0.10035218
000150 53 d0 89 bf ff 67 c9 bd 45 f5 79 3f b3 04 ac bf
       -1.07667 -0.09834289 0.97639877 -1.3438934
000160 3d 8d 95 3f 3f 00 0f c0 0f 41 96 bf 36 0a be bf
       1.1683728 -2.23439 -1.1738604 -1.4846866
000170 b1 66 55 be ba 73 d3 bf 76 2c 91 be 83 0d 31 bf
       -0.20839955 -1.6519692 -0.28354234 -0.6916124
000180 ae 0e 28 be 3d 0b 29 bd a1 b8 43 bf 33 27 82 3e
       -0.1641185 -0.041270483 -0.76453596 0.25420532
000190 8d 91 9f 3f cf a2 8d bf 55 2c ae 3f ee 17 e7 bd
       1.2466294 -1.106531 1.3607279 -0.11283861
0001a0 15 db f1 bf cb 23 63 3e f2 88 4c 3f 66 9e 44 be
       -1.8894984 0.22181623 0.7989646 -0.19201049
0001b0 13 e3 a2 3e 8a 21 61 bf 25 ac 10 3f d0 96 58 bf
       0.3181387 -0.879418 0.5651267 -0.8460512
0001c0 d4 6b 05 be af 6a 6d be 61 87 70 3f 6b 44 09 c0
       -0.13029414 -0.23185228 0.9395657 -2.144801
0001d0 f2 01 a7 bf 46 34 f3 3f df a3 6c 3f 13 1e fa bf
       -1.3047469 1.9000328 0.9243755 -1.9540428
0001e0 21 96 c4 3e 5c 44 e0 3d c5 c2 95 3e e5 b7 bb be
       0.3839579 0.109505385 0.2925016 -0.36663738
0001f0 38 c0 89 bf 0f 34 95 3e 14 8f 0b bf f8 13 b4 bf
       -1.0761786 0.2914128 -0.54515195 -1.4068594
000200 e1 53 fb 3f aa 38 3d 3f f6 ff 8b bd dd a3 2b be
       1.9634973 0.7391459 -0.0683593 -0.16761728
000210 0a 6c 01 c0 d7 c5 22 bf 11 1e 70 bf 7b 52 1d 3f
       -2.0222192 -0.6358313 -0.9379588 0.6145398
000220 57 30 eb bf f3 f6 76 3e 85 63 a4 3f 19 aa 77 3f
       -1.8374127 0.24117641 1.2842871 0.96743923
000230 0d 80 8e 3f 50 bc 24 bd 2e e2 ca bf ef 67 55 be
       1.1132828 -0.04021865 -1.5850275 -0.20840429
000240 14 d3 d1 bf cc ff c0 3e 91 dc e8 bf 6a f0 c9 3e
       -1.6392541 0.37695158 -1.8192312 0.39441234
000250 62 cc 10 bf cb 46 ce 3e e0 36 01 bf 58 8b cb bf
       -0.56561863 0.40288386 -0.5047436 -1.5901899
000260 74 4b fe be 51 05 35 bf 6e e6 fb bf b1 60 39 3f
       -0.4966694 -0.7071124 -1.9679697 0.72413164
000270 0e 87 b3 be d6 58 d0 3f c2 4a 1b 3f 92 63 19 40
       -0.35063976 1.627711 0.60660946 2.3967023
000280 b3 3a 22 bf 00 32 f5 3e c4 b8 df 3f 37 86 e5 bd
       -0.6337082 0.4788971 1.7478261 -0.1120724
000290 87 84 01 3f 9d 79 61 be e1 9f 8b 3c b7 22 bf bf
       0.50592846 -0.22019048 0.01704401 -1.4932469
0002a0 ed 4b 24 3e 26 27 ce 3f fd ef 33 bf f3 72 a5 3d
       0.16044588 1.6105697 -0.7028807 0.080785654
0002b0 cb 44 e1 3f d5 fa 18 bf 72 6c b1 3d 22 eb 24 3f
       1.7599119 -0.5975774 0.086632624 0.64421284
0002c0 b4 d7 1d 3f 63 6a da be 6d a1 a7 3f b9 75 af 3e
       0.6165726 -0.42659292 1.3096138 0.34269503
0002d0 a6 f2 b9 bf d2 aa 84 bc 4a 0a 43 b9 b4 e7 1b bf
       -1.4527175 -0.016194735 -0.00018600482 -0.60900426
0002e0 e7 ff 21 3e b1 7e 7e bf 9b 57 82 3f d4 cf 0f bf
       0.15820275 -0.99412066 1.0182985 -0.56176496
0002f0 b2 07 5b bf a4 34 e6 bd 9d 7a 52 3f 3b f4 23 3f
       -0.8555862 -0.11240509 0.82218343 0.6404454
000300 19 c2 5a 3f 47 38 cb 3f cd 34 6a 3e 7b 24 30 3f
       0.8545242 1.587655 0.22871704 0.68805665
000310 c8 88 06 bf 9c 55 b0 3e a2 a6 fd be 00 72 08 3f
       -0.5255246 0.34440315 -0.49541193 0.5329895
000320 90 b8 82 bf 69 77 0d c0 f3 f8 40 3f b4 5d 79 be
       -1.0212574 -2.2104132 0.75379866 -0.24352151
000330 d2 83 eb be 6f 67 ee 3e 53 1f 65 bf 3b 19 47 3e
       -0.45999008 0.4656329 -0.8950092 0.19443218
000340 46 6a 31 bf 74 01 05 3f 95 be a2 be 21 d1 73 3f
       -0.69302785 0.5195534 -0.31786028 0.9524098
000350 63 fe b5 bd 0a 0d 4d bf 90 df ce 3d 5f c2 9c bc
       -0.08886411 -0.8009802 0.10101235 -0.019135652
000360 5c 3b c0 3e 5d 59 8e be 62 27 1e bf cc 9c 96 be
       0.37545288 -0.27802554 -0.61778843 -0.29416502
000370 b3 c4 ab 3f 68 23 80 bf 88 99 c0 3d fc a4 37 be
       1.3419403 -1.0010805 0.09404284 -0.1793403
000380 f0 73 73 bf 81 f2 8a bf 0e 88 2c 3f 36 8b 4b be
       -0.9509878 -1.0855256 0.673951 -0.19877324
000390 55 d6 6b bd 4d e7 51 3f 0d 27 82 be 40 2c c5 3f
       -0.05757745 0.8199356 -0.25420418 1.5404129
0003a0 5f 76 11 3f d9 ed 9b be d0 cf 41 3e c5 fd 7a be
       0.56821245 -0.304549 0.1892693 -0.24510868
0003b0 c0 44 59 3f 81 4f 4f 3f b6 3b 3b 3f e1 1d cf 3e
       0.8487053 0.8098069 0.73137987 0.40452483
0003c0 30 d8 52 be d1 1e d5 3f 67 f0 0b bd 39 10 f9 be
       -0.20590281 1.665003 -0.034164812 -0.4864519
0003d0 bb 88 a9 3f 03 65 72 3e 1b 8a df bf 4f ab be 3f
       1.3244852 0.23671345 -1.7464021 1.4896029
0003e0 e1 9b e5 be 55 54 9a 3f 37 cb 11 40 1d ec e1 3e
       -0.4484549 1.2056986 2.2780282 0.44125453
0003f0 38 04 0f 3f 06 64 27 3f 22 24 01 c0 fc 1b 80 3f
       0.5586581 0.65387 -2.0178304 1.000854

_embedding_layer.cat_embedding_layers.2.weight f4 [3, 2]
000000 9f 60 c1 bd b5 7a 2f 3e 2d 5b 26 be 43 5e f7 3f
       -0.09442257 0.17136653 -0.16245718 1.9325641
000010 c9 be 74 bf e5 b8 34 3f
       -0.95603615 0.70594627

head.layers.0.weight f4 [2, 16]
000000 3e 51 91 be 9b 54 9d be ac 40 6d be e9 3c 90 3d
       -0.28382295 -0.3072861 -0.23169202 0.07042868
000010 d8 b2 5f bf cf 1f ad 3e 19 94 d1 3d 0e b1 da 3d
       -0.8738227 0.3381333 0.102333255 0.10678302
000020 bc 57 78 bd d4 96 7e be 90 ce bb 3e 1c 0c 45 3e
       -0.060630545 -0.24862224 0.36681032 0.192429
000030 4f a7 20 be ac a4 4e 3f d3 13 91 3e d1 cb 81 bd
       -0.15688823 0.8072002 0.28335437 -0.06337703
000040 45 53 44 3e 8c 0c 84 be 70 5e 0b 3f a3 4d 0d be
       0.1917239 -0.25790823 0.54440975 -0.13799147
000050 4d 6f c5 bd a4 c5 bf 3e 4e 75 da bd 40 46 55 bf
       -0.096403696 0.37455475 -0.10666905 -0.8331032
000060 c9 bd f7 be 06 20 e5 3e 21 2b 08 bf 3d 51 a6 3e
       -0.48386982 0.44750994 -0.5319081 0.32483855
000070 2f e8 e9 3e 6c 2a 14 bf 54 76 67 be 7a 66 c5 3d
       0.45684955 -0.5787723 -0.22603732 0.096386865

head.layers.0.bias f4 [2]
000000 0f 14 51 3d a5 e7 95 be
       0.05104452 -0.29278293

exp_avg f4 [32, 61]
000000 e5 e1 7c 3a 3a 37 68 b8 aa e5 f2 37 eb 26 1c 37
       0.0009646698 -5.5364544e-05 2.8955594e-05 9.307386e-06
000010 c4 ec 01 b8 d9 14 3b 39 64 f8 ee 38 14 a5 05 b8
       -3.0976502e-05 0.00017841476 0.00011394991 -3.1863412e-05
000020 ba 8b a4 b8 57 54 39 37 a3 89 b6 b8 49 06 88 37
       -7.8461555e-05 1.1046496e-05 -8.704073e-05 1.621539e-05
000030 a3 c5 4f b7 f1 2f f2 b7 a7 5a 57 b8 d1 1a 5a 37
       -1.2384177e-05 -2.8870973e-05 -5.134442e-05 1.3000056e-05
000040 77 6c 07 38 a5 4f 0e 38 8e 96 46 37 ce 6e df b7
       3.2287524e-05 3.3929613e-05 1.1836773e-05 -2.6635269e-05
000050 67 d9 93 37 c8 0b 60 b8 d1 a7 0a 38 c5 83 c1 b7
       1.7625001e-05 -5.3416734e-05 3.3058055e-05 -2.3068753e-05
000060 31 71 7d 38 d0 e4 6f b8 5f 41 b6 b8 0b f4 09 38
       6.042532e-05 -5.719514e-05 -8.6906126e-05 3.2890628e-05
000070 af af fa 37 37 0b 1c 38 87 4c c7 37 bf d9 ae 37
       2.9884131e-05 3.7203743e-05 2.3758284e-05 2.0843812e-05
000080 09 82 cc b8 63 28 b8 b8 20 4e f5 b8 c7 fa d4 b7
       -9.751699e-05 -8.781326e-05 -0.00011697062 -2.5389147e-05
000090 87 d8 9f b8 34 7b cf b8 97 48 f0 38 1b f9 72 35
       -7.622042e-05 -9.8934775e-05 0.00011457613 9.051452e-07
0000a0 bd c3 01 b7 82 7e 03 38 76 b1 0e 38 e9 ad d5 b7
       -7.734573e-06 3.1350653e-05 3.402071e-05 -2.5472562e-05
0000b0 d8 39 45 b8 85 4e 1e 38 05 1a 11 38 b7 da 0c 38
       -4.702233e-05 3.7743263e-05 3.4594927e-05 3.3582295e-05
0000c0 3f e3 06 b7 c8 35 21 b8 37 a9 29 38 48 33 25 37
       -8.039932e-06 -3.843548e-05 4.0450333e-05 9.846706e-06
0000d0 2a 26 ad 37 29 ae d9 b7 e0 40 62 37 08 ee 8f b7
       2.0640979e-05 -2.5949515e-05 1.3485755e-05 -1.715777e-05
0000e0 c8 de 34 38 75 6a 9b 36 69 b0 12 38 2e b6 bd 37
       4.3122825e-05 4.631753e-06 3.4973407e-05 2.261539e-05
0000f0 ac a6 53 b8 1d ab af 39 ee d1 50 38 5f 4e d2 b9
       -5.0461545e-05 0.0003350609 4.9786577e-05 -0.00040112712
000100 0e f5 c2 b9 ff a4 2d ba 09 61 82 3a 04 66 08 3a
       -0.00037185143 -0.00066240126 0.0009947132 0.000520319
000110 1a 79 24 ba f7 b6 36 39 31 c0 54 b8 6d b8 88 b7
       -0.0006274149 0.00017425032 -5.072373e-05 -1.6298343e-05
000120 7d 65 23 38 28 b2 e5 b7 8e af 1b b8 a7 96 40 b8
       3.8956747e-05 -2.7381888e-05 -3.7118378e-05 -4.5916673e-05
000130 d0 69 c6 b7 40 b5 73 b7 2a 95 4c b7 5c e4 71 b8
       -2.3652712e-05 -1.4526129e-05 -1.21940775e-05 -5.7671554e-05
000140 92 36 71 37 ef 9a b8 37 d5 24 0b b8 16 7f 80 34
       1.4377425e-05 2.2006656e-05 -3.3174485e-05 2.3934325e-07
000150 e1 50 28 b8 b8 f0 48 38 07 fa a2 35 55 7d 9d b8
       -4.0129646e-05 4.7907903e-05 1.2142708e-06 -7.509688e-05
000160 87 75 07 38 a4 5c 40 38 e2 80 55 37 dc a0 93 37
       3.2295964e-05 4.5862645e-05 1.2725797e-05 1.7598672e-05
000170 66 a5 5a 38 bf 80 a8 b8 3a ec 44 b8 1a 5b 05 b8
       5.212929e-05 -8.034845e-05 -4.6950045e-05 -3.1794516e-05
000180 f9 ad de 36 b3 49 74 b8 4d 2b 2f b7 d7 63 24 38
       6.6363687e-06 -5.824277e-05 -1.0440895e-05 3.919363e-05
000190 3c 7a ea 37 54 e7 69 36 9d 1a 97 38 97 13 5b 38
       2.7951894e-05 3.4854356e-06 7.205198e-05 5.2231913e-05
0001a0 f4 d8 04 b5 b1 42 94 b7 91 7a fe b7 d7 bf a9 36
       -4.948954e-07 -1.767403e-05 -3.0336234e-05 5.0589256e-06
0001b0 4e ce d6 b7 db 84 28 38 06 45 67 38 8f a3 77 38
       -2.5606856e-05 4.0178053e-05 5.5138975e-05 5.9041715e-05
0001c0 93 18 69 38 50 ba d7 36 87 9f 3b 38 64 e8 4b 37
       5.5574415e-05 6.429189e-06 4.4732846e-05 1.2153851e-05
0001d0 58 a7 19 b7 44 8e 54 b6 13 8e 4d 37 e8 5e 83 36
       -9.158473e-06 -3.1673271e-06 1.2252031e-05 3.915153e-06
0001e0 d5 b3 3c 39 bb 4e db 38 2e d2 e1 35 32 68 d5 38
       0.0001799607 0.000104573985 1.6824977e-06 0.00010176039
0001f0 a3 de 27 b9 dd bf 37 b9 62 d6 43 b9 1e 20 b8 39
       -0.000160093 -0.00017523715 -0.00018676513 0.00035119144
000200 af ef 98 b7 11 0d b2 b9 0e 8b f8 38 17 a5 77 b7
       -1.8231423e-05 -0.0003396054 0.000118514625 -1.4760785e-05
000210 6f e2 6b 37 05 29 44 38 6e 20 84 b8 02 f3 a3 38
       1.4059812e-05 4.6768244e-05 -6.300291e-05 7.8177094e-05
000220 28 9b 08 b8 47 7a 7c 37 39 48 cd 38 4c b7 31 b8
       -3.2569427e-05 1.504884e-05 9.788614e-05 -4.2370797e-05
000230 9b 4b 0a b9 23 94 38 b8 37 f3 a5 38 da 85 98 b8
       -0.00013188871 -4.400698e-05 7.9131154e-05 -7.2728566e-05
000240 79 b0 34 38 fa 85 c1 b7 1b da e9 35 46 f6 dd b7
       4.3079697e-05 -2.306978e-05 1.742333e-06 -2.6459933e-05
000250 39 96 28 b9 be 72 4d b8 0d 3a 1b 38 e6 de cd b8
       -0.00016077691 -4.898267e-05 3.7008944e-05 -9.81668e-05
000260 ea 2a f2 37 bd e4 8c 37 95 dc 59 b9 bc 2d 6b b8
       2.8868631e-05 1.6795815e-05 -0.00020776906 -5.607096e-05
000270 af 55 53 b9 c0 71 8d b8 95 17 07 b9 54 cf 84 b7
       -0.00020154448 -6.7445915e-05 -0.00012883388 -1.583217e-05
000280 c9 73 c3 38 be 2b a7 37 42 41 94 37 95 c6 8f 39
       9.319891e-05 1.992832e-05 1.7673363e-05 0.0002742304
000290 73 ad c9 38 fe 6b 98 b6 97 d0 16 38 d4 eb c7 38
       9.616734e-05 -4.542525e-06 3.595705e-05 9.532986e-05
0002a0 57 ad 9b b8 a5 92 09 38 05 20 be b8 11 f9 4f b8
       -7.423263e-05 3.279992e-05 -9.06587e-05 -4.9584607e-05
0002b0 67 11 97 38 54 7b 27 b7 1a 2a a7 38 aa 39 a6 37
       7.2034825e-05 -9.98269e-06 7.9710226e-05 1.9815594e-05
0002c0 d2 47 fd 36 b4 9f 9f 38 2a 68 88 38 53 8d 03 38
       7.5483485e-06 7.611458e-05 6.5043874e-05 3.1364452e-05
0002d0 66 16 ca b7 b9 99 17 39 e5 83 99 b7 62 42 fb b8
       -2.4090707e-05 0.00014457748 -1.830044e-05 -0.000119809774
0002e0 d5 4b 9f b5 4c fa 2c b6 52 f0 d5 b5 83 22 b5 b6
       -1.1868493e-06 -2.577569e-06 -1.5939679e-06 -5.398238e-06
0002f0 17 28 a4 36 32 80 1d 37 e0 f1 a0 b5 16 65 1e b6
       4.892248e-06 9.387777e-06 -1.1991324e-06 -2.3602674e-06
000300 5b 26 5f 36 69 db 6d 37 87 40 d8 b6 a2 83 04 37
       3.3251915e-06 1.4177386e-05 -6.4448136e-06 7.898461e-06
000310 a4 67 9e 37 31 1f 17 b6 f5 aa 21 36 b0 01 49 b6
       1.888333e-05 -2.251891e-06 2.409038e-06 -2.9952316e-06
000320 01 ad c3 b7 94 97 ce 36 5f a2 71 b7 23 1b c3 37
       -2.3326373e-05 6.1569244e-06 -1.4402524e-05 2.3258448e-05
000330 7c 29 ce 37 50 11 57 b7 86 57 29 b7 d7 b8 7e 37
       2.4576431e-05 -1.28190295e-05 -1.0093563e-05 1.5182616e-05
000340 98 d2 25 36 a6 9e d5 37 5f 77 8b b6 37 a8 99 b6
       2.4709498e-06 2.5465455e-05 -4.1564194e-06 -4.579338e-06
000350 c8 c1 66 37 f9 d7 60 b7 0d d5 47 b6 6e d3 04 37
       1.37541865e-05 -1.34017255e-05 -2.9777323e-06 7.91704e-06
000360 53 78 44 b7 59 15 68 37 3e 4d 16 b7 83 70 55 b5
       -1.17105255e-05 1.3833248e-05 -8.958681e-06 -7.951241e-07
000370 b5 b9 14 b8 10 70 e4 36 57 0a ff b6 4f 6b 08 36
       -3.5458903e-05 6.8079753e-06 -7.600796e-06 2.032804e-06
000380 ce aa 0a b7 78 49 e7 35 06 fa 5f 37 b2 9f 36 b7
       -8.2652095e-06 1.7232223e-06 1.3350049e-05 -1.0885227e-05
000390 c6 51 9f b6 cf c6 21 35 8c 56 77 37 11 9f 80 37
       -4.748089e-06 6.026648e-07 1.4742498e-05 1.533286e-05
0003a0 72 83 39 b6 08 10 19 b4 34 b6 b9 b7 84 e6 7a 37
       -2.764366e-06 -1.4255068e-07 -2.2138564e-05 1.4954832e-05
0003b0 17 f6 86 b6 c1 92 21 37 23 87 af 36 8e d5 4d b6
       -4.02216e-06 9.630517e-06 5.2311384e-06 -3.0671686e-06
0003c0 ac 4c d1 35 11 b1 c0 36 26 a2 cb b6 82 54 d1 36
       1.5594028e-06 5.742659e-06 -6.068748e-06 6.2385234e-06
0003d0 fb 6d 83 39 58 0d 29 b7 7c a2 1e b6 b3 ff 7d 36
       0.0002506821 -1.0076292e-05 -2.3638413e-06 3.7848774e-06
0003e0 ea 49 a2 b6 fa 2b 93 37 6e 46 16 37 9f dd 0d b5
       -4.836581e-06 1.7544244e-05 8.957095e-06 -5.2849094e-07
0003f0 58 9f 0c 35 08 9d 03 b7 56 34 0f 38 3a ec 65 b8
       5.238594e-07 -7.84477e-06 3.41426e-05 -5.4817858e-05

exp_avg_sq f4 [32, 61]
000000 1c 37 f5 36 f5 15 94 35 4f 47 49 35 6e 92 9d 34
       7.3079846e-06 1.103325e-06 7.49821e-07 2.935007e-07
000010 da 68 0a 36 72 68 36 36 5a 6a d4 36 8b fc c6 35
       2.0624634e-06 2.7180909e-06 6.3304733e-06 1.4825649e-06
000020 d5 85 c2 34 30 89 0a 35 02 e3 91 34 12 68 3a 35
       3.6232692e-07 5.160864e-07 2.7173525e-07 6.944184e-07
000030 ae 34 bf 35 60 f6 a4 33 70 e3 04 34 39 0b 3c 34
       1.4245941e-06 7.6816605e-08 1.2376199e-07 1.7512947e-07
000040 4d 05 b1 35 49 e8 02 34 04 e4 5b 34 da 99 da 34
       1.318907e-06 1.2191698e-07 2.0478916e-07 4.0717606e-07
000050 99 47 d3 34 7b f2 ea 35 63 bc 93 34 fd 50 e3 34
       3.9353907e-07 1.750493e-06 2.7517953e-07 4.2340972e-07
000060 d7 f7 38 34 6b 3e b3 34 2d a2 24 36 6f c8 0c 34
       1.7226499e-07 3.3386763e-07 2.4532303e-06 1.3111433e-07
000070 06 c0 d8 33 f8 a6 5a 35 14 e8 84 35 3a 5f 55 34
       1.0093213e-07 8.14543e-07 9.90231e-07 1.9871814e-07
000080 d6 45 8f 36 07 44 71 35 6a 76 9b 36 17 18 ab 35
       4.269862e-06 8.987849e-07 4.633145e-06 1.2747504e-06
000090 7b 1e 00 36 26 1b 7b 34 88 89 f3 35 07 80 f5 34
       1.9091228e-06 2.3386073e-07 1.8144938e-06 4.5727958e-07
0000a0 8f 78 88 34 30 76 cb 36 e4 ae b1 34 6e c4 f2 33
       2.5419692e-07 6.0636303e-06 3.309607e-07 1.13047335e-07
0000b0 d7 d4 49 34 7f 01 f7 35 92 01 37 35 81 81 0c 35
       1.8797014e-07 1.840337e-06 6.81751e-07 5.234252e-07
0000c0 a4 c9 0e 35 0b 21 b0 35 fa 0a 45 35 12 00 9b 34
       5.319255e-07 1.3122639e-06 7.340419e-07 2.887105e-07
0000d0 cb b1 94 34 55 32 54 34 96 c5 49 34 6c f3 44 35
       2.769651e-07 1.9762349e-07 1.8791465e-07 7.3369915e-07
0000e0 02 bf 89 34 6b bc 7a 34 3a 3e a0 34 75 58 17 36
       2.5657215e-07 2.335161e-07 2.9847598e-07 2.2552242e-06
0000f0 73 c2 07 36 31 e9 11 37 02 3b 95 35 10 a0 1f 36
       2.0229752e-06 8.696968e-06 1.1118539e-06 2.3786015e-06
000100 fb ca a7 35 5b 8a a4 36 81 bd 34 37 38 af 55 37
       1.2501545e-06 4.9036876e-06 1.0772958e-05 1.2736586e-05
000110 52 3f fe 36 67 b7 d3 35 d7 2e cc 35 9c c3 3f 35
       7.5771613e-06 1.5774102e-06 1.5212817e-06 7.1437694e-07
000120 e5 d2 5b 35 d5 66 03 37 85 ff 4a 34 ef fa b2 34
       8.189075e-07 7.832151e-06 1.8905673e-07 3.3337662e-07
000130 c3 7d 27 34 24 7a f3 35 da 20 34 34 c4 ba 45 35
       1.5598839e-07 1.8140458e-06 1.6775758e-07 7.366e-07
000140 9e d4 ea 35 21 cb 88 35 09 f5 0f 37 2a b6 9b 35
       1.7496238e-06 1.0191908e-06 8.580516e-06 1.1601417e-06
000150 40 3d a6 35 8c 00 9c 34 2a ff 08 35 cd 00 5c 37
       1.238579e-06 2.9057662e-07 5.103526e-07 1.3113208e-05
000160 b9 24 06 35 f8 13 83 35 b3 00 32 36 00 ed 53 36
       4.997233e-07 9.766072e-07 2.6524474e-06 3.1579402e-06
000170 f4 f2 af 34 eb 7a b7 37 b1 af 5a 36 cc 19 b9 37
       3.2773062e-07 2.1872538e-05 3.2586797e-06 2.2065731e-05
000180 c3 da d8 36 1d 45 0a 37 74 26 51 35 af aa 1a 37
       6.462769e-06 8.241533e-06 7.7914524e-07 9.218856e-06
000190 cc e5 a7 35 3d 28 2e 35 08 ac c4 37 da 1f a1 35
       1.2509349e-06 6.4878606e-07 2.3445129e-05 1.2004705e-06
0001a0 0c 01 15 35 d8 81 05 34 e2 62 a3 36 26 5f 20 36
       5.550835e-07 1.2433827e-07 4.86929e-06 2.3897242e-06
0001b0 ac ff ba 35 f9 a5 14 36 83 89 94 36 67 f4 2e 35
       1.393249e-06 2.2150327e-06 4.426752e-06 6.5175703e-07
0001c0 0c 49 67 35 06 c5 7d 35 fc 60 70 35 ce 74 f4 33
       8.6160503e-07 9.453655e-07 8.95481e-07 1.1383382e-07
0001d0 ec f8 44 36 7c 0a 9a 35 6a 68 87 32 8e 97 54 35
       2.9351168e-06 1.1476945e-06 1.576355e-08 7.9196695e-07
0001e0 26 02 b3 36 03 df c7 36 ed 05 55 36 37 5e a5 35
       5.334866e-06 5.956624e-06 3.1742923e-06 1.2320878e-06
0001f0 1e 96 35 35 79 a8 ae 35 39 d5 2a 36 e7 32 d5 36
       6.7646204e-07 1.3013042e-06 2.5456086e-06 6.3538205e-06
000200 9b 46 2b 37 6b 73 4f 36 32 c1 9b 35 46 ad 86 35
       1.0208833e-05 3.0912586e-06 1.1604627e-06 1.0034207e-06
000210 2a ff 13 34 80 92 83 35 fd 64 18 36 90 89 8c 34
       1.378327e-07 9.802898e-07 2.2708548e-06 2.6177122e-07
000220 d5 ed 2c 34 76 85 09 35 63 86 2a 35 59 a8 98 33
       1.6105271e-07 5.123069e-07 6.3525493e-07 7.108674e-08
000230 98 42 72 34 63 e5 9d 34 67 a7 52 34 ba 37 c0 35
       2.2562233e-07 2.941043e-07 1.9618675e-07 1.4321333e-06
000240 23 e4 95 34 a0 50 19 35 ba 05 a7 34 c3 3a 21 35
       2.7919404e-07 5.7114266e-07 3.111034e-07 6.0062683e-07
000250 36 ac 3e 36 d1 af c6 33 73 85 fa 34 71 f1 5b 35
       2.8412446e-06 9.252074e-08 4.6663226e-07 8.19352e-07
000260 36 44 fd 35 89 70 3e 33 66 28 b1 36 9c 6a fc 35
       1.8869821e-06 4.4340172e-08 5.279714e-06 1.880649e-06
000270 a7 11 fa 36 cf 13 1f 36 1e 2a 09 36 cf 33 27 35
       7.4526356e-06 2.3704376e-06 2.0439106e-06 6.228774e-07
000280 29 88 97 36 4f 8f 1e 35 03 f8 e8 34 18 88 10 37
       4.516002e-06 5.906813e-07 4.339382e-07 8.614756e-06
000290 7e 14 e8 34 31 5e ae 34 42 99 3d 34 50 df 30 36
       4.3228277e-07 3.247856e-07 1.7657752e-07 2.6356029e-06
0002a0 cd 9a 96 35 fe d3 c0 34 91 65 17 35 42 40 ab 35
       1.1220924e-06 3.5917031e-07 5.639968e-07 1.2759194e-06
0002b0 3a f9 4a 35 bf 3d bf 34 a8 ec 32 35 9b 25 61 34
       7.5613536e-07 3.5621449e-07 6.665455e-07 2.0968439e-07
0002c0 69 9f 4e 34 4b aa 1b 35 6a 20 4b 35 c1 83 3e 34
       1.9243238e-07 5.798981e-07 7.567056e-07 1.774306e-07
0002d0 c3 b5 8a 34 3d 5a 5b 36 a8 85 35 37 6e 6c 01 36
       2.5836752e-07 3.2686069e-06 1.081956e-05 1.9285612e-06
0002e0 32 d4 d7 33 5d 8b 61 34 ca 8b 87 33 8f 3e 15 35
       1.0050316e-07 2.1005458e-07 6.311855e-08 5.559786e-07
0002f0 23 79 25 35 41 92 de 35 00 f8 bc 34 01 e3 6f 33
       6.1643567e-07 1.6582854e-06 3.5198173e-07 5.5852983e-08
000300 ff c0 93 34 5f 07 93 35 fc 5e 4e 35 d8 ca 6d 34
       2.7521307e-07 1.0954499e-06 7.68792e-07 2.2146139e-07
000310 4f 86 81 33 52 03 67 34 27 e9 92 34 af bb e0 33
       6.031461e-08 2.151476e-07 2.736426e-07 1.0464952e-07
000320 b1 51 7d 32 8d e1 e1 33 84 f3 8c 34 49 b2 28 35
       1.4745113e-08 1.05184064e-07 2.6254213e-07 6.2844316e-07
000330 95 36 de 34 f7 5a e0 33 c5 67 bd 34 50 ca 69 35
       4.1390436e-07 1.0447359e-07 3.5279496e-07 8.709367e-07
000340 e5 c2 62 34 0f 88 0e 35 be 16 19 33 f1 ae 13 33
       2.1118792e-07 5.3097114e-07 3.5643772e-08 3.4385213e-08
000350 9d ae ed 33 90 43 b8 34 b2 ff 8f 33 e6 21 16 35
       1.10679345e-07 3.432183e-07 6.705467e-08 5.5928683e-07
000360 7b 94 04 34 c3 e1 09 35 35 96 59 35 a9 ea 0c 35
       1.2347475e-07 5.1365004e-07 8.105738e-07 5.249554e-07
000370 28 ba 06 33 06 10 9d 34 20 75 e8 32 d0 21 01 34
       3.1368614e-08 2.9255187e-07 2.7061617e-08 1.2026362e-07
000380 a4 f8 52 35 59 fe 26 34 9b f4 4f 34 19 5a 2b 34
       7.8592916e-07 1.5552486e-07 1.9367364e-07 1.5958393e-07
000390 7a 8b b1 34 8b aa 16 34 ea b1 d0 33 27 9f 19 35
       3.3070302e-07 1.4031882e-07 9.718117e-08 5.722854e-07
0003a0 25 b7 4b 35 93 c0 3c 33 83 c8 f7 34 8d 07 f8 33
       7.5889903e-07 4.3947306e-08 4.6153227e-07 1.15497734e-07
0003b0 b9 f5 2b 34 4b b2 24 35 09 b6 04 34 29 1b 01 34
       1.601501e-07 6.135421e-07 1.2359682e-07 1.2023942e-07
0003c0 b3 26 4c 33 25 73 c8 33 55 15 10 35 16 aa 2a 35
       4.7532648e-08 9.3341704e-08 5.367522e-07 6.357744e-07
0003d0 0a af 0f 36 0e ac b0 33 92 41 50 34 28 fc 7a 33
       2.1410547e-06 8.226935e-08 1.9395364e-07 5.8436996e-08
0003e0 ff ea 75 34 8c 8b 73 35 3f 7e f1 33 19 ca ef 34
       2.2902894e-07 9.072762e-07 1.1245401e-07 4.4664264e-07
0003f0 a9 79 dc 33 16 09 01 34 5d 6c 06 33 17 bd e3 32
       1.0266678e-07 1.2017367e-07 3.1297862e-08 2.6512266e-08

exp_avg f4 [32]
000000 5e 90 26 b8 b2 31 a7 b8 cf 08 e8 b8 11 fb f1 36
       -3.9711937e-05 -7.972437e-05 -0.00011064263 7.2115877e-06
000010 dd 8e 23 37 65 37 f6 b8 f1 df ae b8 13 28 5f b7
       9.74882e-06 -0.00011740512 -8.338679e-05 -1.3301166e-05
000020 98 29 32 b7 dc 9b b2 b8 eb 09 02 b8 d7 46 7f b8
       -1.0619311e-05 -8.5167325e-05 -3.1003652e-05 -6.0862712e-05
000030 c9 1e b9 b6 73 47 db b6 b1 87 e6 b8 75 12 05 b9
       -5.5170135e-06 -6.5350264e-06 -0.00010992529 -0.00012690744
000040 1d da 17 39 ff 8c 10 37 b1 42 26 b8 d0 01 8f b8
       0.00014481736 8.615897e-06 -3.9639595e-05 -6.819109e-05
000050 3d 42 15 37 29 06 28 35 14 9c 73 37 80 cc 5f 38
       8.896514e-06 6.259384e-07 1.4520268e-05 5.33578e-05
000060 0a f4 d9 b6 8a 21 1f b8 b7 61 df b8 82 b0 82 38
       -6.495514e-06 -3.793979e-05 -0.000106516694 6.23176e-05
000070 8c 89 1d 3a c9 12 0e b9 2c 41 90 b9 e1 11 b8 b8
       0.0006009571 -0.00013549173 -0.00027514377 -8.777134e-05

exp_avg_sq f4 [32]
000000 4f 68 42 36 c4 7b fd 36 9f e8 06 37 32 7a 58 35
       2.8968968e-06 7.554396e-06 8.041184e-06 8.064409e-07
000010 9c 4b b7 33 98 69 27 35 26 3f b7 34 06 75 9f 37
       8.535355e-08 6.2366007e-07 3.4132353e-07 1.900877e-05
000020 cc 8a 94 35 66 75 ec 36 53 b7 59 33 72 08 28 35
       1.1067254e-06 7.047015e-06 5.0690982e-08 6.2597167e-07
000030 23 bd d3 36 2f 48 16 36 bc 71 cb 35 3f 8a 7e 37
       6.3103084e-06 2.2393758e-06 1.515778e-06 1.5171768e-05
000040 b5 7d 76 36 b8 a6 5a 33 cf 27 66 37 4d 2e b1 34
       3.6730028e-06 5.090871e-08 1.3718337e-05 3.3002507e-07
000050 77 18 46 33 78 72 3d 37 a0 3e 72 36 13 4a be 34
       4.6122718e-08 1.129193e-05 3.6097263e-06 3.5444154e-07
000060 43 25 81 32 c2 0c 07 35 ab 4a 53 34 78 aa 61 36
       1.5034521e-08 5.0309984e-07 1.967807e-07 3.3626839e-06
000070 bb 69 df 35 a3 d4 d0 36 04 6c 7a 36 72 79 ba 36
       1.6645566e-06 6.2236372e-06 3.7315776e-06 5.55737e-06
