vertex-multicloud/bq_omni/saved_models/classification-4_epoch=5-valid_loss=0.03.ckpt (torch, 200914 bytes, 27 tensors)

_backbone.linear_layers.0.weight f4 [32, 63]
-0.0024153318 -0.20042323 -0.08337713 -0.17675346 -0.102359414 0.10264729 0.100690424 -0.3323882
-0.34159532 0.11440125 -0.14981677 0.032172974 -0.13815197 -0.33397272 0.25494835 -0.19976984
0.041121453 0.09746318 -0.082610145 0.109184384 -0.2635247 0.01972029 0.38344502 -0.071181394
0.22083169 0.03828285 -0.08015247 0.13337317 0.13351227 -0.068459734 -0.28666213 -0.27110797
-0.24357499 -0.057219315 0.4449719 -0.406643 0.24386767 -0.24858545 0.37492472 0.074127994
0.22293672 0.38094917 -0.0148140695 -0.40088937 -0.25561726 -0.10883902 -0.1801493 0.22180381
-0.1814678 0.4696062 -0.30428743 0.035110272 0.089541145 0.1271791 0.4007242 -0.048241086
-0.062503435 0.07945509 0.01071576 0.34130564 -0.30094063 -0.170145 -0.0045164838 -0.3994362
0.26822433 0.119823106 0.43096074 0.14141072 -0.054295193 0.13316773 -0.07225828 0.051338002
-0.3129608 -0.24190111 -0.4308122 0.18000442 -0.17470096 -0.10086215 -0.2503077 0.362685
-0.24629907 0.07313012 0.10837482 -0.2566428 0.051370867 0.017703017 -0.15787897 0.12817682
0.124732725 -0.084376134 -0.0006438481 -0.21808398 -0.15580109 -0.21903184 0.30465254 -0.106930524
0.0984142 -0.1669226 0.11844557 -0.2734273 0.33600298 0.093864165 -0.04950919 0.26414987
-0.0044319727 0.110947475 -0.40980294 0.08635808 0.0053024488 -0.029368728 -0.3062981 -0.2104208
0.19556355 0.046844836 -0.08047172 0.056674868 0.387998 -0.08868418 0.7305473 -0.1784948
0.48902786 -0.3226781 -0.05997421 0.16744286 -0.032540023 0.4200752 0.03457314 0.15872392
-0.10732232 -0.4142012 0.034938395 -0.27443954 0.2770362 0.27959174 0.13901946 -0.04760276
0.12867479 0.22885843 0.09240753 0.31004617 0.17631218 0.23332906 -0.1312853 -0.075192235
-0.29884717 -0.29352123 -0.035586152 0.10336922 0.2782988 -0.11437814 0.0073310784 0.32316238
0.077110186 -0.038128037 0.2673069 0.24863361 -0.09716896 0.3715682 0.3603867 -0.02349292
-0.04978872 0.04625981 0.29237148 0.18772471 -0.340487 -0.052864928 -0.26212725 -0.30533275
0.08907569 0.4875651 -0.39916036 0.07201269 -0.029054401 -0.20201322 -0.09040971 -0.109868735
-0.05607536 0.19919625 0.27586097 -0.24931847 -0.08336552 -0.3257982 0.116003044 -0.2528054
-0.09167613 0.025056334 0.3373739 -0.36784998 -0.24155526 -0.4839836 -0.092642576 -0.45590928
-0.080350325 0.0576138 -0.09326853 -0.2326212 0.29245132 -0.5032151 -0.3958015 -0.20587167
-0.3394615 -0.3532825 -0.48413244 -0.08652447 -0.016748369 -0.24165368 -0.0059738425 0.026487913
0.045893505 0.28670478 -0.1971527 0.24385294 0.23877518 0.043675907 -0.06507021 0.25370786
-0.09902275 0.16952798 0.22634098 -0.28434563 0.028762292 -0.35790014 -0.2190229 0.045298025
0.25985178 -0.2046782 -0.045705747 -0.17545396 0.1522769 -0.12760963 0.38005203 -0.1110361
-0.04601359 -0.15391733 -0.54816264 -0.18200295 0.106438614 0.2730819 0.2118697 -0.21867874
0.21402574 -0.10381626 0.4217624 -0.13736929 -0.48438707 -0.033413317 0.28546238 0.09494776
0.023058765 -0.48131037 -0.23668838 0.13425903 -0.7668855 0.3735047 0.037164554 0.09283104
00000000: 8b4a 1ebb bf3b 4dbe a1c1 aabd dcfe 34be
00000010: d0a1 d1bd be38 d23d c836 ce3d c92e aabe
00000020: 95e5 aebe 344b ea3d 9169 19be cfc7 033d
00000030: b677 0dbe 79fe aabe 9788 823e 7790 4cbe
00000040: f86e 283d c79a c73d 822f a9bd 109c df3d
00000050: b6ec 86be 728c a13c e852 c43e 8dc7 91bd
00000060: b421 623e 7ace 1c3d fa26 a4bd fa92 083e
00000070: 71b7 083e 9e34 8cbd 61c5 92be aace 8abe
00000080: b96b 79be cd5e 6abd 5bd3 e33e 8333 d0be
00000090: 72b8 793e 2f8d 7ebe 22f6 bf3e 6bd0 973d
000000a0: 8649 643e c50b c33e b6b6 72bc 5f41 cdbe
000000b0: 44e0 82be fee6 debd 0f79 38be 8a20 633e
000000c0: b2d2 39be 3970 f03e 90cb 9bbe cacf 0f3d
000000d0: 5961 b73d 3d3b 023e b92b cd3e 7298 45bd
000000e0: cd01 80bd 5ab9 a23d 2891 2f3c 9dbf ae3e
000000f0: e414 9abe 7e3a 2ebe 03ff 93bb e782 ccbe
00000100: b354 893e d165 f53d e3a6 dc3e f9cd 103e
00000110: a364 5ebd 1f5d 083e 26fc 93bd cc47 523d
00000120: 663c a0be edb4 77be 6b93 dcbe 1453 383e
00000130: cfe4 32be d190 cebd 5528 80be d9b1 b93e
00000140: d335 7cbe 3fc5 953d 9ef3 dd3d af66 83be
00000150: 426a 523d eb05 913c 06ab 21be c940 033e
00000160: df73 ff3d 65cd acbd eac7 28ba 6851 5fbe
00000170: 528a 1fbe e249 60be 6bfb 9b3e 64fe dabd
00000180: 628d c93d c2ed 2abe 9793 f23d aafe 8bbe
00000190: 9508 ac3e db3b c03d 26ca 4abd a73e 873e
000001a0: 153a 91bb 6e38 e33d b1d1 d1be 81dc b03d
000001b0: 2ac0 ad3b b096 f0bc 1bd3 9cbe 8d78 57be
000001c0: d041 483e 5fe0 3f3d 5bce a4bd e823 683d
000001d0: ada7 c63e 0da0 b5bd 2605 3b3f 57c7 36be
000001e0: dc61 fa3e 1036 a5be 84a7 75bd 2476 2b3e
000001f0: b048 05bd 1914 d73e 919c 0d3d 8688 223e
00000200: cecb dbbd 2e12 d4be 901b 0f3d 5783 8cbe
00000210: b0d7 8d3e a626 8f3e 1e5b 0e3e 1dfb 42bd
00000220: 53c3 033e dd59 6a3e 2940 bd3d 5fbe 9e3e
00000230: 2e8b 343e d0ed 6e3e a76f 06be 63fe 99bd
00000240: 7f02 99be 6a48 96be c9c2 11bd 3eb3 d33d
00000250: 2e7d 8e3e 163f eabd 8b39 f03b 8a75 a53e
00000260: f2eb 9d3d 252c 1cbd 73dc 883e cf99 7e3e
00000270: 8500 c7bd 303e be3e 9b84 b83e 3974 c0bc
00000280: 42ef 4bbd ed7a 3d3d b7b1 953e e83a 403e
00000290: 5054 aebe e588 58bd 8b35 86be 9354 9cbe
000002a0: 516d b63d 22a2 f93e bf5e ccbe 647b 933d
000002b0: 7f03 eebc 8edc 4ebe ba28 b9bd dc02 e1bd
000002c0: 47af 65bd 1afa 4b3e a63d 8d3e 574d 7fbe
000002d0: 8bbb aabd 06cf a6be 0193 ed3d b66f 81be
000002e0: b2c0 bbbd f142 cd3c 46bc ac3e d556 bcbe
000002f0: 435a 77be b3cc f7be 64bb bdbd f16c e9be
00000300: b68e a4bd 73fc 6b3d 9203 bfbd 4034 6ebe
00000310: 2ebc 953e b4d2 00bf 7fa6 cabe 06d0 52be
00000320: e6cd adbe 72e1 b4be 35e0 f7be be33 b1bd
00000330: e033 89bc 1074 77be 39c0 c3bb 2efd d83c
00000340: d4fa 3b3d f8ca 923e 66e2 49be 96b4 793e
00000350: 7b81 743e 82e5 323d 8843 85bd ffe5 813e
00000360: 71cc cabd be98 2d3e eec5 673e c095 91be
00000370: e69e eb3c b03e b7be 8a47 60be 6c8a 393d
00000380: 4b0b 853e 2997 51be f335 3bbd 34aa 33be
00000390: 7aee 1b3e 19ac 02be 2e96 c23e e566 e3bd
000003a0: bf78 3cbd 819c 1dbe 6354 0cbf fb5e 3abe
000003b0: 7dfc d93d 64d1 8b3e 5ff4 583e 52ed 5fbe
000003c0: 9029 5b3e 9f9d d4bd 3ef1 d73e 89aa 0cbe
000003d0: 9501 f8be 67dc 08bd 2028 923e f973 c23d
000003e0: bce5 bc3c 506e f6be 705e 72be 337b 093e
000003f0: 9c52 44bf 023c bf3e dc39 183d 331e be3d

_backbone.linear_layers.0.bias f4 [32]
0.024909878 0.039491016 -0.18217106 0.2878495 -0.022750122 -0.03808326 0.22440167 0.023348847
0.31898823 0.10150333 -0.019018192 0.06508768 -0.05272781 0.086316645 0.05684897 0.22222047
-0.059483577 -0.01639498 0.111060746 0.016612414 -0.10788054 -0.20098062 0.14384589 0.26353535
0.08043688 -0.08229628 -0.08968792 0.07623512 0.16328546 -0.030672444 -0.107699424 0.3335319
00000000: cd0f cc3c 55c1 213d 0d8b 3abe 0261 933e
00000010: 775e babc 31fd 1bbd 8dc9 653e 1546 bf3c
00000020: 6d52 a33e fae0 cf3d 0acc 9bbc b14c 853d
00000030: 1ef9 57bd c8c6 b03d 77da 683d c38d 633e
00000040: 0da5 73bd c44e 86bc d173 e33d c216 883c
00000050: 79f0 dcbd ddcd 4dbe 564c 133e 1bee 863e
00000060: 17bc a43d f48a a8bd 4dae b7bd 2921 9c3d
00000070: 4e34 273e c744 fbbc 8491 dcbd b1c4 aa3e

_backbone.linear_layers.3.weight f4 [16, 32]
0.015497947 0.11327009 -0.14097084 0.08695411 0.4010883 0.060819473 0.26569852 0.35847563
0.21552525 -0.19277622 -0.05369255 -0.044593595 0.124469586 0.14333117 0.17900063 -0.21214536
0.373214 0.18285908 -0.0025622535 -0.051191922 0.13337936 0.12245989 0.53313977 0.14824913
0.23125784 0.13113129 0.464897 0.27100977 0.32967946 0.14299907 0.5708201 0.15675113
-0.27911898 0.02275579 -0.32041523 -0.39591837 -0.5719117 0.28844535 -0.0041413307 -0.35031074
-1.2260087 -0.7685127 -0.23614787 -0.31445825 -0.6863206 -0.3332304 -0.18705837 -1.0908508
-0.2797354 -0.25861958 -0.34233406 -0.18740089 -0.67770195 -0.38563517 0.03366435 -0.76596725
-0.24761268 0.055572923 -0.10376446 -0.6194325 -0.4809453 0.20855835 -0.26946437 -0.668198
0.38309997 -0.038143337 0.18933573 0.15394922 0.27081242 0.07744829 0.23196799 0.3433821
-0.2873173 0.105449885 0.13877486 -0.04858038 0.36168125 0.1507716 0.29363507 -0.086490676
0.06815625 0.070359014 0.15511796 0.22699939 -0.19505249 0.330481 0.36065724 0.08544717
0.059447154 0.024451792 -0.063556574 0.1443831 0.54799426 0.59153324 0.6163099 -0.021263076
0.08286491 -0.15016355 -0.07337193 -0.045582242 0.15398462 -0.02748785 -0.09943955 -0.060857955
-0.21969393 -0.2839351 0.10445632 -0.019207519 0.04586399 -0.104620196 0.3098236 -0.057121802
-0.17659847 -0.43673375 -0.25202805 -0.20406282 0.14404075 0.12394106 0.018990835 -0.17153688
0.16384494 0.083003566 -0.049416043 -0.25208586 -0.27541584 0.18499042 0.018522505 -0.111986555
0.3592462 -0.18075663 -0.29219112 -0.27113906 0.09643824 -0.3228892 0.3928207 0.28353807
-0.46173063 -0.4049234 -0.20082872 0.06064056 0.040464934 0.09251065 -0.29554155 -0.26023623
-0.19621323 0.09725237 -0.097849905 -0.042912908 0.02970903 0.07664374 0.113743834 -0.2734582
-0.27193174 -0.54299796 0.41083494 -0.20941684 -0.17314339 0.09585746 0.26298904 -0.4571802
0.15423362 0.13147277 -0.099292085 0.1122251 0.6118805 0.05577719 0.6726786 0.46752065
-0.77978694 0.25137046 0.12771621 0.044787657 -0.3424677 0.18199511 0.31278905 0.46260738
0.254576 0.19876395 -0.14706221 0.19830836 0.3623395 0.6358617 -0.20661776 -0.009284677
-0.25306043 0.21830185 0.124296084 0.13821906 -0.044703715 0.72591007 0.9917029 0.35849765
-0.055682935 0.1429169 -0.04888325 0.024263572 0.23957936 -0.121187404 0.18108144 0.059350047
0.105419606 0.110603526 0.30776784 -0.088017985 -0.12127523 0.26028633 0.069646515 0.44788617
-0.22636694 0.13483492 0.19733092 -0.013487761 0.22068849 0.16871761 0.021748684 0.08013663
0.024814935 -0.0021824883 0.055959955 0.28700173 -0.2137302 0.18022385 0.30404016 0.38842505
-0.290795 0.63740355 0.022736387 -0.13136 0.11674528 0.12342034 -0.43163845 -0.05701348
-0.077970885 0.24616186 0.23522702 0.20637582 0.30027702 0.23316161 0.37562248 0.029919328
0.0377492 -0.062221505 0.15074709 -0.08358141 0.30508348 -0.5740159 0.21733893 0.05240582
0.00014095489 0.2784817 -0.21518958 -0.35625157 -0.44297722 0.31207573 0.25235814 -0.13237885
00000000: 1aeb 7d3c 26fa e73d a95a 10be ff14 b23d
00000010: 725b cd3e d71d 793d a309 883e 1e8a b73e
00000020: a7b2 5c3e 2167 45be b8ec 5bbd c6a7 36bd
00000030: e9e9 fe3d 68c5 123e f14b 373e a23c 59be
00000040: e815 bf3e 693f 3b3e 7beb 27bb 9fae 51bd
00000050: 9994 083e 40cc fa3d d97b 083f 9fce 173e
00000060: dbce 6c3e 4847 063e fb06 ee3e cbc1 8a3e
00000070: bfcb a83e 596e 123e 4421 123f 5e83 203e
00000080: afe8 8ebe 5a6a ba3c 770d a4be d0b5 cabe
00000090: ce68 12bf 1caf 933e 00b4 87bb ee5b b3be
000000a0: daed 9cbf 40bd 44bf bfd0 71be ac00 a1be
000000b0: b5b2 2fbf 2d9d aabe 3b8c 3fbe 00a1 8bbf
000000c0: 7a39 8fbe c969 84be 6946 afbe 05e6 3fbe
000000d0: e07d 2dbf f971 c5be a1e3 093d 6e16 44bf
000000e0: 2e8e 7dbe 6fa0 633d 7682 d4bd 2193 1ebf
000000f0: 763e f6be 5290 553e 3cf7 89be 060f 2bbf
00000100: ae25 c43e 303c 1cbd 3ae1 413e dda4 1d3e
00000110: eda7 8a3e 369d 9e3d 0489 6d3e c7cf af3e
00000120: 411b 93be 1cf6 d73d ff1a 0e3e 38fc 46bd
00000130: 492e b93e df63 1a3e 5657 963e 0622 b1bd
00000140: 8195 8b3d 6318 903d 3ed7 1e3e 8772 683e
00000150: d7bb 47be ce34 a93e 11a8 b83e edfe ae3d
00000160: dc7e 733d 204f c83c f329 82bd 2ad9 133e
00000170: 5a49 0c3f b96e 173f 7cc6 1d3f e72f aebc
00000180: 14b5 a93d 79c4 19be 0644 96bd 72b4 3abd
00000190: 25ae 1d3e 332e e1bc f6a6 cbbd 3146 79bd
000001a0: 72f7 60be f15f 91be 32ed d53d 1659 9dbc
000001b0: e1db 3b3d 1d43 d6bd 33a1 9e3e 8df8 69bd
000001c0: 3bd6 34be 919b dfbe d209 81be d8f5 50be
000001d0: 6b7f 133e cfd4 fd3d ab92 9b3c 5da7 2fbe
000001e0: f8c6 273e c6fd a93d 7a68 4abd 6611 81be
000001f0: 4e03 8dbe 216e 3d3e 82bc 973c 3559 e5bd
00000200: 1eef b73e 4418 39be 139a 95be bdd2 8abe
00000210: 6981 c53d bc51 a5be cb1f c93e e72b 913e
00000220: f567 ecbe 1f52 cfbe 0ba6 4dbe 3c62 783d
00000230: 8fbe 253d 3976 bd3d 3951 97be af3d 85be
00000240: 1fec 48be 402c c73d 8865 c8bd 72c5 2fbd
00000250: 5a60 f33c 65f7 9c3d 87f2 e83d b702 8cbe
00000260: a33a 8bbe ea01 0bbf f558 d23e 5e71 56be
00000270: 804c 31be ea50 c43d 80a6 863e 8613 eabe
00000280: 6bef 1d3e cca0 063e a659 cbbd 46d6 e53d
00000290: 33a4 1c3f 9f76 643d aa34 2c3f de5e ef3e
000002a0: 1ea0 47bf a1b3 803e 0ac8 023e 4373 373d
000002b0: ed57 afbe ed5c 3a3e e325 a03e e0da ec3e
000002c0: c957 823e c788 4b3e 7a97 16be 5911 4b3e
000002d0: 9084 b93e d5c7 223f 9b93 53be c21e 18bc
000002e0: 2391 81be 858a 5f3e f28e fe3d 4c89 0d3e
000002f0: 3e1b 37bd 3ed5 393f 3ee0 7d3f 018d b73e
00000300: ca13 64bd cf58 123e ce39 48bd 66c4 c63c
00000310: 4b54 753e 1a31 f8bd 6a6d 393e 0919 733d
00000320: 3ce6 d73d 1a84 e23d bf93 9d3e c642 b4bd
00000330: 265f f8bd 4044 853e d5a2 8e3d 5651 e53e
00000340: bccc 67be 2a12 0a3e 1e11 4a3e c5fb 5cbc
00000350: 2afc 613e 4fc4 2c3e 4c2a b23c ac1e a43d
00000360: b148 cb3c 1408 0fbb 4436 653d e4f1 923e
00000370: 17dc 5abe 9a8c 383e 27ab 9b3e a6df c63e
00000380: 15e3 94be e12c 233f a941 ba3c 3c83 06be
00000390: 2618 ef3d cec3 fc3d b7ff dcbe f886 69bd
000003a0: 33af 9fbd db11 7c3e 5adf 703e 2f54 533e
000003b0: e9bd 993e ebc1 6e3e 9751 c03e 6119 f53c
000003c0: e89e 1a3d fadb 7ebd 725d 1a3e bb2c abbd
000003d0: e733 9c3e b5f2 12bf 198e 5e3e 7ca7 563d
000003e0: 4acd 1339 2795 8e3e a85a 5cbe 9b66 b6be
000003f0: e9cd e2be 64c8 9f3e 1635 813e 528e 07be

_backbone.linear_layers.3.bias f4 [16]
0.3159113 -0.15812875 0.38478187 -0.32587355 -0.20074102 0.37940502 0.20606291 -0.096755095
0.35193512 0.22057196 -0.24703029 0.23238789 0.36461172 0.30588114 0.1865696 0.23527718
00000000: 20bf a13e 81ec 21be 2102 c53e e6d8 a6be
00000010: 0e8f 4dbe 6041 c23e 2802 533e 8927 c6bd
00000020: d730 b43e 9edd 613e 82f5 7cbe 17f7 6d3e
00000030: 63ae ba3e 749c 9c3e 1a0c 3f3e 80ec 703e

_embedding_layer.cat_embedding_layers.0.weight f4 [20, 10]
0.92044955 0.047616202 0.75020057 -1.6819013 -0.036870625 -0.058542967 0.66864914 -0.4365733
-2.3380325 1.8583958 -1.9005286 -0.3101228 1.2072396 1.0172482 0.0275394 -0.618238
-0.19857441 0.72809345 -1.3442285 -0.118734114 -1.490067 0.06481723 1.5036478 -1.4951041
1.1975002 -1.7758566 -1.289299 -1.6914121 -0.74981976 -2.0257318 -1.4106258 -0.30267525
1.4787997 0.15902326 -1.3693681 0.47114742 1.5112321 -1.1430054 -0.4617075 -0.77486414
-1.8397889 0.19335428 0.7620142 -0.065683454 0.06237385 -0.8237092 0.56554973 -0.7062019
-0.08226206 -0.06805468 0.61700475 -1.5381107 -1.1853735 1.3965169 0.6138193 -1.8406596
0.34588012 0.1523349 0.25068718 -0.06472228 -1.0720792 0.40659818 -0.24741368 -1.2242159
1.8342962 0.7248747 0.013504361 0.0844588 -2.0254471 -0.58520305 -0.74577737 0.42273456
-1.8879368 0.26601994 0.98104316 0.73251444 0.9796173 -0.12284119 -0.8763468 0.25781736
-3.0306642 0.52699226 -1.3798923 0.7083632 -1.0679017 0.16080776 -1.0151455 -1.2704751
-1.5777783 -0.903869 -1.5906426 0.87943006 -0.18600029 1.5364816 0.8177514 1.7912524
-0.32689485 0.57225907 1.5276514 -0.030491043 -0.13371241 0.108641334 0.64438343 -1.247586
-0.25979376 1.7428094 -0.3397799 -0.41589925 1.2024708 -0.91935444 -0.9600807 0.9782651
1.5230525 -0.5040478 1.2430526 0.14984405 -1.1014949 -0.57346433 -0.8444957 -0.9432226
0.08646158 -0.49915025 1.6754394 -1.1640311 -1.462688 -0.28118515 1.18112 1.2496699
0.9026974 2.0196443 0.18849537 0.575019 -0.502657 0.31339747 -0.60761184 0.54771316
-1.1781815 -2.356955 0.52867377 -0.2077867 -0.9784911 0.8812059 -0.53335416 0.13346188
-0.6314335 0.28583544 0.12371153 1.3713652 -0.256723 -1.1163988 -0.1990641 0.26091573
0.5744882 -0.4964466 -0.5120487 -0.50452924 1.676125 -0.8647346 -0.0743497 -0.47726595
-1.0300652 -1.0058346 0.6922969 -0.26538983 -0.060642347 0.77011585 -0.1660362 1.5441532
0.61608046 -0.31291234 0.10634052 -0.21572633 0.8246097 0.79709053 0.6810796 0.40225658
-0.1760451 1.7667257 -0.0051000193 -0.38464332 1.0922407 -0.0826018 -1.4125266 1.7786529
-1.119291 2.6837678 -1.3908292 0.50677025 -2.1377199 -0.5115185 0.209164 -0.3801093
1.0599402 -2.1253848 0.6439341 -1.0707549 -0.15092011 0.15500927 0.11148978 1.7206469
00000000: 95a2 6b3f 3509 433d 250d 403f 8b48 d7bf
00000010: a705 17bd c0ca 6fbd 972c 2b3f 8986 dfbe
00000020: 53a2 15c0 eadf ed3f 8544 f3bf 6ac8 9ebe
00000030: d486 9a3f 3035 823f 4f9a e13c d844 1ebf
00000040: 1757 4bbe 5564 3a3f ae0f acbf df2a f3bd
00000050: 84ba bebf e5be 843d 8877 c03f 925f bfbf
00000060: b047 993f 454f e3bf c007 a5bf 3180 d8bf
00000070: 30f4 3fbf 97a5 01c0 638f b4bf 40f8 9abe
00000080: 4f49 bd3f fed6 223e 7447 afbf 3c3a f13e
00000090: 0e70 c13f 004e 92bf ed64 ecbe 7f5d 46bf
000000a0: 347e ebbf aafe 453e 5d13 433f 0c85 86bd
000000b0: b97b 7f3d 9bde 52bf dec7 103f a6c9 34bf
000000c0: 0379 a8bd 4160 8bbd 06f4 1d3f d0e0 c4bf
000000d0: 52ba 97bf 11c1 b23f 4323 1d3f bc9a ebbf
000000e0: 3317 b13e aefd 1b3e 125a 803e 1d8d 84bd
000000f0: e439 89bf a32d d03e 035a 7dbe 1bb3 9cbf
00000100: 38ca ea3f 6391 393f 6541 5d3c bcf8 ac3d
00000110: eda0 01c0 decf 15bf 44eb 3ebf aa70 d83e
00000120: eaa7 f1bf c433 883e a525 7b3f 1186 3b3f
00000130: 33c8 7a3f 2994 fbbd 4458 60bf a300 843e
00000140: 67f6 41c0 f7e8 063f 50a0 b0bf 4a57 353f
00000150: 01b1 88bf caaa 243e 4af0 81bf ee9e a2bf
00000160: a4f4 c9bf f563 67bf 2d9a cbbf 5422 613f
00000170: dc76 3ebe 6eab c43f 2858 513f c247 e53f
00000180: c35e a7be 927f 123f 158a c33f 5ac8 f9bc
00000190: e8eb 08be 597f de3d 50f6 243f e6b0 9fbf
000001a0: b003 85be 6114 df3f a2f7 adbe bff0 d4be
000001b0: 90ea 993f d05a 6bbf d9c7 75bf 956f 7a3f
000001c0: 62f3 c23f 4709 01bf 591c 9f3f b870 193e
000001d0: c9fd 8cbf 8fce 12bf df30 58bf 0977 71bf
000001e0: c512 b13d 9f90 ffbe cc74 d63f f9fe 94bf
000001f0: 5c39 bbbf 80f7 8fbe f12e 973f 2ff5 9f3f
00000200: 2d17 673f da41 0140 ee04 413e 7234 133f
00000210: 21ae 00bf a275 a03e 738c 1bbf ee36 0c3f
00000220: a7ce 96bf 5ad8 16c0 2a57 073f 09c6 54be
00000230: 657e 7abf b696 613f e689 08bf 3baa 083e
00000240: a0a5 21bf 0659 923e 785c fd3d e588 af3f
00000250: 3271 83be 28e6 8ebf 76d7 4bbe bf96 853e
00000260: a911 133f 402e febe a015 03bf d428 01bf
00000270: 448b d63f 3f5f 5dbf a844 98bd 345c f4be
00000280: 2dd9 83bf 30bf 80bf 5f3a 313f 2de1 87be
00000290: 1c64 78bd 5026 453f 6505 2abe d0a6 c53f
000002a0: 73b7 1d3f 0c36 a0be 0fc9 d93d 5de7 5cbe
000002b0: 9f19 533f 200e 4c3f 3c5b 2e3f 93f4 cd3e
000002c0: 2b45 34be 1124 e23f 101e a7bb f8ef c4be
000002d0: 8bce 8b3f 222b a9bd accd b4bf e6aa e33f
000002e0: ed44 8fbf dac2 2b40 b106 b2bf b2bb 013f
000002f0: 67d0 08c0 e0f2 02bf 162f 563e b09d c2be
00000300: 1fac 873f 4e06 08c0 ddd8 243f 7f0e 89bf
00000310: cd8a 1abe c0ba 1e3e c154 e43d 283e dc3f

_embedding_layer.cat_embedding_layers.1.weight f4 [219, 50]
0.779856 -0.79454225 0.5680656 0.9480478 -0.10116149 -0.5387714 -1.4039638 0.6105617
0.9386158 1.4056829 -1.2227083 -0.30745873 1.1788169 -2.2411916 1.2707425 -1.3594983
0.33453947 -0.057248093 0.10026108 -0.9608626 0.088116094 -0.010594636 2.0316553 0.34073544
-0.9971979 -0.46163893 0.011231687 0.62407714 -1.4412122 -0.6777538 0.59116167 1.5988607
-1.040666 0.3829857 0.030013897 -0.865691 -1.0034571 1.0834796 0.20384118 0.5503482
-1.7069654 0.18233055 2.0547957 0.53295434 0.72921574 -1.2450589 1.4042722 -0.30454782
-1.6110262 1.460507 -0.9284817 -0.21825673 -0.15143067 -0.77590036 -0.7460844 1.5008011
-0.21294315 -0.09135216 -1.8934777 -0.49575472 0.41637805 -0.89802414 1.5913774 1.0920861
0.63394815 -0.66554886 -0.8526046 -0.66742796 -1.4422209 0.78190947 -0.06857804 -0.8177259
-0.1879178 0.25119847 -0.6369305 -0.7780271 2.2261283 1.383231 0.52560043 0.89406
-1.6702081 -0.00062178454 0.30292514 0.8763477 -0.16275825 -0.78299904 -0.4359319 0.90189004
-1.4524803 0.3117696 -1.2411638 -0.33227497 1.1894517 -0.53111494 0.8372406 -1.2803086
1.0272132 -0.2486515 0.0041619693 0.4696716 1.3365698 1.0398816 1.5159047 1.1150963
-0.46714613 0.1026645 -1.285554 -2.104271 -0.7686909 -0.068741135 0.925071 1.1998456
-0.11842501 -1.3888412 0.8509183 1.6512344 -0.6362973 -1.141728 0.7251214 1.2263212
0.7186208 1.2153587 1.1276184 0.39367032 0.8314518 0.6919929 2.1188319 -0.70519876
-0.99244267 -0.73005223 1.3422027 1.1301603 0.5412861 -0.80318975 0.45438483 -0.49201104
-0.9729881 -0.9026604 1.5971309 -0.81150854 1.0817504 1.1716906 -0.27239755 3.6877146
-1.1447984 -0.38526568 -0.41218984 0.63294077 -1.5532922 0.85807294 -1.0556389 0.9235294
0.12310514 0.060895167 -0.3677669 -1.4264752 -0.82889223 1.3586606 0.34785277 1.2163053
0.030563403 1.3955339 -1.876265 0.9408603 1.0804797 0.121714085 -0.5130898 -0.3404463
-0.38807955 -2.0527804 0.44854358 -1.9452351 -1.0418669 -0.6641152 1.3495706 0.24334542
0.85205966 -1.1072174 -0.45387644 -0.28370017 0.91935444 -0.48179078 0.5258002 -0.9014857
-1.0791249 0.64011574 1.4126165 -0.5152874 1.0034466 2.4165494 -0.4420613 0.39390904
-0.5909876 -0.70471746 1.4242933 -0.098107755 0.025651515 -1.4881256 1.79461 -0.069597736
0.59430015 -1.7923423 0.15590945 -0.39216444 -0.47008017 -0.62990415 0.3324887 0.4072828
0.2253342 -1.1989702 0.99787164 1.1278018 1.8995312 1.2357206 1.1204699 1.094133
-2.2658677 -3.7494457 0.20669393 -3.3395896 0.037711106 2.4059489 0.4745786 0.3654526
-0.38761097 -0.50997853 0.5350428 -0.21064943 0.033668496 -2.374787 -2.2399373 0.2712526
-0.99475133 1.1084092 0.7627576 0.40575215 -1.9608612 -1.9776732 -0.9875825 1.5571148
0.06871395 0.80261856 -0.78000164 1.362012 0.6807844 0.5993382 -0.8704572 -0.68253314
-1.0947933 0.5688991 -0.7751627 -0.438513 0.9229501 -0.7012248 -0.15503381 0.11556458
00000000: a5a4 473f 1f67 4bbf bf6c 113f 43b3 723f
00000010: c12d cfbd ecec 09bf 16b5 b3bf c64d 1c3f
00000020: 2049 703f 6bed b33f b581 9cbf 3b6b 9dbe
00000030: 79e3 963f af6f 0fc0 b1a7 a23f 0a04 aebf
00000040: c248 ab3e fa7c 6abd ae55 cd3d 17fb 75bf
00000050: 3676 b43d 2095 2dbc a406 0240 e074 ae3e
00000060: 5d48 7fbf f05b ecbe 1c05 383c 85c3 1f3f
00000070: a479 b8bf 4681 2dbf 5f56 173f 78a7 cc3f
00000080: 8b34 85bf b416 c43e b4df f53c ed9d 5dbf
00000090: 4871 80bf 76af 8a3f bebb 503e 9fe3 0c3f
000000a0: d87d dabf dcb4 3a3e c681 0340 b26f 083f
000000b0: e2ad 3a3f 175e 9fbf 31bf b33f b1ed 9bbe
000000c0: 1b36 cebf e5f1 ba3f fab0 6dbf b17e 5fbe
000000d0: a410 1bbe 68a1 46bf 63ff 3ebf 401a c03f
000000e0: c50d 5abe d716 bbbd 7a5d f2bf 90d3 fdbe
000000f0: 812f d53e e9e4 65bf 41b2 cb3f 7ac9 8b3f
00000100: 6d4a 223f 6961 2abf 4c44 5abf 8fdc 2abf
00000110: b29a b8bf 382b 483f a572 8cbd 7c56 51bf
00000120: 866d 40be 169d 803e e10d 23bf c92c 47bf
00000130: e378 0e40 b70d b13f c08d 063f 1ee1 643f
00000140: 61c9 d5bf 41ff 22ba 0119 9b3e 5358 603f
00000150: 19aa 26be a072 48bf 7732 dfbe 44e2 663f
00000160: e0ea b9bf 44a0 9f3e 75de 9ebf f21f aabe
00000170: f43f 983f 26f7 07bf 6655 563f 27e1 a3bf
00000180: b97b 833f 809e 7ebe 2161 883b cc78 f03e
00000190: b814 ab3f d71a 853f 2a09 c23f 7abb 8e3f
000001a0: c72d efbe c441 d23d 098d a4bf 60ac 06c0
000001b0: edc8 44bf 27c8 8cbd 74d1 6c3f 8a94 993f
000001c0: d088 f2bd 8cc5 b1bf c8d5 593f a65b d33f
000001d0: 61e4 22bf 2524 92bf 8ea1 393f 18f8 9c3f
000001e0: 88f7 373f e090 9b3f cd55 903f 288f c93e
000001f0: 06da 543f 7226 313f f19a 0740 e887 34bf
00000200: b910 7ebf b4e4 3abf 4ccd ab3f 18a9 903f
00000210: ba91 0a3f d89d 4dbf 21a5 e83e dfe8 fbbe
00000220: c015 79bf c114 67bf c96e cc3f 06bf 4fbf
00000230: cc76 8a3f f5f9 953f b177 8bbe 8403 6c40
00000240: c188 92bf 8b41 c5be 8c0a d3be 6808 223f
00000250: 47d2 c6bf abaa 5b3f 2d1f 87bf 6c6c 6c3f
00000260: 8c1e fc3d 366d 793d f14b bcbe bd96 b6bf
00000270: 4832 54bf 97e8 ad3f c219 b23e e4af 9b3f
00000280: 1a60 fa3c dba0 b23f 7429 f0bf 38dc 703f
00000290: 294d 8a3f 3c45 f93d da59 03bf fa4e aebe
000002a0: 5db2 c6be c160 03c0 81a7 e53e 77fd f8bf
000002b0: e55b 85bf 7403 2abf bbbe ac3f 8b2f 793e
000002c0: 9520 5a3f 4db9 8dbf 7e62 e8be 2641 91be
000002d0: d05a 6b3f 48ad f6be d89a 063f c4c7 66bf
000002e0: c420 8abf a0de 233f 9ed0 b43f e0e9 03bf
000002f0: f070 803f bfa8 1a40 dc55 e2be 72ae c93e
00000300: f74a 17bf 5d68 34bf 3e4f b63f b8ec c8bd
00000310: 2023 d23c e67a bebf c8b5 e53f 4289 8ebd
00000320: 0e24 183f 796b e5bf baa6 1f3e c7c9 c8be
00000330: 59ae f0be 6641 21bf f53b aa3e 5f87 d03e
00000340: 02be 663e db77 99bf 8474 7f3f cf5b 903f
00000350: d723 f33f 182c 9e3f 8f6b 8f3f 8d0c 8c3f
00000360: fa03 11c0 ebf6 6fc0 93a7 533e d6bb 55c0
00000370: f676 1a3d 11fb 1940 f7fb f23e 9a1c bb3e
00000380: f274 c6be f48d 02bf 91f8 083f 7cb4 57be
00000390: fae7 093d 83fc 17c0 225b 0fc0 9fe1 8a3e
000003a0: 06a8 7ebf 5ae0 8d3f 1544 433f bfbe cf3e
000003b0: 80fd fabf 6524 fdbf 35d2 7cbf 8a4f c73f
000003c0: e6b9 8c3d 6978 4d3f 30ae 47bf 6956 ae3f
000003d0: e347 2e3f 3a6e 193f 48d6 5ebf 7eba 2ebf
000003e0: 3022 8cbf 5fa3 113f 1071 46bf c784 e0be
000003f0: 7546 6c3f 7883 33bf 2fc1 1ebe 1fad ec3d

_embedding_layer.cat_embedding_layers.2.weight f4 [3, 2]
-0.09397044 0.66297406 0.16121696 1.1254855 0.084631026 0.19321804
00000000: 9373 c0bd abb8 293f 0f16 253e e90f 903f
00000010: 0853 ad3d f3da 453e

head.layers.0.weight f4 [2, 16]
0.29922462 -0.4220075 0.21716431 -0.46247506 0.11662309 -0.0969724 0.0070452164 0.5942914
0.23586541 0.28415334 0.041010935 -0.025275597 -0.35894188 0.053016562 -0.28417242 0.27279457
0.069525234 0.13945688 -0.0044853496 0.38752455 0.19608766 -0.32546917 -0.31803784 0.46961114
-0.043298792 0.056715474 -0.12459434 -0.35631034 -0.6253046 -0.21514785 0.2893319 0.031216154
00000000: f833 993e 5e11 d8be 5260 5e3e 88c9 ecbe
00000010: 16d8 ee3d 7799 c6bd 8fdb e63b 7b23 183f
00000020: b486 713e 8c7c 913e 15fb 273d c50e cfbc
00000030: 3bc7 b7be e527 593d 0c7f 91be bbab 8b3e
00000040: 3f63 8e3d c9cd 0e3e d7f9 92bb 9e69 c63e
00000050: 34cb 483e e5a3 a6be dbd5 a2be df70 f03e
00000060: 135a 31bd 7c4e 683d 512b ffbd 4f6e b6be
00000070: f613 20bf b84f 5cbe 5023 943e 05b9 ff3c

head.layers.0.bias f4 [2]
0.45305985 -0.39758614
00000000: 76f7 e73e 6990 cbbe

exp_avg f4 [32, 63]
-2.9423092e-05 -2.364389e-06 1.0094517e-05 -3.6343496e-05 1.8600059e-06 1.26104205e-05 2.1050968e-05 1.4930338e-05
-3.6320323e-08 -1.3954026e-05 6.491364e-06 4.022515e-06 -8.237523e-08 -2.5973616e-06 -1.8539426e-05 -2.5780466e-05
3.2921912e-06 2.3828134e-06 3.0329406e-06 -1.2985599e-05 1.8195282e-05 2.2639635e-05 4.3785462e-06 8.663666e-06
8.0532245e-06 5.805708e-06 2.2359665e-05 6.104945e-06 4.4215078e-05 8.039628e-06 2.6538293e-05 -1.0726898e-05
2.1770915e-05 -1.1612468e-05 6.0606963e-06 -1.0947016e-06 8.4333005e-06 -2.3942544e-05 -4.502171e-06 1.7435286e-06
-2.2582954e-05 4.5930765e-06 -2.1327205e-05 1.4384865e-05 1.1569473e-05 -2.1914662e-05 3.2576296e-05 -3.119593e-05
-9.755987e-07 -4.271678e-06 -6.3048894e-05 -1.1264091e-05 3.7463495e-05 2.9106994e-05 1.130413e-05 1.7774963e-05
8.0536065e-06 8.96603e-06 -1.2607691e-06 -2.2395632e-05 -8.379872e-06 4.93577e-07 -6.7816956e-07 -0.00047927225
0.000133457 -4.677879e-05 9.938827e-05 -7.980505e-05 -0.0001304142 -9.102625e-05 -3.249946e-05 -7.4084955e-06
-4.3885437e-05 7.4330223e-06 4.608737e-05 5.370532e-05 3.3553736e-06 0.00011554729 -8.662621e-06 -0.00013122769
0.00014536548 -0.00014884288 -6.961277e-05 0.00017724476 -9.940473e-05 1.7976598e-05 -2.9566985e-05 2.4377438e-05
-6.251538e-06 -2.3484718e-05 0.00012837588 7.11433e-05 -7.975268e-05 -1.9117617e-05 -1.7429988e-05 -2.498762e-06
2.3972383e-05 2.3942037e-05 1.5465006e-05 8.944014e-05 -1.7322955e-05 -0.00021796762 -5.6565514e-05 -5.2901803e-05
5.3281998e-05 7.070916e-05 -1.2843516e-05 -9.6206466e-05 -4.267454e-05 -1.9562304e-07 5.2980154e-06 3.6044938e-05
1.7448712e-05 -0.00011370987 0.000200162 4.2871896e-05 -0.0001058235 2.3488592e-05 -1.1320407e-05 8.734329e-06
-4.0376e-05 4.447552e-06 -2.439838e-05 -0.00021067321 -1.1141073e-05 -2.015825e-05 0.00018230923 2.31665e-05
-4.3977114e-05 -1.5684021e-05 3.333329e-05 6.9304397e-06 -5.5405766e-05 1.777521e-06 4.2158476e-06 1.2961207e-05
-3.364244e-06 1.1996354e-05 -2.1600623e-05 1.606016e-05 3.2892626e-07 3.066313e-05 -7.4838104e-06 1.9607827e-05
5.352107e-05 -1.5834541e-05 8.74572e-06 -1.4348581e-05 8.5067495e-06 4.5883603e-06 -1.6788252e-05 2.3392642e-05
-8.391667e-06 -1.320529e-05 2.1241876e-05 -1.9703723e-05 1.2025838e-05 5.341691e-06 1.3573256e-05 1.126333e-05
1.1600679e-05 -2.2249193e-05 4.1046533e-06 1.3443847e-06 -2.1099406e-05 -2.175925e-05 -2.771813e-05 -5.0204384e-05
-1.571861e-05 -4.2175703e-05 4.3719632e-05 5.768774e-05 -2.8324132e-05 5.930848e-06 -1.0260421e-05 -2.7440006e-05
3.50575e-05 -7.4234267e-06 -1.8493309e-05 2.5245923e-05 -1.9987345e-05 -1.9687637e-05 -1.0394089e-05 -4.4738073e-05
9.124982e-07 1.0840776e-05 -2.9489456e-05 1.4091399e-06 2.944151e-06 -6.51352e-05 -1.2761614e-05 3.5886915e-05
1.4166856e-05 -2.2643444e-05 -1.3201066e-05 4.6041227e-05 -3.2539774e-06 -3.2307876e-06 1.1792253e-06 4.8951592e-06
3.6666283e-05 4.8805855e-06 1.4352384e-05 1.7885857e-06 -4.8807105e-06 1.750069e-05 -1.743847e-05 2.1262049e-05
-2.6455746e-05 -1.3985653e-05 -3.0575662e-05 -2.5187169e-06 -3.2392698e-05 -2.1197704e-06 -3.9871793e-06 2.3123283e-05
-9.365166e-06 3.1844414e-05 -1.8505472e-05 2.8774612e-05 1.5000685e-06 3.1012954e-05 -3.5630197e-07 1.1965092e-05
-3.053503e-05 4.7747067e-06 -1.2714287e-05 1.5536723e-05 -1.4705633e-05 -4.773961e-07 -4.1235908e-06 -2.0244564e-05
2.3130115e-05 1.5411035e-06 -1.8541577e-05 2.1846443e-05 -1.2223845e-05 -2.4226589e-05 5.0440262e-06 -1.1758009e-05
-9.643303e-07 1.2762724e-05 -1.5846543e-05 2.49783e-05 1.7414328e-05 2.3920225e-07 -1.3412206e-05 -1.0996742e-05
6.4264386e-06 -4.5370547e-05 -2.1792314e-06 -9.582336e-06 3.623666e-05 -2.3443909e-05 6.6011708e-06 1.8171264e-05
00000000: 9cd1 f6b7 e5ab 1eb6 9f5b 2937 886f 18b8
00000010: 51a5 f935 5891 5337 9c96 b037 507d 7a37
00000020: 9efe 1bb3 161c 6ab7 64d0 d936 24f9 8636
00000030: 43e6 b0b3 554e 2eb6 1d85 9bb7 2143 d8b7
00000040: 6aef 5c36 6ce8 1f36 8689 4b36 b9dc 59b7
00000050: 12a2 9837 3fea bd37 6deb 9236 2a5a 1137
00000060: 561c 0737 a7ce c236 0491 bb37 14d9 cc36
00000070: 9473 3938 f0e1 0637 8d9e de37 adf7 33b7
00000080: afa0 b637 2cd3 42b7 fc5c cb36 a9ed 92b5
00000090: c07c 0d37 39d8 c8b7 5b11 97b6 3003 ea35
000000a0: 8670 bdb7 3a1e 9a36 d3e7 b2b7 8656 7137
000000b0: 821a 4237 61d5 b7b7 88a2 0838 60d8 02b8
000000c0: 51f1 82b5 6f55 8fb6 1e39 84b8 e7fa 3cb7
000000d0: 1f22 1d38 cb2a f437 dea6 3d37 711b 9537
000000e0: fa1d 0737 ce6c 1637 b237 a9b5 41de bbb7
000000f0: 4797 0cb7 5a7e 0435 750b 36b5 d546 fbb9
00000100: 97f0 0b39 5834 44b8 ac6e d038 035d a7b8
00000110: ccbf 08b9 59e5 beb8 0850 08b8 7e96 f8b6
00000120: a111 38b8 2d69 f936 f04d 4138 a641 6138
00000130: e12c 6136 fb51 f238 ad55 11b7 2a9a 09b9
00000140: 406d 1839 b512 1cb9 12fd 91b8 c7da 3939
00000150: 8277 d0b8 73cc 9637 9e06 f8b7 267e cc37
00000160: 4dc4 d1b6 0c01 c5b7 a39c 0639 c532 9538
00000170: e540 a7b8 c55e a0b7 9d36 92b7 67b0 27b6
00000180: 4d18 c937 22d7 c837 d9ba 8137 cf91 bb38
00000190: c350 91b7 3d8e 64b9 c240 6db8 e1e2 5db8
000001a0: 1c7b 5f38 b149 9438 7b7a 57b7 74c2 c9b8
000001b0: 70fd 32b8 740c 52b4 9bc5 b136 f52e 1738
000001c0: d35e 9237 8677 eeb8 94e2 5139 59d1 3338
000001d0: 8fed ddb8 5e09 c537 c7ec 3db7 a889 1237
000001e0: 6659 29b8 2e3c 9536 1fab ccb7 29e8 5cb9
000001f0: 8bea 3ab7 8319 a9b7 432a 3f39 ae55 c237
00000200: 1174 38b8 2e91 83b7 59cf 0b38 068c e836
00000210: 7d63 68b8 2893 ee35 db75 8d36 f673 5937
00000220: 46c5 61b6 f343 4937 fc32 b5b7 eeb8 8637
00000230: 4897 b034 499c 0038 711d fbb6 7d7b a437
00000240: d07b 6038 6bd4 84b7 95ba 1237 b0ba 70b7
00000250: 36b8 0e37 b7f5 9936 7fd4 8cb7 513b c437
00000260: efc9 0cb7 4a8c 5db7 9530 b237 6c49 a5b7
00000270: 95c2 4937 c73c b336 b1b8 6337 a2f7 3c37
00000280: 89a0 4237 c7a3 bab7 b4ba 8936 b570 b435
00000290: a1fe b0b7 a287 b6b7 3b84 e8b7 8c92 52b8
000002a0: 75db 83b7 d1e5 30b8 995f 3738 bdf5 7138
000002b0: 9c99 edb7 9901 c736 2c24 2cb7 f72e e6b7
000002c0: b40a 1338 c016 f9b6 1422 9bb7 35c7 d337
000002d0: 7faa a7b7 e126 a5b7 4662 2eb7 24a5 3bb8
000002e0: 66f2 7435 c7e0 3537 2060 f7b7 ae21 bd35
000002f0: 2194 4536 3299 88b8 b71a 56b7 4885 1638
00000300: 2fae 6d37 6df2 bdb7 267a 5db7 641c 4138
00000310: e85e 5ab6 82d0 58b6 df45 9e35 1941 a436
00000320: 1fca 1938 e9c3 a336 05cb 7037 560f f035
00000330: fcc4 a3b6 72ce 9237 d448 92b7 e75b b237
00000340: 48ed ddb7 eca3 6ab7 5e3e 00b8 3a07 29b6
00000350: 65dd 07b8 6141 0eb6 9cc9 85b6 dff8 c137
00000360: 151f 1db7 ae90 0538 333c 9bb7 0261 f137
00000370: f655 c935 e813 0238 c549 bfb4 aebd 4837
00000380: bd12 00b8 6b36 a036 724f 55b7 dc54 8237
00000390: 36b8 76b7 6926 00b5 605d 8ab6 dfd2 a9b7
000003a0: 8b07 c237 ead7 ce35 bc89 9bb7 e142 b737
000003b0: 0415 4db7 343a cbb7 db3f a936 4444 45b7
000003c0: 236e 81b5 7b1f 5637 31ee 84b7 7e88 d137
000003d0: fc14 9237 b56b 8034 fc04 61b7 a67e 38b7
000003e0: b0a2 d736 414c 3eb8 e93e 12b6 d2c3 20b7
000003f0: d1fc 1738 69a9 c4b7 a07f dd36 7e6e 9837

exp_avg_sq f4 [32, 63]
3.8671355e-06 1.4333899e-06 1.0856067e-07 7.888488e-08 1.4362362e-07 8.3056193e-07 1.8287317e-07 1.1865659e-07
6.287621e-08 4.5788556e-07 1.18028225e-07 9.3801525e-08 1.9993165e-07 1.2879112e-08 7.7326735e-07 3.538073e-08
7.7820306e-07 1.061015e-06 1.4131282e-06 2.8426575e-07 1.8724202e-06 6.9098553e-07 3.903936e-08 5.565927e-08
1.5026991e-07 3.4973123e-08 3.6591084e-07 1.1130674e-06 2.874417e-07 4.7252678e-07 1.319854e-07 3.25736e-08
1.07260185e-07 3.1857468e-07 3.3309604e-08 1.7654705e-07 3.231138e-07 1.9300884e-08 2.6384919e-06 2.5062997e-07
3.3118872e-07 1.3378916e-07 1.0373072e-06 4.930719e-08 4.9296466e-07 1.09587724e-07 2.7357464e-08 1.8167075e-08
1.4966774e-07 3.4687226e-08 6.800476e-07 2.1887436e-06 1.8773149e-07 5.65132e-07 6.989569e-08 1.4393789e-08
7.335398e-08 1.3068357e-07 2.302416e-08 1.0805697e-07 1.4717638e-06 4.0039804e-08 2.5116566e-07 4.5082224e-06
7.0263974e-07 4.679249e-07 4.1623966e-07 5.274164e-07 3.6917706e-07 7.2111453e-07 9.557424e-08 6.672665e-08
3.093126e-07 3.368114e-08 9.601903e-08 1.15273046e-07 7.767992e-09 6.322963e-07 1.1548643e-08 6.437366e-07
9.490615e-07 1.0801705e-06 1.8988295e-07 1.6723078e-06 5.1885775e-07 2.8800953e-08 4.0066926e-08 1.0340554e-07
9.262965e-09 1.4749332e-07 8.2622336e-07 2.0492374e-07 3.4246776e-07 4.916553e-08 2.5835439e-08 5.4960353e-08
8.421978e-08 3.4664367e-08 5.5247963e-08 2.7435485e-07 7.1584734e-09 2.134601e-06 1.9461615e-07 9.559036e-08
1.3594074e-07 4.347742e-07 4.131358e-08 4.620487e-07 7.462354e-08 1.20244765e-08 5.2764295e-09 9.797051e-08
2.865011e-08 6.3059747e-07 1.7989178e-06 1.1157264e-07 4.785884e-07 7.492928e-08 5.9346377e-09 1.3945634e-08
7.352683e-08 1.1892038e-08 5.1825918e-08 1.5629444e-06 1.9784318e-08 1.1730558e-07 1.2674451e-06 3.0782665e-08
1.2909694e-08 9.621524e-09 1.3697795e-08 1.3178566e-08 2.0444999e-08 3.2218677e-09 2.55368e-09 1.1275503e-08
1.7420054e-09 8.586837e-09 5.789945e-09 3.453404e-09 8.708338e-09 7.5149496e-09 1.0530811e-08 1.3165563e-08
1.490409e-08 7.807262e-09 2.2449488e-08 1.3198344e-08 8.173089e-09 4.34479e-09 9.154096e-09 5.622036e-09
8.967183e-09 1.0262131e-08 2.450556e-08 6.5719585e-09 8.902245e-09 8.546246e-09 8.722086e-09 5.1427724e-09
5.694306e-09 7.700217e-09 5.6625153e-09 5.129593e-09 2.2256813e-08 6.6389787e-09 7.368427e-09 6.445531e-09
1.311768e-08 7.059154e-09 8.34985e-09 7.4070425e-09 9.401724e-09 4.3313375e-09 6.6165344e-09 4.560336e-09
2.311722e-08 2.0399328e-08 1.0489683e-08 1.3216409e-08 6.107513e-09 4.1745256e-09 1.1000169e-08 5.5789395e-09
4.1019264e-09 6.4201284e-09 2.4452396e-08 8.7242696e-10 4.3914996e-09 4.1233304e-07 2.945591e-08 6.8925864e-08
4.8145804e-08 5.9374443e-08 1.9703895e-08 9.1280434e-08 6.553066e-09 3.2167005e-09 1.2872895e-08 1.1876437e-09
4.5437453e-08 7.9720035e-09 9.947122e-09 2.4964745e-08 7.2179493e-09 3.1270872e-08 4.393487e-08 4.334381e-08
3.6228855e-08 6.915607e-08 4.9321663e-08 6.167195e-09 4.0893024e-08 1.0676432e-08 4.649306e-09 2.2903139e-08
3.258795e-08 1.892497e-08 3.010415e-08 1.5339108e-08 1.1922281e-08 1.5765044e-08 8.800987e-09 1.9652415e-08
2.3566313e-08 1.3548584e-08 8.1839735e-09 7.8424264e-08 1.4756673e-08 1.32992e-08 1.60166e-08 2.1193127e-08
1.2722191e-08 1.9669114e-08 1.3885554e-08 1.4474444e-08 6.0906142e-09 1.7217284e-08 6.694827e-09 3.132951e-08
6.17602e-08 1.0866742e-08 2.849834e-08 1.3906089e-08 7.2330004e-09 7.210113e-09 2.0548335e-08 7.700069e-09
7.713285e-09 9.333464e-08 8.69674e-10 4.232031e-09 7.639068e-08 1.1938998e-07 2.0386636e-08 1.0268003e-08
00000000: 71c2 8136 e762 c035 dc21 e933 6c67 a933
00000010: f636 1a34 c8f3 5e35 cb5b 4434 26d0 fe33
00000020: 9006 8733 50d3 f534 b476 fd33 ef6f c933
00000030: cbac 5634 ef42 5d32 8792 4f35 86f5 1733
00000040: b5e5 5035 3368 8e35 b7aa bd35 309d 9834
00000050: de4f fb35 2a7c 3935 3bac 2733 040e 6f33
00000060: e159 2134 5b35 1633 6772 c434 b464 9535
00000070: b051 9a34 96af fd34 dfb7 0d34 0de7 0b33
00000080: e956 e633 9208 ab34 4c10 0f33 e290 3d34
00000090: 6c78 ad34 18cb a532 f210 3136 528e 8634
000000a0: 3bce b134 afa7 0f34 9b39 8b35 d4c5 5333
000000b0: 4654 0435 7d56 eb33 b3ff ea32 d20d 9c32
000000c0: 5bb4 2034 02fb 1433 848c 3635 54e2 1236
000000d0: 3d93 4934 93b3 1735 9019 9633 8e48 7732
000000e0: c786 9d33 0752 0c34 aac6 c532 f30c e833
000000f0: 6b89 c535 3bf8 2b33 f2d7 8634 5645 9736
00000100: 099d 3c35 1c37 fb34 8b77 df34 c793 0d35
00000110: 4f33 c634 9d92 4135 7e3e cd33 5d4b 8f33
00000120: 9a0f a634 cea8 1033 0533 ce33 078c f733
00000130: fd73 0532 12bb 2935 7867 4632 3ecd 2c35
00000140: 02c3 7e35 60fa 9035 a1e2 4b34 0f74 e035
00000150: a247 0b35 f765 f732 0d16 2c33 cc0f de33
00000160: f322 1f32 a85e 1e34 a3c9 5d35 0209 5c34
00000170: 69dc b734 122a 5333 bbec dd32 8c0d 6c33
00000180: 50dc b433 e0e1 1433 c749 6d33 0b4b 9334
00000190: 99f6 f531 2a40 0f36 aef7 5034 5b47 cd33
000001a0: 1bf7 1134 e96a e934 c370 3133 7d0f f834
000001b0: ba40 a033 3594 4e32 f74b b531 dc63 d233
000001c0: 421a f632 5446 2935 5872 f135 b599 ef33
000001d0: 5878 0035 cfe8 a033 a0e9 cb31 8c95 6f32
000001e0: cde5 9d33 bc4d 4c32 3397 5e33 5cc6 d135
000001f0: 2df2 a932 6de9 fb33 151d aa35 e635 0433
00000200: 6fc9 5d32 e94b 2532 8a53 6b32 f267 6232
00000210: 079f af32 b267 5d31 d07c 2f31 30b6 4132
00000220: 5e6b ef30 4f85 1332 e5f0 c631 ed50 6d31
00000230: ad9b 1532 191b 0132 ffea 3432 c22e 6232
00000240: 7106 8032 b420 0632 f2d6 c032 eebe 6232
00000250: a069 0c32 2d49 9531 2444 1d32 f42b c131
00000260: 170e 1a32 544d 3032 4c80 d232 8fcf e131
00000270: 7df0 1832 cad2 1232 24d8 1532 4eb4 b031
00000280: a5a7 c331 ea49 0432 0390 c231 6140 b031
00000290: 402f bf32 131d e431 5f2d fd31 7e77 dd31
000002a0: 2b5c 6132 fa8c f231 0773 0f32 0981 fe31
000002b0: 3885 2132 d9d2 9431 a757 e331 24b1 9c31
000002c0: 4e93 c632 993a af32 1d36 3432 620e 6332
000002d0: 41da d131 846f 8f31 41fb 3c32 dfb0 bf31
000002e0: edf0 8c31 0c98 dc31 630b d232 97cf 6f30
000002f0: 0ae4 9631 9f5e dd34 3b06 fd32 6504 9433
00000300: dfc8 4e33 e402 7f33 5341 a932 f305 c433
00000310: 6129 e131 cb0c 5d31 9727 5d32 7f3a a330
00000320: 0227 4333 3ef5 0832 e8e3 2a32 0e72 d632
00000330: c101 f831 b04e 0633 e7b2 3c33 0629 3a33
00000340: 0c9a 1b33 f482 9433 bed5 5333 39e7 d331
00000350: 5ba2 2f33 726b 3732 babf 9f31 89bc c432
00000360: d4f6 0b33 7390 a232 dd4b 0133 0ec3 8332
00000370: bfd2 4c32 b36b 8732 2633 1732 1ed0 a832
00000380: df6e ca32 4dc3 6832 7f99 0c32 326a a833
00000390: 8984 7d32 807a 6432 e094 8932 2e0c b632
000003a0: ca90 5a32 d7f4 a832 508d 6e32 47ab 7832
000003b0: 9c45 d131 35e5 9332 5208 e631 298f 0633
000003c0: 07a1 8433 70b0 3a32 83cc f432 a0e7 6e32
000003d0: 2586 f831 d3bc f731 4482 b032 4349 0432
000003e0: 6383 0432 436f c833 de0d 6f30 5769 9131
000003f0: 380c a433 ab31 0034 b01e af32 2867 3032

exp_avg f4 [32]
7.885968e-06 -0.00013608916 1.710801e-05 -1.9962077e-05 5.8566293e-06 -1.4912025e-06 -0.00011861015 -1.3074564e-05
4.0216557e-05 -1.3735057e-05 -5.2034502e-05 0.000117889525 -5.612759e-07 -5.7720745e-06 1.3138146e-05 3.4084842e-06
1.5604479e-05 -6.791076e-05 1.7648087e-08 -2.9057842e-06 8.680193e-06 1.9622662e-06 -7.3061216e-05 4.9400984e-05
-3.8700353e-05 -1.8498078e-05 -2.954928e-06 -8.087331e-05 -1.7030445e-05 -1.7601093e-05 -5.8242176e-06 0.00011063935
00000000: fa4d 0437 28b3 0eb9 2c83 8f37 3c74 a7b7
00000010: 1084 c436 5425 c8b5 57be f8b8 d35a 5bb7
00000020: 33ae 2838 9f6f 66b7 9f3f 5ab8 753b f738
00000030: 96aa 16b5 bead c1b6 e86b 5c37 50bd 6436
00000040: 5de6 8237 506b 8eb8 8e98 9732 fe00 43b6
00000050: 25a1 1137 7aaf 0336 7138 99b8 e733 4f38
00000060: 3052 22b8 522c 9bb7 474d 46b6 879a a9b8
00000070: 9adc 8eb7 0fa6 93b7 a66d c3b6 0c07 e838

exp_avg_sq f4 [32]
9.902539e-07 5.6852275e-07 1.9935783e-08 3.476941e-08 6.460639e-08 2.2625072e-08 7.345498e-07 3.941673e-08
4.7585882e-08 4.0901107e-08 5.2704553e-07 4.9043933e-07 7.6248465e-09 1.766059e-07 4.0904283e-08 2.27608e-08
1.0777311e-07 2.3208477e-07 2.8314123e-08 1.5041987e-06 2.9232455e-08 5.6018806e-08 6.936942e-07 1.1510341e-07
4.785889e-07 7.340275e-08 1.1203131e-08 1.0365859e-06 1.7061161e-07 2.2209703e-07 1.1775208e-08 1.8769454e-07
00000000: dde8 8435 969c 1835 403f ab32 5f55 1533
00000010: bdbd 8a33 0f59 c232 e12d 4535 274b 2933
00000020: 3b61 4c33 3eab 2f33 4b7a 0d35 bca6 0335
00000030: 6efe 0232 0fa1 3d34 bcae 2f33 8783 c332
00000040: e570 e733 fa32 7934 6a37 f332 e0e3 c935
00000050: d91a fb32 5499 7033 4d36 3a35 c52e f733
00000060: 6178 0035 97a1 9d33 e477 4032 d220 8b35
00000070: 5d31 3734 9179 6e34 ea4b 4a32 1589 4934

exp_avg f4 [16, 32]
-6.196238e-06 -9.674851e-05 1.3929234e-05 -3.6543504e-05 -1.2791975e-07 -2.288911e-06 -6.273994e-05 2.5885813e-06
-3.006583e-05 -1.8491315e-05 -4.1092044e-05 -4.0183153e-07 1.5395194e-06 -2.042686e-05 4.383763e-05 3.073023e-05
-7.3200927e-06 4.4950375e-06 1.2569044e-05 -7.13265e-05 -4.237439e-06 6.999717e-06 -2.7880218e-05 9.335204e-05
-1.0329337e-05 -2.2422673e-06 1.4041669e-05 -1.5830015e-05 -8.7159215e-06 -4.3930436e-06 5.2670302e-06 -1.623305e-05
6.371686e-06 -6.275164e-05 3.8146907e-06 1.9102996e-05 2.3900322e-05 7.758705e-06 3.0996976e-05 3.7366815e-05
6.8081754e-06 1.8996485e-05 1.479755e-05 -9.136405e-05 1.4310331e-05 1.9466093e-05 4.820138e-06 5.752679e-06
-3.248924e-05 1.057023e-05 2.3720484e-05 2.2417113e-05 1.1507116e-05 3.8512768e-05 1.4362227e-05 8.93432e-06
1.3346636e-05 1.9429248e-05 6.971965e-06 2.693947e-05 3.2090124e-05 7.923003e-06 5.558824e-05 9.608668e-06
9.810833e-06 -4.9052887e-05 1.4224825e-05 -1.5179572e-05 2.1189112e-06 -2.0407604e-06 -5.296956e-05 8.735804e-07
-1.3235923e-05 -2.1592467e-05 -3.9069975e-05 -2.6905518e-05 3.2756009e-06 -1.7367365e-05 4.490159e-05 8.915881e-05
2.3070697e-05 3.4616696e-06 8.906302e-06 -5.3233634e-05 1.2649212e-05 1.2148943e-05 -1.802129e-05 0.000107136846
-1.6286771e-05 9.1472316e-08 2.0832827e-05 -9.0384565e-06 -3.985558e-06 -9.0197005e-07 1.0816167e-05 -1.449066e-05
7.224664e-07 2.9274413e-06 -5.5985566e-07 2.600616e-06 9.4795047e-07 5.473616e-07 3.1514533e-06 1.0881658e-06
2.1533742e-06 1.9281592e-06 2.9717075e-06 -1.1856508e-06 4.644879e-07 1.475963e-06 -9.1295453e-07 -5.1767583e-06
-3.1778054e-06 8.3286756e-07 1.4386157e-07 3.2418293e-06 4.4737445e-07 5.457776e-07 1.7631855e-06 -6.3245434e-06
1.1073265e-06 8.593835e-07 2.7966155e-07 1.3928166e-06 1.3610004e-06 8.6884506e-07 1.2004565e-06 1.2600547e-06
4.7187086e-06 2.8161771e-06 -2.03163e-07 -2.3694099e-07 -1.5392962e-06 -4.0978574e-07 3.4268223e-06 -9.2783546e-07
-9.65625e-08 -1.7016893e-06 1.1958765e-06 8.350249e-06 -5.2304335e-07 9.408155e-07 -6.817248e-07 2.337081e-07
2.1211235e-06 3.4003515e-06 -1.4858882e-07 2.9515575e-06 -4.0078135e-07 -8.7772696e-07 1.4635242e-06 3.163136e-07
1.2468619e-06 -4.804332e-07 7.2389426e-08 1.7270871e-07 -6.484522e-07 -8.95581e-07 -2.506923e-07 6.0045416e-08
-5.243874e-05 -7.9058664e-05 1.3202146e-05 -2.892014e-05 6.3279304e-06 -1.089228e-06 -8.13762e-05 7.822191e-06
-1.801974e-05 -1.45063905e-05 -3.2672688e-05 -2.0159794e-05 8.426303e-06 -2.107306e-05 4.4806434e-06 1.9598481e-05
-3.8310096e-05 -2.1962354e-05 2.2518008e-05 -7.535899e-05 2.829768e-07 9.274603e-06 -2.1215035e-05 6.491221e-05
-3.4211454e-05 2.6469304e-06 1.6905859e-05 -2.0094449e-05 1.1846406e-06 3.9138895e-06 1.5845339e-05 -1.543809e-05
-7.239737e-05 2.8710436e-05 2.6397342e-05 -0.000109565146 -1.0836221e-05 -1.2577048e-05 -7.16082e-05 -1.96336e-05
-0.00012848084 -5.0203736e-05 -6.27338e-05 0.00017834954 -7.4150576e-06 -3.271756e-05 -1.1390533e-05 -2.4024172e-05
-2.366817e-05 1.0987149e-05 9.479059e-06 -5.865147e-05 -2.9799225e-05 -1.1312135e-05 -3.0880725e-05 8.512252e-05
-1.0783711e-05 -1.468529e-05 1.1862171e-05 -3.07052e-05 -2.4835968e-05 -1.4914498e-05 -1.3329222e-05 1.8511517e-05
1.9793399e-05 -6.040576e-05 1.1766497e-05 -7.801633e-06 -8.299741e-06 5.951533e-07 -4.0118855e-05 -1.0946793e-05
-6.9005905e-06 -2.546095e-05 -2.9139994e-05 2.6370959e-05 -5.9469007e-06 -1.8719462e-05 1.935714e-05 0.00010030325
5.5858738e-05 1.944777e-06 1.5704339e-06 -6.097471e-05 -7.014675e-07 -2.510531e-07 -2.1618209e-05 0.00012135162
-1.3402421e-05 -6.5082554e-06 1.1534117e-05 -1.4958785e-05 -1.1482029e-05 -8.682273e-06 -7.3876267e-06 -2.556274e-05
00000000: 47e9 cfb6 76e5 cab8 9bb1 6937 4a46 19b8
00000010: 505a 09b4 319b 19b6 4093 83b8 7db7 2d36
00000020: e135 fcb7 cc1d 9bb7 3f5a 2cb8 4ebb d7b4
00000030: 7ca1 ce35 595a abb7 4cde 3738 55e4 0038
00000040: 1e9f f5b6 14d4 9636 a2df 5237 2095 95b8
00000050: 532f 8eb6 1cdf ea36 50e0 e9b7 ffc5 c338
00000060: 2a4c 2db7 dc79 16b6 8294 6b37 b3ca 84b7
00000070: 993a 12b7 f567 93b6 72bb b036 362c 88b7
00000080: 5ecc d536 8899 83b8 e3ff 7f36 5f3f a037
00000090: 8d7d c837 622b 0237 c002 0238 50ba 1c38
000000a0: c871 e436 a45a 9f37 fe42 7837 b39a bfb8
000000b0: 6716 7037 1e4b a337 acbc a136 2307 c136
000000c0: 0e45 08b8 cb56 3137 5afb c637 620c bc37
000000d0: b00e 4137 c588 2138 4cf5 7037 9de4 1537
000000e0: 5deb 5f37 fefb a237 b9f0 e936 12fc e137
000000f0: 8298 0638 0aed 0437 6b27 6938 ea34 2137
00000100: 3599 2437 23be 4db8 28a7 6e37 c4ab 7eb7
00000110: 9e32 0e36 fff3 08b6 a22b 5eb8 fd7f 6a35
00000120: db0f 5eb7 7821 b5b7 11df 23b8 29b3 e1b7
00000130: 65d2 5b36 22b0 91b7 b754 3c38 c6fa ba38
00000140: f287 c137 084f 6836 476c 1537 2e47 5fb8
00000150: f437 5437 50d3 4b37 6d2c 97b7 a8ae e038
00000160: 939f 88b7 706f c433 28c2 ae37 e0a3 17b7
00000170: afbb 85b6 e91e 72b5 1577 3537 e91c 73b7
00000180: 83ef 4135 0f75 4436 fd48 16b5 3e86 2e36
00000190: a976 7e35 67ee 1235 8e7d 5336 180d 9235
000001a0: b082 1036 8665 0136 8c6d 4736 a722 9fb5
000001b0: bb5e f934 b419 c635 c211 75b5 04b4 adb6
000001c0: 4842 55b6 3992 5f35 5e78 1a34 348e 5936
000001d0: ad2e f034 8d81 1235 98a6 ec35 6a37 d4b6
000001e0: 739f 9435 62b0 6635 6424 9634 d0f0 ba35
000001f0: 9eab b635 943a 6935 5f1f a135 261f a935
00000200: 6655 9e36 8efd 3c36 0525 5ab4 d869 7eb4
00000210: d199 ceb5 8600 dcb4 5cf8 6536 5e10 79b5
00000220: cc5d cfb3 9965 e4b5 0182 a035 0c18 0c37
00000230: 4467 0cb5 598c 7c35 c6ff 36b5 32f1 7a34
00000240: a058 0e36 9831 6436 c98b 1fb4 5f13 4636
00000250: f82a d7b4 f09c 6bb5 4f6e c435 cfd1 a934
00000260: d959 a735 1ef7 00b5 8274 9b33 cf71 3934
00000270: 4c11 2eb5 dc67 70b5 e396 86b4 51f2 8033
00000280: abf1 5bb8 4ccc a5b8 c97e 5d37 8799 f2b7
00000290: 8254 d436 9731 92b5 84a8 aab8 0e3c 0337
000002a0: 1929 97b7 7960 73b7 080a 09b8 d41c a9b7
000002b0: b25e 0d37 0dc6 b0b7 6f58 9636 6b67 a437
000002c0: 27af 20b8 cc3b b8b7 0ee5 bc37 0d0a 9eb8
000002d0: 09ec 9734 1e9a 1b37 f1f6 b1b7 7a21 8838
000002e0: 457e 0fb8 eba1 3136 0ed1 8d37 8090 a8b7
000002f0: f1ff 9e35 0e54 8336 9beb 8437 0c81 81b7
00000300: 0bd4 97b8 31d7 f037 dc6f dd37 57c6 e5b8
00000310: 37cd 35b7 0302 53b7 5c2c 96b8 d6b2 a4b7
00000320: d0b8 06b9 da91 52b8 f48f 83b8 5703 3b39
00000330: dcce f8b6 363a 09b8 f719 3fb7 8487 c9b7
00000340: 028b c6b7 7255 3837 4008 1f37 8900 76b8
00000350: 59f9 f9b7 40c9 3db7 ed85 01b8 ce83 b238
00000360: b0eb 34b7 d760 76b7 a303 4737 75c9 00b8
00000370: d656 d0b7 4839 7ab7 93a0 5fb7 2e49 9b37
00000380: 000a a637 315c 7db8 b868 4537 c2e3 02b7
00000390: 1e3f 0bb7 a0c2 1f35 4b45 28b8 1ea8 37b7
000003a0: 9f8b e7b6 f994 d5b7 a971 f4b7 3437 dd37
000003b0: 7d8b c7b6 bd07 9db7 2461 a237 e659 d238
000003c0: dd49 6a38 0483 0236 b3c7 d235 19bf 7fb8
000003d0: 7b4c 3cb5 7ac8 86b4 c058 b5b7 287e fe38
000003e0: f6da 60b7 7d61 dab6 a882 4137 7ef7 7ab7
000003f0: f0a2 40b7 14aa 11b7 3be3 f7b6 916f d6b7
