machine_learning/notebooks/vertex-custom-ml/pytorch/custom_jobs/pytorch_tabular/training/saved_models/classification-1_epoch=16-valid_loss=0.32.ckpt (torch, 58438 bytes, 38 tensors)

_backbone.linear_layers.0.weight f4 [32, 28]
00000000: 685b 473f f0cd ac3f ef74 0340 a341 5a3f
00000010: 3b25 843e f390 f3be f20a fbbf d3f9 653e
00000020: 4f94 813e 9940 c3be 1310 4cbf 4d5f 823f
00000030: 290c 3f3f 18e5 343f cc2b 1bbe 30f5 4abc
00000040: 3da8 913f 1690 d43f bda7 373f 3310 c23f
00000050: 3894 6e3f 794f ecbf f165 753f cdbd 6c3e
00000060: 6e8a c43f b68e 97bf d596 683f 2206 e13e
00000070: 02da ee3f e7c7 8abe 686a a2bf a38b b63f
00000080: 0a5c 043f fb3c c7bf 707c 9ebf 3fde 44bf
00000090: b8f1 bfbf 9210 89bf fdf2 583f b3e9 77be
000000a0: 711c 32bf 73d0 ec3f d61e a93f 704a d8bf
000000b0: 59a4 133f 6528 373f 19bb 383f 5fc5 023f
000000c0: 2729 503f 725c 67bf 37e3 483f 3417 453f
000000d0: 32ca 563f 999e 4cbf fc03 393f 0cbe 423f
000000e0: 5eed 8d40 1b12 cd3e 8388 46bf fb37 8c3b
000000f0: cc3a c23f 9626 043f 5327 b9bf 6c30 703f
00000100: b921 99be ba79 34bf 3351 22be 15ee 07bf
00000110: 7c9f ac3b 2c61 35bf 675b 43bf ac64 b43d
00000120: f8ba 103f 075c 623e 7b53 e13e f709 be3f
00000130: 4cba 2abe 8e04 7ebe 28da a8bd f823 083f
00000140: 6618 15bb a318 fc3d 989a f7be 294e 12bf
00000150: 6f48 613f 87d8 b6be d6ad c8be 2bbd a23e
00000160: 524a 933f 45c7 a1b9 215e 9dbf 40f4 d9be
00000170: 9d48 35bf da70 babf 4822 cf3f 00cc 8abf
00000180: f7e3 0cbf b642 2d3f 9e2c e03e 7d90 873e
00000190: 5d0e a13f df39 893f 7ba3 52be b714 3a3f
000001a0: 31fb b8bd 79d2 6bbf dd1a bd3e 2aaf 94be
000001b0: 434a 4a3f fe34 00bf 16f9 bf3f 6359 053f
000001c0: b9a7 703f 8ffe 7abf b496 34bf 58f1 a63f
000001d0: 0b59 5a3e d065 06bf 392b 9bbe d926 dabf
000001e0: 74e9 d9be 4617 1dc0 c778 813e 660a 0ebf
000001f0: 8260 6dbf a1f4 8b3f be39 bc3f d19c a8bf
00000200: 0261 7b3f 5548 843f bf9d 023f a05f 7c3f
00000210: 66b0 ae3e eec1 a0bf 0f7f 223f f0e8 7cbf
00000220: c3d9 233f 194f 763f aa2f 183f e4a5 27c0
00000230: 1d54 cf3e 44d7 26bf 545c 0fbf 6c19 933f
00000240: 181c 343f 2d58 9bbf 5ad0 c7bf 09b2 92bf
00000250: 0fe4 56bf a94f 99bf c411 b43f 47ce f5be
00000260: 165b 4cbf 7a02 893f bf7f 763f 8f3a e7bf
00000270: e0a7 873f 9420 e83f 147f 7b3f e311 803f
00000280: 3483 943f 8912 adbf a234 a03f 10f7 173b
00000290: 3c89 823f 49e9 a93f d45b 403f 71d8 15bf
000002a0: ee66 883f 9ba8 70bf d146 41bf 5a03 b33f
000002b0: 699c c33f 8e4c 43bf 1bef adbf df63 86bf
000002c0: 5427 bbbf 0608 d0bf 94b4 ba3f 3d90 a5bb
000002d0: d5a9 56bf 6bfa 803f a103 603f 49a3 50bf
000002e0: 2877 c13f 4284 ba3f f7ae df3e 2819 2d3f
000002f0: 1255 9a3d 417a 74bf 151c a63e 24e0 583f
00000300: ee80 343f a140 83bf 4a72 b73f 92e8 683f
00000310: d49f ab3e 8ca6 4d40 8036 1e40 65bc e8bc
00000320: f827 aabf 9df2 d1bd 0300 86bf 2ada 82bf
00000330: 94d9 babf 3f85 0ec0 81be 87bf 0a78 333f
00000340: 8a76 ecbe 5fcd 413f 70e9 45be 369f 113e
00000350: 7a8a c73f fad5 953f df10 023f 116c cc3f
00000360: 17a4 b03f 406c e1bf bf4d ce3f 5c05 8fbf
00000370: 60bd 4a3f 8b47 e1be 926a 873f 5b00 b63e
00000380: 2ed3 1940 78cb 59bf 924f 853f cbb5 06bf
00000390: 4a52 993f 9bac cbbd c7b5 c9bf eab1 1fbf
000003a0: 8e4a 97bf 1ffb 51be 1dd3 213f 1484 443f
000003b0: 346b 0abf 82a5 a63f cb4d 553f 1209 a8be
000003c0: 3f91 663f 70a1 b53f 53dd 773f 4e64 b73f
000003d0: ea93 7d3e 077b b5bf aa7e c33f 14d1 0b3b
000003e0: fc36 d53f ef13 9c3e 8d63 c73f 8665 9ebf
000003f0: af86 8f3f 2715 a3bf 0578 20bf acf7 0c3f
0.7787385 1.3500347 2.054012 0.85256404 0.25809655 -0.47571525 -1.9612715 0.22458582
0.25308463 -0.38135222 -0.7971203 1.0185333 0.7462793 0.7066207 -0.15153426 -0.012387559
1.1379467 1.6606472 0.71740323 1.5161194 0.93194914 -1.8461753 0.95858675 0.23119278
1.5354745 -1.1840427 0.9085515 0.4394999 1.8660281 -0.27105638 -1.2688723 1.4261364
0.5170294 -1.5565485 -1.2381725 -0.7690162 -1.4995642 -1.0708182 0.8474577 -0.24210243
-0.6957465 1.8501114 1.3212535 -1.6897717 0.5767265 0.7154601 0.7216049 0.51082414
0.81312793 -0.90375435 0.784717 0.7698853 0.83902276 -0.799295 0.72271705 0.7607124
4.4352255 0.40052876 -0.7755205 0.0042791343 1.5174193 0.5162138 -1.4465126 0.93823886
-0.2990854 -0.7049824 -0.15851288 -0.5309766 0.0052680355 -0.708514 -0.76311344 0.08808264
0.5653529 0.22105418 0.44009003 1.4846791 -0.16672629 -0.24806425 -0.08244735 0.53179884
-0.0022750138 0.123093866 -0.48360133 -0.5715051 0.8800115 -0.35712072 -0.39195126 0.3178495
1.1507056 -0.0003085678 -1.2294351 -0.4256916 -0.70813924 -1.456569 1.6182337 -1.0843506
-0.55035347 0.6767992 0.4378404 0.26477423 1.2582508 1.0720786 -0.20570175 0.7268786
-0.09032286 -0.9211803 0.36934558 -0.2903989 0.79019564 -0.5008086 1.499789 0.5208952
0.94005924 -0.98044676 -0.70542455 1.3042402 0.2132303 -0.52499104 -0.30306414 -1.7043105
-0.42560923 -2.4545455 0.25287458 -0.55484617 -0.92725384 1.093403 1.4705122 -1.3172857
0.981949 1.0334574 0.5102195 0.9858341 0.34118956 -1.2559183 0.63475126 -0.98792934
0.64004153 0.96214443 0.5944773 -2.6195002 0.4049386 -0.6517222 -0.56000257 1.1492133
0.7035537 -1.2136284 -1.5610459 -1.1460582 -0.8394174 -1.1977435 1.4067922 -0.4800894
-0.79826486 1.0703881 0.96288675 -1.8064746 1.0598106 1.8134942 0.9824078 1.0005459
1.160254 -1.3521281 1.2516062 0.0023188032 1.0198131 1.3274318 0.7514012 -0.5853339
1.0656412 -0.9400727 -0.7549868 1.3985398 1.5282108 -0.7628869 -1.3588594 -1.0499228
-1.4621377 -1.6252449 1.4586358 -0.005052595 -0.83852893 1.0076421 0.8750554 -0.81499153
1.5114489 1.4571612 0.43688175 0.6761651 0.07535757 -0.95499045 0.324433 0.8471701
0.7050923 -1.0254098 1.4331753 0.90979874 0.33520377 3.2132902 2.4720764 -0.028410146
-1.3293447 -0.10251353 -1.0468754 -1.0222828 -1.459765 -2.2268827 -1.0605012 0.7010504
-0.46184188 0.75703996 -0.1932733 0.1422089 1.5589135 1.1705925 0.50806993 1.5970479
1.3800076 -1.761116 1.6117476 -1.117351 0.79195213 -0.43999895 1.0579398 0.35547146
2.4035144 -0.85076094 1.0414908 -0.52621144 1.1978238 -0.09945031 -1.5758599 -0.6238085
-1.1819627 -0.20505951 0.6321276 0.76764035 -0.5406983 1.3019259 0.8332183 -0.3281942
0.9006538 1.4189892 0.9682209 1.4327486 0.24763456 -1.417817 1.527303 0.0021334337
1.6657405 0.30483958 1.5577255 -1.2374732 1.1212977 -1.274083 -0.62683135 0.5506542

_backbone.linear_layers.0.bias f4 [32]
00000000: 64e1 fabf a0fa 7abf 7bac 63bf 4fa9 5bbf
00000010: 7772 3ebf c48f 79bf 0aad 4bbf 7f8a e7bf
00000020: 84fd e7bf d9ef a5bf 8c15 ebbf f370 b4bf
00000030: f6b2 dcbf cbd1 fabf 0982 1bc0 40d5 63bf
00000040: 4aa3 bdbf 66cd 67bf cdcd bfbf 6579 d4bf
00000050: 4964 08c0 f6fe a1bf ebff d7bf 0dd4 b7bf
00000060: 2669 14c0 320c 3fc0 6e5a 03c0 c3e4 edbf
00000070: 71a2 2dbf c2ff fdbf 2d4e 10c0 f3a7 d9be
-1.9600034 -0.98038673 -0.8893506 -0.8580522 -0.7439341 -0.97484994 -0.7956091 -1.8089141
-1.8124242 -1.2963821 -1.836595 -1.4096969 -1.7242115 -1.9595274 -2.4298117 -0.8899727
-1.4815457 -0.9054779 -1.498468 -1.6599547 -2.131121 -1.2655933 -1.6874975 -1.4361588
-2.3189178 -2.9851193 -2.0523944 -1.8585438 -0.6782599 -1.9843676 -2.2547715 -0.42510948

_backbone.linear_layers.3.weight f4 [16, 32]
00000000: ae5a fa3f 3071 663e e63b 51bf b06c a0be
00000010: 2a84 843f 2671 343f 66b0 813f 0170 2c3f
00000020: 3f7b 9e3f f0db d53f c736 1340 071a ce3f
00000030: c261 e83f 7585 983f f719 0540 3bec 143f
00000040: 2153 383f d8a7 eebf e716 303f a4a1 473f
00000050: 432a f13f bb22 cc3f cac6 0e3f e4ce a73f
00000060: bb3d b23f a9ce 0940 a199 1140 908c c83f
00000070: b13a c53d 2857 e43f b8e5 a63f 062d 7dbf
00000080: 87fe 1a40 4b14 44bf 5fe0 29bf 80aa 4cbf
00000090: c7cb 10bf 2b02 52bf b2e7 0abf b5a7 163f
000000a0: 15ef 9c3d 9671 f6be 062f 21bf e49c debd
000000b0: 154e 1b3d bfc2 173e 3712 63bf 3731 91be
000000c0: 10aa dcbe ca5e 42bd 251c 03bf 60ba 0a3f
000000d0: 8f2c d73f a242 7ebf e682 843f 368e 9dbf
000000e0: 0929 46bf 5db0 733e 8321 ad3f e1d6 5d3f
000000f0: 54d1 3ebf 3ed3 d1be 2a14 2e40 6593 7cbf
00000100: 158f 0ebf 097f 48bf 697e d1bf cd1d 72be
00000110: 7ad6 0a3f 8af6 793e 4090 12bf 1e33 d2bf
00000120: 0b72 e43f 25c5 db3e c22b 6ebf f3a6 b4be
00000130: 0da9 1ebf fba6 08bf f8ef 953e cf6f bdbe
00000140: 7b1d 92bf b89d a8bf 321d 73bf 9a83 f1be
00000150: dc5a 193f ac38 0fbf aa10 2ebf 305f 463f
00000160: c099 403f 5c96 09bf 593f 8a3d a9fa bdbe
00000170: 1278 25bf 2d51 34be 4e3a 213e dba5 5abf
00000180: 8b4c 32bf 5b5c 1cbf 8de2 89bf f0ca aebd
00000190: a255 233f 75fb eb3e 6540 d3bd a23e 29bf
000001a0: d628 69bf 66e4 423f 4a21 2ebf 823e d9be
000001b0: 0fd8 0abf 3240 36bf 747e b73f 4951 b1be
000001c0: d35a e1be fc73 abbf 1e56 d33e a878 30be
000001d0: 16fb b13f a284 2fbf 3792 a9be c21d 00bf
000001e0: 3cf7 4f3f 9adb d73e 5ddd 9cbd 7c88 80bf
000001f0: 31ad 25bf a0b9 cd3d e592 f43d 7a2b b8be
00000200: 40e9 dcbe aba4 41bf 51dd 90bf c7bc 3abf
00000210: a57e 31be 4023 043f 29f3 acbe 5a63 72bf
00000220: 59cb 5cbf 2ff3 b53d 9dd4 47bf b18b 9dbe
00000230: 468a 30bf b60c 4abf 7886 3f3f caae 6ebf
00000240: d9e9 83bf e5a2 bfbf ea72 023f 5aa1 3cbf
00000250: 5d6c f43e f017 dabe 9307 e7be d9e1 53bf
00000260: c732 123f 2cf2 ddbe c4eb bcbe 0187 22bf
00000270: b118 65bf 0bcb 55be 43af 0b3e 40c2 17bf
00000280: df6a a63f 2cd0 8e3b b50f 9abf 94c0 683f
00000290: 6087 ef3f 8b04 bf3f d412 823f 1582 1b3f
000002a0: f8da b83f 4c95 e83f 8390 d03f 3438 353f
000002b0: d5b6 873f 0baf d43f 87bf a2be c30f 6f3f
000002c0: 5e8d 6f3f 44c0 2ac0 26be 6abe 32aa bf3f
000002d0: af5d d13f 0afd 503f 9423 a43f 05f5 883f
000002e0: dbcb 1140 79fd ce3f 3956 f43f f265 af3f
000002f0: 4551 e73e d082 bf3f 8268 d33f 4042 8a3f
00000300: 7da8 0940 0e09 b03f 9281 f0bf 4f7b 9c3f
00000310: 03c3 443f 83bc e63f bba4 9a3f 7f42 45bf
00000320: 2880 ac3e bb87 0340 45fa b03f d7b0 423d
00000330: 6b38 cb3f 8755 a33f 374d 973f 30bb 433f
00000340: c6c0 0240 7ac0 dcbf 1f1f 873f 725f 2d40
00000350: 7484 743f e2a7 b23f 9750 2d40 d94f a33f
00000360: 35e1 373d 382a 8c3f 511b 963f 9135 0e3f
00000370: e5ce 933f 2d5c 8e3f 6dbb 6a40 6e42 303f
00000380: eeeb 6abe 2c14 0abe 9b6f 8dbf f747 843e
00000390: bfc7 843f d43f a0be aa30 703d b96e 81bf
000003a0: 1690 e3be c638 de3f 3c8a bebe ed58 ef3f
000003b0: 39fe e73e 9e5c 58bd 3f33 dd3f 86bd 42be
000003c0: a387 323e 9489 6abf fab3 c43e cac6 783f
000003d0: 819f 993f da3b 883f 37e0 a93e 2451 463e
000003e0: 13f5 473f cad1 0340 6ab9 0a3f bd86 e83e
000003f0: 914a 33be def5 de3f 0403 163f 5541 89bf
1.9558923 0.22504115 -0.8173202 -0.31332922 1.0352833 0.7048515 1.0131958 0.67358404
1.2381362 1.6707745 2.3002183 1.6101693 1.8154833 1.1915728 2.0797098 0.5817296
0.72001845 -1.8644972 0.68784946 0.7798102 1.8841022 1.5948099 0.5577208 1.3110013
1.3925089 2.1532385 2.2750018 1.5667896 0.09630335 1.7839098 1.3038855 -0.98896825
2.421785 -0.76593465 -0.6635799 -0.7994766 -0.5656094 -0.8203456 -0.5425979 0.5884965
0.07662789 -0.48133534 -0.6296238 -0.10869768 0.03791626 0.14820383 -0.8869967 -0.2835786
-0.43098497 -0.04745368 -0.5121482 0.54190636 1.6810473 -0.99320424 1.0352447 -1.2309024
-0.77406365 0.23797746 1.3525852 0.86656004 -0.7453816 -0.40981477 2.7199807 -0.98662406
-0.55687076 -0.7831884 -1.6366702 -0.2364418 0.54233515 0.24410453 -0.5725136 -1.642185
1.7847303 0.42923847 -0.9303552 -0.35283622 -0.619767 -0.5337979 0.29284644 -0.36999366
-1.1415247 -1.3173132 -0.94966424 -0.47170717 0.59904265 -0.5594585 -0.6799418 0.77488995
0.75234604 -0.53745055 0.06750364 -0.371053 -0.6463634 -0.17609091 0.15744898 -0.85409325
-0.69648045 -0.61078423 -1.0772263 -0.08534801 0.6380254 0.46090284 -0.10315017 -0.66111195
-0.91077936 0.7612976 -0.68019545 -0.42430502 -0.5423593 -0.71191704 1.4335465 -0.34632328
-0.44014606 -1.3394771 0.4127664 -0.17233527 1.390475 -0.68561757 -0.33119366 -0.50045407
0.81236625 0.4215973 -0.07659409 -1.0041652 -0.64717394 0.10045171 0.119420804 -0.3597067
-0.43146706 -0.7564189 -1.131754 -0.729443 -0.17333467 0.5161629 -0.33779266 -0.9468285
-0.86247784 0.08884274 -0.780588 -0.3077064 -0.6896099 -0.78925645 0.7481456 -0.93235457
-1.030574 -1.4971586 0.50956595 -0.736837 0.47738925 -0.42596388 -0.45122966 -0.8276649
0.5710873 -0.43348825 -0.36898625 -0.6348725 -0.894908 -0.20878236 0.13641076 -0.59280777
1.3001364 0.004358312 -1.2036043 0.9091885 1.8713188 1.4923261 1.0161996 0.60745364
1.4441824 1.8170562 1.6294101 0.70788884 1.0602671 1.6615919 -0.3178675 0.93383425
0.93575084 -2.667985 -0.22924098 1.4973814 1.6356715 0.81636107 1.2823358 1.0699774
2.2780674 1.6171104 1.9088813 1.3702986 0.4517919 1.4961796 1.6516268 1.0801468
2.1509087 1.3752763 -1.8789542 1.2225131 0.76860064 1.8026279 1.2081522 -0.7705459
0.33691525 2.0551593 1.3826376 0.04753193 1.5876592 1.2760476 1.1820439 0.764575
2.043016 -1.7246239 1.0556372 2.7089505 0.9551461 1.3957484 2.7080438 1.2758743
0.04489251 1.0950384 1.1727086 0.55550486 1.1547514 1.112188 3.6676896 0.68851364
-0.22941563 -0.13484257 -1.1049684 0.25836155 1.0373458 -0.31298697 0.05864016 -1.0111915
-0.44445866 1.7361076 -0.3721484 1.8699013 0.45311144 -0.0528227 1.7281264 -0.1901761
0.17434554 -0.9161618 0.3841856 0.9717833 1.2001802 1.0643265 0.33178875 0.1936689
0.7810833 2.0596795 0.5418917 0.45415297 -0.17508914 1.7418783 0.5859835 -1.0723063

_backbone.linear_layers.3.bias f4 [16]
00000000: d470 39c0 d97d f1bf f002 2ac0 292d 5ec0
00000010: 4cc0 57c0 d2c4 7cc0 bb45 61bf c6a6 25c0
00000020: 6c03 1cc0 1c5e fbbf db69 32c0 bd31 2bc0
00000030: f99c 2bc0 bb00 5ec0 7cf2 01c0 6944 4bc0
-2.8975115 -1.8866531 -2.6564293 -3.4715064 -3.3711119 -3.949513 -0.87997025 -2.588304
-2.4377089 -1.9638095 -2.787711 -2.6749108 -2.6814559 -3.4687946 -2.030425 -3.1760504

_embedding_layer.cat_embedding_layers.0.weight f4 [5, 3]
00000000: 31af aabe 4207 aabe 487e 083f 9c73 62bd
00000010: 3251 06c0 344a febe 7f33 83be 34b4 fabf
00000020: b221 11bf 130a 08be 96b0 0fc0 b5ae 19bf
00000030: 8fd8 62bf 3a17 e8bf 3cc3 69bf
-0.33336785 -0.33208662 0.5331769 -0.055286035 -2.0987058 -0.49665987 -0.25625226 -1.9586244
-0.5669204 -0.13285093 -2.245153 -0.60032207 -0.8861169 -1.8132088 -0.9131353

_embedding_layer.cat_embedding_layers.1.weight f4 [5, 3]
00000000: 8954 9cbd d66f c33e 2b15 a73f 8e99 30be
00000010: 5891 7fbf f334 0d40 f820 41bf 1b96 a93e
00000020: 6c5b a13f 3b1f 97bf 1b18 b53e 1222 f33f
00000030: 829e b5be 1857 83bf eac8 423f
-0.07633311 0.38171262 1.3053335 -0.17246076 -0.9983115 2.2063568 -0.7544093 0.33122334
1.2606025 -1.1806406 0.35369954 1.8994772 -0.35472494 -1.0260954 0.7608782

_embedding_layer.cat_embedding_layers.2.weight f4 [5, 3]
00000000: 7014 66be cf88 a8bf 2718 313f 8611 6ebf
00000010: 2167 623f 0e66 2cbf 3fca 93bf 2737 7f3f
00000020: cb73 84bf 56a5 8abf c623 a13f 1229 71bf
00000030: 0dd8 4bbf f6ce 2c3f e36b 14bf
-0.22468734 -1.3166751 0.6917748 -0.9299549 0.8843861 -0.67343223 -1.1546096 0.9969353
-1.0347837 -1.0831707 1.2589042 -0.94203293 -0.7962654 0.675033 -0.5797712

_embedding_layer.cat_embedding_layers.3.weight f4 [5, 3]
00000000: 41bd 933f ec8f 903f 942d 4fbe 0619 043f
00000010: c13f 44bf e8b5 8fbe 1e7e 093f ddab 51be
00000020: 246d 0cbf eeb8 863f 39ad 743d 429b 0dbf
00000030: 3973 673e 8de8 c1be f23e 08bf
1.1542131 1.1293921 -0.2023223 0.5160068 -0.7665978 -0.2806847 0.53708065 -0.20475717
-0.54854035 1.0525186 0.05973551 -0.5531503 0.22602548 -0.37872735 -0.53221047

_embedding_layer.normalizing_batch_norm.weight f4 [16]
00000000: 55a9 dbbf 81e9 b1bf dfd5 d93f 6cf6 813e
00000010: e41e 68be 2b0c bd3e a3e7 463f 17d0 87be
00000020: 4272 163e fc2c aebf 6dde 833f 671d aebe
00000030: d48b 9ebf 4c58 4dbf 36db 223c b194 3fbe
-1.7161051 -1.3899385 1.7018393 0.25383317 -0.22668034 0.36923346 0.776972 -0.26525947
0.14692023 -1.3607478 1.0302254 -0.34006807 -1.2386422 -0.80212855 0.009939959 -0.18709065

_embedding_layer.normalizing_batch_norm.bias f4 [16]
00000000: dbd3 8cbf 3037 e5bd 5b6b 22bf e3ba d2be
00000010: ef15 b83e 4f24 503e 1830 c8be 3b07 2e3f
00000020: 2c1b 1d3e f5cb 993f b469 1abf cb5e 28bf
00000030: b2e7 c23d cd82 59be 4756 babf 5b23 003f
-1.1002153 -0.11192167 -0.6344506 -0.41158208 0.35954234 0.2032635 -0.39099193 0.6797978
0.15342396 1.2015368 -0.6031754 -0.6576964 0.095168486 -0.21241303 -1.455758 0.5005395

_embedding_layer.normalizing_batch_norm.running_mean f4 [16]
00000000: 26e9 503b 9b39 a93a 9c8b 1e3b 161d a2ba
00000010: 6e39 93bb 7d02 38ba fb86 9a3b 2d35 063b
00000020: 523a 503b eaef 9b3a dbfd 453b 7cf3 2ebb
00000030: 25e6 693b 062d d538 4b40 1cbb 716f 203b
0.0031877249 0.0012910845 0.00241921 -0.0012368287 -0.00449293 -0.0007019414 0.004715798 0.0020478473
0.0031773043 0.0011897061 0.0030211124 -0.002669542 0.0035690155 0.00010165018 -0.0023842033 0.0024480487

_embedding_layer.normalizing_batch_norm.running_var f4 [16]
00000000: 5029 803f e177 7f3f d314 7e3f 46fe 7d3f
00000010: 1525 803f 55c3 803f 7530 7e3f 386f 7e3f
00000020: 226e 7e3f ec00 803f 280c 803f 2933 7f3f
00000030: 43cc 7e3f 06c9 7f3f 7ce1 7d3f de0a 803f
1.0012608 0.99792296 0.99250525 0.99216115 1.0011317 1.0059611 0.9929269 0.99388456
0.993868 1.0000281 1.000371 0.9968744 0.9953043 0.9991611 0.99172187 1.0003316

head.layers.0.weight f4 [2, 16]
00000000: 367b 983f ee76 75bf 47a5 1b3f 5162 a53f
00000010: d1ac 9e3f 5fab 9e3f 38f8 85be b5b8 003f
00000020: b8c2 13bf 5ef1 7dbf 847b 813f 0c68 ac3f
00000030: d21f 143f 5dc0 703f 5f15 25bf 4d5c f8be
00000040: 38f0 e9be 2131 203f 8dfd 91be d0cf 5dbf
00000050: 0d13 5ebf 64d9 53bc 39a3 233f 52eb 59be
00000060: 392f 423f 3028 143f 16cf 14bf 05ef 7fbf
00000070: 53e2 b83d 8bbd 9dbf 1b85 813f 1048 9f3d
1.1912601 -0.958846 0.6079907 1.2920629 1.2396489 1.2396048 -0.26165938 0.5028184
-0.5771899 -0.9919642 1.0115819 1.3469253 0.57861054 0.94043523 -0.64485735 -0.4850792
-0.45691085 0.62574965 -0.28513756 -0.8664522 -0.8674782 -0.012930248 0.63920933 -0.21281174
0.75853306 0.5787382 -0.5812849 -0.9997409 0.09027543 -1.2323469 1.0118746 0.07777417

head.layers.0.bias f4 [2]
00000000: 1e4a 0e3e 68d1 27be
0.13895461 -0.16388476

exp_avg f4 [32, 28]
00000000: 2fa2 16b9 faff 3438 1665 74b9 8509 59b8
00000010: 8956 dc37 97ed 0836 ad02 3c37 d2d2 7338
00000020: 4ad7 0d37 1cda 9639 ddff 02b9 2f89 85b4
00000030: 50f8 58b8 6261 2437 e30c d2b8 3123 1238
00000040: b4ac 46b7 d3dc f5b8 f3da 0db8 1387 82b8
00000050: ba59 b536 869e bc38 2eb1 79b8 11aa 8038
00000060: beae 3db8 7a5e 1c38 af6c a1b7 3a61 0cb8
00000070: 6d31 a6b9 5cd0 02b9 78fd 18b8 86e0 3338
00000080: 193e 05b8 0f8f d5b5 fb55 7237 18a0 86b8
00000090: a326 41b6 d3df d138 aaaa 3439 54e1 7a38
000000a0: c4f1 a6b8 44f8 a838 56fc 0f39 8b83 40b8
000000b0: c535 4fb6 ad79 6239 a727 8438 1001 bbb6
000000c0: 6bf8 bb38 67e0 abb7 a5f1 bf38 71d7 a6b8
000000d0: 6076 9e38 7b12 a8b8 b4e2 9db5 babc 8838
000000e0: 10e2 ceba b041 feba e0bb be3a e546 bdb9
000000f0: 75d1 85b6 4c59 31b9 3196 37b9 4bff 813a
00000100: 2de7 e039 d11f 35bb 0b34 79b9 9d07 1fb9
00000110: c4b5 b7ba 5da1 5c3a 563e c038 106b 0739
00000120: 2074 90b9 9416 ce39 2ee1 1839 fdc9 f6b9
00000130: e78a 583a 191a cc38 bd26 83b7 ba57 cc38
00000140: bc27 6738 dc1b 00ba 2744 9cb8 4a87 1e39
00000150: de3f 0db9 5c1d 2eb9 c983 b0b7 21c7 0838
00000160: eaca f7b7 8860 94b7 1516 0eb7 bba3 a4b8
00000170: 669f 04b7 ffdd 8439 1297 8f38 6dfd 7638
00000180: ca97 9cb8 9085 3338 df5c 1b39 f3ae 49b8
00000190: cb37 af37 b3f4 6439 c10b 9438 2bdb 3137
000001a0: 9e54 df38 5802 95b8 b1ad d838 3d65 beb8
000001b0: ab4b ba38 ef25 93b8 1245 ec37 1568 8038
000001c0: 6cda 9339 0c5b e8b7 6911 11b9 79eb cf37
000001d0: 9015 1fb8 63f8 01b8 0f0f 1bb8 abf2 c5b8
000001e0: 9e6e dbb7 1984 203a b4d3 0539 ec37 8237
000001f0: 1d1d fd36 af62 8637 461b 0239 aef9 fcb7
00000200: 5302 1ab7 4cbd 3539 a92e 6738 30a3 e1b6
00000210: f50c a638 2807 be38 e642 cd38 d6b5 81b8
00000220: 487d 9038 46ee 95b8 6dc4 e3b6 f98f 5f38
00000230: 8888 9836 9a46 76b8 8ef3 e5b7 666f e237
00000240: d6bb 87b7 5a98 9135 98ec a134 2c8f 02b8
00000250: 457d 8036 8b26 6936 c1fb 8d38 85df 6237
00000260: 6a57 25b7 bf12 8937 a2f3 9c38 145d dab7
00000270: c66e 7d37 4d8d e438 be70 2138 f02b e437
00000280: 1a8d d937 b5ae 8bb8 4dea 6a38 68d7 49b8
00000290: 3182 3938 1d05 18b8 29f8 4f37 7f73 ec37
000002a0: bf97 1db9 fc5f acb8 917a c1b8 34ef 3738
000002b0: e762 e6b7 85d4 2736 7af9 b137 2b09 88b8
000002c0: 5060 dd36 5aaf a139 ecd3 2539 c7c2 5438
000002d0: 615f 70b8 0e43 5838 8289 1739 e5f5 52b8
000002e0: 771d 0838 07ef 5c39 f07d a038 3fab 6e37
000002f0: 6914 c238 a854 afb8 f1da db38 563c cab8
00000300: f214 ba38 3311 88b8 be5b e537 50ed 6e38
00000310: 06d0 41bb de7f af3b ff27 a3bb 02de 95ba
00000320: 7e43 3a3a 72e8 a9b9 e463 cb39 4d3b c03a
00000330: 0c77 4e39 02d5 7a3b 4342 bbbb a42a e839
00000340: 7076 553a 9982 47ba e780 1ebb b71d 493a
00000350: 5131 a3b9 ff15 5dbb 41de 89ba 50cf 18ba
00000360: 8dfa beba 6595 943a 31bf deba 3427 dc3a
00000370: a5c3 c5ba 89ac 6d3a 7c4a 06ba 87a9 5bba
00000380: e8be c1ba 0def 69ba f4e5 8a39 4949 8c39
00000390: 68f5 2138 eb4f c2b7 82e0 8338 bd72 1738
000003a0: 9e5b 09b8 8b44 cbb8 6494 9e36 1dc7 a2b6
000003b0: 248b e7b8 fa5e 26b8 c6cf a0b9 3540 ac38
000003c0: df8e 6a38 a856 0bb9 0ad3 83b7 52e2 deb8
000003d0: b119 5238 cfaf 7f39 476d cfb8 0447 d738
000003e0: a4d5 f8b8 e3fa ea38 18d3 13b8 24e3 b0b8
000003f0: 9020 7937 459f 9db7 23f2 a235 40dc f137
-0.00014365533 4.315374e-05 -0.00023307311 -5.1745697e-05 2.626634e-05 2.0403875e-06 1.1206296e-05 5.8132056e-05
8.454381e-06 0.00028772734 -0.00012493083 -2.4872995e-07 -5.1729672e-05 9.797835e-06 -0.00010015981 3.4841887e-05
-1.184193e-05 -0.00011723642 -3.3820932e-05 -6.2240426e-05 5.404666e-06 8.994066e-05 -5.9531238e-05 6.135193e-05
-4.5223853e-05 3.7281286e-05 -1.9243305e-05 -3.346915e-05 -0.00031698812 -0.00012475386 -3.6475685e-05 4.288603e-05
-3.1767504e-05 -1.5911372e-06 1.4444343e-05 -6.419438e-05 -2.878173e-06 0.00010007587 0.00017229715 5.9814498e-05
-7.960529e-05 8.057107e-05 0.00013731545 -4.5898876e-05 -3.0876702e-06 0.00021598367 6.301636e-05 -5.573158e-06
8.963126e-05 -2.0489284e-05 9.1525995e-05 -7.955626e-05 7.556076e-05 -8.0143065e-05 -1.1763391e-06 6.5201384e-05
-0.0015783925 -0.0019398239 0.0014551841 -0.0003610171 -3.988093e-06 -0.00016913301 -0.0001750819 0.0009918002
0.0004289685 -0.0027637372 -0.00023765878 -0.00015166258 -0.0014015962 0.0008416379 9.1668844e-05 0.00012914487
-0.0002755234 0.00039308204 0.00014579736 -0.0004707127 0.0008260444 9.732339e-05 -1.5634456e-05 9.7438184e-05
5.5111697e-05 -0.0004886964 -7.451354e-05 0.00015118453 -0.000134706 -0.0001660487 -2.1042202e-05 3.261038e-05
-2.9539184e-05 -1.7687926e-05 -8.469001e-06 -7.8506266e-05 -7.904926e-06 0.00025342402 6.8469104e-05 5.888699e-05
-7.4669326e-05 4.2801315e-05 0.00014816549 -4.808507e-05 2.0887606e-05 0.00021834932 7.059379e-05 1.0601051e-05
0.0001064923 -7.10531e-05 0.00010332035 -9.078763e-05 8.8832654e-05 -7.016572e-05 2.8165556e-05 6.1229024e-05
0.00028200762 -2.7698952e-05 -0.00013834763 2.4785973e-05 -3.7928636e-05 -3.0987325e-05 -3.6968904e-05 -9.4388924e-05
-2.6158345e-05 0.00061232 0.00012762734 1.5523248e-05 7.543377e-06 1.6019998e-05 0.00012407926 -3.0157007e-05
-9.179656e-06 0.00017332024 5.5118147e-05 -6.72452e-06 7.91791e-05 9.061239e-05 9.7876225e-05 -6.185069e-05
6.8897905e-05 -7.1492555e-05 -6.787994e-06 5.3301428e-05 4.5458473e-06 -5.8716723e-05 -2.7412341e-05 2.6993173e-05
-1.6180722e-05 1.0847682e-06 3.0160732e-07 -3.1127754e-05 3.8292806e-06 3.474214e-06 6.770297e-05 1.3522692e-05
-9.855119e-06 1.6340402e-05 7.48404e-05 -2.6030968e-05 1.5105767e-05 0.000108982065 3.849039e-05 2.7200178e-05
2.5934121e-05 -6.660578e-05 5.6008157e-05 -4.8122747e-05 4.4228687e-05 -3.6244386e-05 1.2395941e-05 2.8187174e-05
-0.00015029217 -8.2194776e-05 -9.225787e-05 4.3853375e-05 -2.7464192e-05 2.5008642e-06 2.1216216e-05 -6.486693e-05
6.5975255e-06 0.0003083896 0.00015814573 5.072614e-05 -5.7309288e-05 5.1560863e-05 0.00014451708 -5.029691e-05
3.2452368e-05 0.0002106988 7.652852e-05 1.4225777e-05 9.2544426e-05 -8.360419e-05 0.00010483515 -9.643349e-05
8.8730725e-05 -6.488189e-05 2.7341648e-05 5.6964636e-05 -0.0029573455 0.005355819 -0.004979133 -0.0011433961
0.0007105394 -0.00032407377 0.00038793602 0.001466611 0.0001969004 0.0038273935 -0.005714686 0.00044282258
0.0008142954 -0.0007610708 -0.0024185719 0.00076719694 -0.00031126526 -0.0033735035 -0.0010518507 -0.0005829232
-0.001457052 0.0011336027 -0.0016994235 0.0016796351 -0.0015088214 0.0009066542 -0.00051227934 -0.00083794486
-0.0014781626 -0.0008923866 0.0002649274 0.00026757483 3.8613944e-05 -2.3163817e-05 6.2883846e-05 3.6108064e-05
-3.274867e-05 -9.6925614e-05 4.726042e-06 -4.851156e-06 -0.00011040855 -3.9665938e-05 -0.0003067238 8.2135586e-05
5.5923007e-05 -0.00013288355 -1.571469e-05 -0.0001062794 5.009183e-05 0.00024384189 -9.890884e-05 0.000102652266
-0.00011865355 0.00011204721 -3.5244128e-05 -8.434642e-05 1.4849138e-05 -1.8790024e-05 1.2140412e-06 2.8832e-05

exp_avg_sq f4 [32, 28]
00000000: a1d6 be35 4a0f 3f35 f79f e335 83f2 fb34
00000010: c524 6d34 3c24 9634 3e5c cb33 51b5 7d35
00000020: d57b e532 118d 8d36 4c49 2b34 2344 1536
00000030: e787 8c34 5b8d 1035 6a21 9635 1443 6d35
00000040: cb32 3c36 bcb9 a636 9196 c834 b5cd 4136
00000050: cbe4 d134 0f05 ab34 edb8 0736 8730 4e35
00000060: e1dc 5335 e9ef 4436 26d1 1235 081a 6c35
00000070: 55b1 2737 963e fb36 7d00 a337 e7f0 db35
00000080: 48c8 f336 1abd 3536 b8bc 9535 39a0 c036
00000090: 31e2 0a36 2a06 b037 8e55 7936 fe94 0236
000000a0: 5e1b 4d36 c60d bc35 d8b2 7436 4bbb 3f36
000000b0: 6ca0 8137 95eb 6438 c6b7 0e35 93bf 1938
000000c0: 5934 2636 4dfc e937 c7b9 a337 52ef 6435
000000d0: fcfc 6f37 71d4 d837 f5e0 a237 ec51 3a37
000000e0: be19 ed37 c2f1 9a38 ee97 6337 82b4 4838
000000f0: 4770 6338 b6ca a736 3221 b837 39a9 c338
00000100: 142d 9036 796d 6738 4e46 0537 23d2 8a39
00000110: 5526 bf37 debb 4738 072d 5f39 9f86 2f39
00000120: dc6a 9237 da5a 043a 7c1d 9d36 aae2 b336
00000130: 7023 6337 642c 2f39 a33d b537 b86a 5d39
00000140: 8608 0d38 205d 5f38 18b5 4c36 a7cb 5837
00000150: dc98 1336 6d0c d035 66f2 2c36 bf0c de34
00000160: 30ff 9935 68f5 b134 3694 d533 63d8 6134
00000170: da74 0635 783e 6336 3003 f334 8aab 2b35
00000180: 02ee fa34 e9df bc34 cd84 3535 9647 0b36
00000190: 1889 e535 cec6 f136 04f0 3435 e17e 9036
000001a0: 1fd4 c634 b22b 6f36 1959 0136 0e93 da34
000001b0: e85b fc35 5dbf 4937 258d 1c35 9a0f 8f36
000001c0: c8bb 4637 4e70 8f36 a63b 5337 42aa ce35
000001d0: e6fd bc36 2628 be36 5a12 bc34 f9eb a835
000001e0: d494 7e36 e5fe 3337 85be 7f36 6cd6 1436
000001f0: 8efc 8c35 28ee b034 779c 5836 a787 1f36
00000200: d853 8936 8955 bd37 2878 7436 d432 b037
00000210: fdae d735 06bf 9137 16da 8a36 f9bd 3636
00000220: 9d42 0a37 d464 5735 8a1c d837 fb35 2134
00000230: 1303 8437 6a61 b336 99dc 6537 5d82 0336
00000240: 04a9 af36 f36a 3e36 20f8 5934 0343 ec35
00000250: 0983 8936 da3c 5737 1e76 2036 1a7c f135
00000260: a831 2236 2354 4836 116f dd36 9bdf 9b35
00000270: 61c1 0d36 00de a937 db29 1537 733a 9a37
00000280: 2cf9 ae35 c7a7 7b37 9cde 6e37 6e6c ac35
00000290: 34d7 2637 ceb3 5a34 697f e237 8e7c 7434
000002a0: bb87 8a37 c65c 0136 4993 c536 a86c ee34
000002b0: 32ea 0f36 c2b6 2b36 d5b6 a834 bc6f 2d36
000002c0: a8a7 df34 8609 1337 2b8e 0a36 4a4a 0036
000002d0: a481 9035 3f16 e435 acd8 6c36 98fa 0436
000002e0: e0b1 d035 99cb 8937 ceb5 0a37 0276 9037
000002f0: 2fa2 8135 6c76 6f37 9688 f337 1700 1637
00000300: 0737 0c37 14f2 6537 477e 0c37 38a1 ac36
00000310: ef97 8336 b917 0d37 6f79 d236 0ec3 0236
00000320: ab61 8e34 75a8 b334 ee4c 0d35 cc3a d035
00000330: ca3a ac34 24a0 7b36 c423 0c37 4703 0236
00000340: c18e b235 a40d a235 bbd1 5d36 c86f fb35
00000350: 281d 8635 4943 1537 4f87 1b36 e26f 7735
00000360: aa3c 6835 d465 c135 1e60 9d35 db58 ae35
00000370: 41c9 6735 8ab7 6a35 7d18 cb34 4baf 0935
00000380: 0649 7c36 397f 0b36 598b fd35 8fb8 3635
00000390: 6048 9634 c7d2 a434 2018 0d35 9229 f234
000003a0: 6d24 0b34 c4f5 2436 9bc5 8334 0758 6d35
000003b0: 623b 9a34 22c9 0c35 3441 9235 17c1 9135
000003c0: bc6b 5c36 9c5f bc36 0874 a734 dae2 8136
000003d0: aad7 ca34 3820 b635 9752 8435 236d 8b34
000003e0: 0bb6 7335 a6df e935 3e6f fb35 326e 5f35
000003f0: 1073 1437 4c37 9036 106e 6a37 dd30 ce35
1.4218568e-06 7.1175293e-07 1.6959374e-06 4.6928844e-07 2.2085722e-07 2.796604e-07 9.469703e-08 9.4513695e-07
2.6715421e-08 4.2185497e-06 1.5952281e-07 2.224239e-06 2.6175914e-07 5.384988e-07 1.1185596e-06 8.838699e-07
2.8043748e-06 4.968808e-06 3.7362454e-07 2.8878978e-06 3.9095752e-07 3.1854913e-07 2.0224209e-06 7.6811597e-07
7.8925046e-07 2.9345922e-06 5.469359e-07 8.795473e-07 9.995264e-06 7.487669e-06 1.9431342e-05 1.6386883e-06
7.26528e-06 2.7081173e-06 1.115629e-06 5.7406983e-06 2.0695263e-06 2.0983705e-05 3.715369e-06 1.9458234e-06
3.056331e-06 1.40111e-06 3.6462934e-06 2.8570237e-06 1.54527e-05 5.457884e-05 5.316655e-07 3.665646e-05
2.4766398e-06 2.7893251e-05 1.9517624e-05 8.5284876e-07 1.4304413e-05 2.5848132e-05 1.9416659e-05 1.1105538e-05
2.8264589e-05 7.388323e-05 1.3565628e-05 4.7851827e-05 5.4225584e-05 5.0005865e-06 2.1949967e-05 9.329845e-05
4.296782e-06 5.5176646e-05 7.943787e-06 0.00026477975 2.2786824e-05 4.7620262e-05 0.00021283711 0.00016739451
1.7454317e-05 0.00050489383 4.682397e-06 5.361003e-06 1.3538505e-05 0.00016705837 2.1605583e-05 0.00021115958
3.3624958e-05 5.3254073e-05 3.050378e-06 1.292202e-05 2.1993683e-06 1.5500824e-06 2.5771092e-06 4.1359996e-07
1.1473658e-06 3.3147376e-07 9.945545e-08 2.1033479e-07 5.008893e-07 3.3861998e-06 4.5264596e-07 6.3952086e-07
4.6739302e-07 3.5180645e-07 6.7621005e-07 2.0754283e-06 1.7101729e-06 7.2055036e-06 6.7404494e-07 4.306305e-06
3.7034712e-07 3.563921e-06 1.927436e-06 4.071266e-07 1.8802211e-06 1.2025089e-05 5.831992e-07 4.2635484e-06
1.1845441e-05 4.274806e-06 1.2590468e-05 1.5397748e-06 5.6323943e-06 5.667115e-06 3.503108e-07 1.2585652e-06
3.7935579e-06 1.0728579e-05 3.8108858e-06 2.2178529e-06 1.0504316e-06 3.2955836e-07 3.2277583e-06 2.3771806e-06
4.092679e-06 2.2570386e-05 3.6428773e-06 2.1004504e-05 1.6069677e-06 1.73743e-05 4.138109e-06 2.7230692e-06
8.240951e-06 8.0240466e-07 2.5762496e-05 1.5013931e-07 1.5737058e-05 5.345956e-06 1.3700826e-05 1.9596403e-06
5.2350824e-06 2.837446e-06 2.0299967e-07 1.7602873e-06 4.0981727e-06 1.2829167e-05 2.3910611e-06 1.7992018e-06
2.4168785e-06 2.9851296e-06 6.599243e-06 1.1613478e-06 2.1123199e-06 2.0249747e-05 8.890837e-06 1.8385448e-05
1.3036529e-06 1.499983e-05 1.4237736e-05 1.2846556e-06 9.944477e-06 2.0368245e-07 2.700063e-05 2.2769584e-07
1.6514086e-05 1.92765e-06 5.8882038e-06 4.4410012e-07 2.144498e-06 2.5587365e-06 3.1425466e-07 2.5844047e-06
4.1658973e-07 8.7641e-06 2.0646355e-06 1.9116728e-06 1.0766566e-06 1.6993798e-06 3.529286e-06 1.9815398e-06
1.5548976e-06 1.642648e-05 8.267771e-06 1.722109e-05 9.658451e-07 1.4273082e-05 2.903146e-05 8.940718e-06
8.357462e-06 1.3705827e-05 8.3740515e-06 5.144768e-06 3.9217916e-06 8.409778e-06 6.2726244e-06 1.9485046e-06
2.6520624e-07 3.3463917e-07 5.263854e-07 1.551432e-06 3.208027e-07 3.7495129e-06 8.352978e-06 1.9373417e-06
1.330358e-06 1.207391e-06 3.3053645e-06 1.873349e-06 9.992264e-07 8.896758e-06 2.317556e-06 9.217748e-07
8.651501e-07 1.4409256e-06 1.1725385e-06 1.2989871e-06 8.634707e-07 8.743888e-07 3.7829514e-07 5.129156e-07
3.7593431e-06 2.0786667e-06 1.8890524e-06 6.806885e-07 2.7992337e-07 3.070074e-07 5.25617e-07 4.510626e-07
1.2958635e-07 2.4580959e-06 2.4544428e-07 8.8417477e-07 2.8727942e-07 5.244675e-07 1.0896824e-06 1.0859538e-06
3.2845264e-06 5.613967e-06 3.1190598e-07 3.8709086e-06 3.7782348e-07 1.3569434e-06 9.858803e-07 2.5970175e-07
9.078946e-07 1.7424943e-06 1.8733333e-06 8.323433e-07 8.8482775e-06 4.297972e-06 1.3973113e-05 1.5362417e-06

exp_avg f4 [32]
00000000: 817a 8a38 711c c4b8 7266 0eb9 c92b cfb8
00000010: ff5a 89b8 05b5 58b8 4b69 d4b8 63d7 d83a
00000020: 0dd8 0c39 5a94 1bb8 3206 2f39 ecc6 ef38
00000030: 712f 1036 6627 d538 3c2b 553a 8b68 9fb7
00000040: 2a54 2eb8 8e85 203a eed8 803a e789 9fb7
00000050: 4720 7138 da41 afb8 9d27 3739 27bd 89b8
00000060: 6d86 34b8 72d9 2138 aed8 f137 1485 ae39
00000070: e3b9 c0b8 4b73 f1b7 97d0 0938 83c6 6739
6.603171e-05 -9.351306e-05 -0.00013580339 -9.878685e-05 -6.5496184e-05 -5.1667e-05 -0.0001012856 0.0016543682
0.00013431926 -3.7093043e-05 0.00016691608 0.0001143346 2.1485287e-06 0.0001016397 0.00081317476 -1.9002959e-05
-4.1563217e-05 0.0006123417 0.0009830275 -1.9018493e-05 5.748894e-05 -8.356916e-05 0.00017466997 -6.5679014e-05
-4.3040538e-05 3.8587903e-05 2.8830338e-05 0.00033287017 -9.1898975e-05 -2.8783126e-05 3.285761e-05 0.00022103828

exp_avg_sq f4 [32]
00000000: ebaa bc36 c485 8838 f02f 1939 078e 0f37
00000010: 545f 2038 63d0 3838 910d 1538 dcd1 9636
00000020: c65a ca36 95f8 ee37 b0b8 8936 2ec1 9537
00000030: 249e bd36 b0fd 8636 ab44 9337 d94c c037
00000040: 61da 5a36 2d12 fa37 a367 9936 eff2 6436
00000050: 23e7 8336 a83d 2338 da37 e836 eafe 6737
00000060: fe03 5438 6389 f737 79d5 cd37 2d81 9836
00000070: fb47 4537 0b17 1b37 5ce3 6436 5dd5 1037
5.622734e-06 6.509901e-05 0.00014609075 8.5565325e-06 3.8235754e-05 4.4063094e-05 3.5537003e-05 4.494779e-06
6.0306365e-06 2.8487566e-05 4.1044186e-06 1.785214e-05 5.651049e-06 4.0230443e-06 1.7555742e-05 2.2923969e-05
3.2611645e-06 2.9810786e-05 4.57182e-06 3.4116053e-06 3.931012e-06 3.891965e-05 6.9206408e-06 1.3828025e-05
5.0548457e-05 2.950867e-05 2.453731e-05 4.544991e-06 1.1758874e-05 9.244085e-06 3.4106988e-06 8.632746e-06

exp_avg f4 [16, 32]
00000000: 5427 5237 3eda be38 98b7 1a3a aaf2 30b6
00000010: 5848 0db7 f687 2fb7 8c81 4db7 f475 5e38
00000020: bba8 5b39 2e41 b3b7 6fdb 5ab9 ced0 62b7
00000030: aceb 68b7 9eff d0b8 33cc 81b8 7caa 6c37
00000040: d312 c2b3 fd14 9e3a 2586 813a 9b5b 94b7
00000050: 9c81 6336 af8a 28b8 038e 5439 0735 20b7
00000060: 6c58 4036 fd20 40b7 9c01 40b6 5abb 5138
00000070: fda8 91b5 3499 b0b7 f7e4 4fb7 c5ec 8939
00000080: 12cd 1cb9 fb6b 33b9 bf82 363b 4377 42b9
00000090: 9980 06b9 9b41 5cb9 6d3d 5eb9 fc63 e23a
000000a0: 54b6 a5b9 9c8f 68b9 399f 38b8 3d37 3eb9
000000b0: c0b6 80b9 628a 4fb9 c9eb ceb9 a160 79b9
000000c0: bb03 0bb9 e93f 9fba 8397 69b9 517a 89b9
000000d0: 7c92 43b9 a9b5 45b9 b46e deb9 de47 81b9
000000e0: eb69 84b9 d34d abb9 63bb 40b9 044d d2b6
000000f0: c6b6 2db9 5968 7db9 d275 26b9 82da ffb8
00000100: 368e 3e36 a404 2936 c83f eb39 c5ce 47b7
00000110: fa2e c2b7 bfad 5bb7 af23 3db7 1ea9 1d37
00000120: eaae ffb7 7090 44b7 f689 3bb7 78b4 1ab7
00000130: a71c 58b6 c482 de36 3da7 c238 4695 9735
00000140: 98e0 deb6 616d 9f39 6201 5b3a 8e34 41b7
00000150: 6d50 a2b6 9acd 19b7 66f5 97b7 19f4 1fb7
00000160: 34f9 69b7 a33c a9b7 dcc8 c8b6 0d6b 38b6
00000170: ffec 9a34 b07e 55b7 8f42 2fb7 39f0 c938
00000180: eef9 0bb9 2b96 9bb8 9e16 ea39 cc47 eeb8
00000190: 301e 10b9 f5ff 06b9 745d 01b9 6890 c9b8
000001a0: 02c7 f3b8 0d85 d9b8 f2a1 5bb9 060e 6cb8
000001b0: 7a82 d5b8 e36d dfb8 6b51 f3b8 b1c3 9cb8
000001c0: fbe7 ddb8 00e5 783a 1f19 75b9 9ee0 4ab9
000001d0: fd96 04b9 5ae4 dcb8 d4e6 eeb8 777e b7b8
000001e0: c562 49b9 b9ae 96b9 def0 e4b8 a34c c7b8
000001f0: 0995 75b8 d772 d7b8 fbbf 71b9 bfae 14b9
00000200: bf2c 15b8 626b 11b8 c4b7 083a 095a aeb8
00000210: 6bd1 0eb9 1217 a2b8 4d4f b1b8 a79d 31b8
00000220: dd20 bdb8 1576 b2b8 e1a4 72b9 dfae 85b8
00000230: 0dbc d5b8 2030 c6b8 3491 9c38 156b b9b8
00000240: f7fc 96b8 7583 883a 095f 94b9 bb13 cdb8
00000250: fcbf 86b8 04b4 c1b8 0551 a3b8 d3af 9eb8
00000260: ccfa b5b8 b640 a7b8 23f2 54b8 b377 cfb8
00000270: d538 72b8 58f2 a8b8 18bd e0b8 02a9 1ab9
00000280: 05e1 3bb5 c898 a138 33d5 633a 1456 1eb7
00000290: b010 33b7 9ff9 19b7 dad1 2db7 05c7 d935
000002a0: 4287 11b9 8d42 32b7 1617 78b9 f20b 4238
000002b0: 3300 07b7 bf2e 0ab9 1671 ddb6 49e4 82b6
000002c0: d6ac cbb6 1ef0 d939 7196 153a 8f08 76b7
000002d0: a3ed c0b6 d7c8 44b7 760e 78b8 45a4 11b7
000002e0: 8404 8cb6 40e2 9cb7 b5bf 7eb6 42d8 e2b8
000002f0: f186 9735 c057 8eb7 a33e 23b7 6552 2b38
00000300: 3c8a 02b7 17ae d2b6 b1d7 f5b9 a6bb 9d37
00000310: f444 f737 56db 1637 7701 2937 1984 38b6
00000320: e4db 9339 5c62 9d37 1634 3339 2460 5937
00000330: a043 1737 5aaf ee38 9e0e 2038 b99c db36
00000340: c7cd 8637 3670 b3b9 a79a 0fba 2d79 4637
00000350: 1604 d933 4a23 b137 3b0b 4a38 6fb7 8636
00000360: b856 3437 9c30 5837 b465 bbb5 ddb6 c838
00000370: 0ed9 69b6 944a 7837 5015 e736 bae0 0bb9
00000380: 9671 0437 d628 e9b6 18c5 a139 fdad 9ab7
00000390: 8dd4 08b8 768b afb7 165f b1b7 4983 15b7
000003a0: f513 5037 5d91 a5b7 952e ae39 d04e b2b7
000003b0: 94d3 a6b7 64cd 17b8 103b 3ab8 134f 81b7
000003c0: 117d 50b7 a344 9739 cffe b63a abb7 0db8
000003d0: 212b e7b6 98a9 c7b7 7a2a e2b7 4eac 89b7
000003e0: 2659 05b8 93a1 47b8 763f d6b6 9919 15b8
000003f0: 6933 ad36 09e6 17b8 7156 9ab7 511a d139
1.2526132e-05 9.100557e-05 0.00059019914 -2.6367293e-06 -8.421099e-06 -1.0462469e-05 -1.2249115e-05 5.3038777e-05
0.00020948325 -2.1368814e-05 -0.00020871845 -1.3519266e-05 -1.3883149e-05 -9.965825e-05 -6.1892344e-05 1.410639e-05
-9.037253e-08 0.0012060698 0.0009881897 -1.7685632e-05 3.3901078e-06 -4.018348e-05 0.00020270799 -9.54909e-06
2.8661698e-06 -1.14517725e-05 -2.8611166e-06 5.0003968e-05 -1.0852524e-06 -2.1052176e-05 -1.23914715e-05 0.00026307083
-0.00014953714 -0.00017110996 0.0027848927 -0.0001854571 -0.00012827142 -0.00021005275 -0.00021194453 0.0017272229
-0.00031607097 -0.00022178743 -4.4017306e-05 -0.0001814039 -0.00024550222 -0.0001979261 -0.00039467055 -0.00023782488
-0.00013257463 -0.0012149784 -0.00022277054 -0.0002622181 -0.00018651219 -0.00018855058 -0.0004242562 -0.00024658343
-0.00025255917 -0.00032673645 -0.00018380354 -6.2674535e-06 -0.00016566654 -0.00024166833 -0.00015874885 -0.00012200048
2.8394984e-06 2.5185664e-06 0.00044870214 -1.1909467e-05 -2.3148477e-05 -1.3093871e-05 -1.1273586e-05 9.397305e-06
-3.047982e-05 -1.171614e-05 -1.117819e-05 -9.221134e-06 -3.2203186e-06 6.6313387e-06 9.2817914e-05 1.1293821e-06
-6.6422617e-06 0.00030408337 0.0008354393 -1.1515933e-05 -4.837339e-06 -9.167381e-06 -1.8114875e-05 -9.533972e-06
-1.3945904e-05 -2.0174606e-05 -5.9838476e-06 -2.7480448e-06 2.8857173e-07 -1.2725286e-05 -1.044631e-05 9.629172e-05
-0.00013349179 -7.418947e-05 0.0004464881 -0.000113620976 -0.00013744156 -0.00012874587 -0.00012337213 -9.611325e-05
-0.00011624211 -0.00010372149 -0.00020945797 -5.6279845e-05 -0.000101809346 -0.000106539366 -0.00011602308 -7.47511e-05
-0.00010581311 0.0009494573 -0.00023374379 -0.00019347898 -0.00012644748 -0.00010532951 -0.000113917195 -8.749676e-05
-0.00019205648 -0.00028740408 -0.00010916752 -9.503334e-05 -5.855135e-05 -0.000102733895 -0.0002305507 -0.00014179478
-3.556604e-05 -3.4670702e-05 0.00052153715 -8.313737e-05 -0.0001362019 -7.729059e-05 -8.4547886e-05 -4.2346914e-05
-9.0183436e-05 -8.509696e-05 -0.0002314034 -6.3745065e-05 -0.00010191659 -9.45034e-05 7.465706e-05 -8.841433e-05
-7.199676e-05 0.0010415154 -0.00028299566 -9.778837e-05 -6.425378e-05 -9.236488e-05 -7.787537e-05 -7.566777e-05
-8.677467e-05 -7.975234e-05 -5.0770246e-05 -9.892825e-05 -5.7750225e-05 -8.056004e-05 -0.00010716374 -0.00014749545
-6.9990375e-07 7.705536e-05 0.0008691132 -9.4375755e-06 -1.0673117e-05 -9.17763e-06 -1.0360463e-05 1.6225682e-06
-0.00013878665 -1.0625122e-05 -0.00023659723 4.626433e-05 -8.046673e-06 -0.0001317812 -6.599478e-06 -3.900878e-06
-6.069992e-06 0.00041568367 0.00057063164 -1.4664735e-05 -5.7497105e-06 -1.1729272e-05 -5.9141275e-05 -8.6809205e-06
-4.172851e-06 -1.8702005e-05 -3.7960538e-06 -0.00010816801 1.128965e-06 -1.696858e-05 -9.730141e-06 4.0846313e-05
-7.780789e-06 -6.2787544e-06 -0.00046890744 1.8803239e-05 2.9476803e-05 8.991765e-06 1.0073526e-05 -2.7495028e-06
0.00028201856 1.876166e-05 0.00017090174 1.2956592e-05 9.0160465e-06 0.00011381386 3.8160586e-05 6.5449535e-06
1.6069867e-05 -0.00034225144 -0.0005478062 1.1829933e-05 1.0105593e-07 2.1116477e-05 4.8171012e-05 4.0148657e-06
1.0749027e-05 1.2885921e-05 -1.3962185e-06 9.570804e-05 -3.4846048e-06 1.4799316e-05 6.8868176e-06 -0.0001333979
7.894259e-06 -6.948695e-06 0.0003085516 -1.843925e-05 -3.262288e-05 -2.0926567e-05 -2.1144322e-05 -8.911659e-06
1.2402413e-05 -1.9737223e-05 0.00033222573 -2.1255953e-05 -1.9887266e-05 -3.619249e-05 -4.4400862e-05 -1.541482e-05
-1.2426885e-05 0.00028852103 0.0013961437 -3.3788074e-05 -6.8893573e-06 -2.3801622e-05 -2.696108e-05 -1.6411908e-05
-3.1792697e-05 -4.7595775e-05 -6.385085e-06 -3.5548208e-05 5.1617867e-06 -3.6215442e-05 -1.8398483e-05 0.00039883194

exp_avg_sq f4 [16, 32]
00000000: 017b c235 1263 5335 ef42 5d3b 0dbd cd34
00000010: e633 a334 7536 ce34 ef57 8334 31cf b235
00000020: 75e0 b835 b6c6 3635 8869 bb35 b3a6 d535
00000030: 5de8 b135 61ba 1f35 e691 c734 844e 9334
00000040: 816f 2b35 fec4 5036 fd23 3136 14eb 6535
00000050: 3666 f335 e9cd 3035 3f42 6735 02fa be34
00000060: 3833 1b34 017e 6a35 478c 3c36 ac7b e135
00000070: caa9 6e34 ed51 1735 49b4 4635 2c69 d034
00000080: 3138 8134 a8fc 4139 a29c 4c36 e148 8438
00000090: 67af 8d38 3aae 8938 7d13 9838 7c7a af35
000000a0: f5a6 e935 85d7 1337 95ee 3e37 c569 ed34
000000b0: f35d e534 f731 4f35 a570 b938 ebad a738
000000c0: e8ad 9035 558b 1c37 2874 0c38 7510 7834
000000d0: 523a 0834 3a06 4238 0c28 2f35 ac53 2538
000000e0: dd57 e935 52e7 c834 8986 3935 3e7b 7134
000000f0: 0ae6 a039 b58b 8836 50d7 a433 0d6c 2839
00000100: 4164 6634 6ad6 bf34 7b48 9337 df28 8c34
00000110: e69f 6534 860b 2334 1af3 ab34 9216 e034
00000120: c046 e933 8c55 0e34 aeaa 4035 6141 3634
00000130: e29e d035 7608 4233 e485 6e34 c37b d834
00000140: c091 b135 181a 3f35 3987 3a35 cd5e 3a35
00000150: eaa6 c232 0e16 2035 7af4 1835 461f d733
00000160: 3f94 4e34 8677 1f36 41b6 0933 2c8a 2c34
00000170: cbdd ba34 c91c 0734 46aa c033 5c63 da34
00000180: 696e d835 154a 1b36 5c04 eb35 ab3f 4d35
00000190: 1f1b 4135 9c6d ed34 1380 1036 02a6 7236
000001a0: 3ef8 2c36 fe99 fa34 93d6 0436 c00c a934
000001b0: 7739 f435 06f4 a435 55c9 a234 2f06 9c36
000001c0: 4b70 9d35 36a8 2436 4d78 4c35 c311 fb35
000001d0: 863a 9734 3851 a535 f967 a635 9a5f c935
000001e0: 3fd4 2b35 6e40 d235 2bec 2535 93ed a935
000001f0: fe6a 7135 6f9c 7e35 d5ec 8235 dc9a 3f35
00000200: e628 9a36 5cca 8b36 333b 9e36 c832 3936
00000210: 606e b435 ec7e 1a35 2216 4c35 0702 1f37
00000220: b535 ba36 0171 a135 3fec 1f37 6dee 9035
00000230: d6b1 b135 0680 4936 b6a8 d634 dccc 1737
00000240: 00fa 5f36 6b22 6f36 9337 b735 649e 9436
00000250: 135f f534 fac3 d536 1cda 7636 6430 3136
00000260: 6008 2635 7b4f 2536 9497 4c35 5629 6836
00000270: 300e 0136 c90a 7b35 03f0 7f35 4ecc 8c35
00000280: d1e3 2835 fe59 1b35 1e78 653b 9b78 b034
00000290: abac d734 6765 6b34 df46 f334 a9b6 cc34
000002a0: ddc6 7035 7ad8 8c34 0c22 d234 f545 0c35
000002b0: d7d4 2435 b8a8 3e34 0f67 5537 5939 c034
000002c0: b82c 6334 386c d234 6495 b835 9d25 8635
000002d0: 1b22 5835 e0a1 4434 4696 b634 c991 1b35
000002e0: 17ad c735 4380 5b34 6256 9d35 d396 3f35
000002f0: 3c54 1635 0e96 2235 c83c 4b35 7bf8 4e34
00000300: 4bd3 6e34 e63c e138 7a69 8438 6709 1538
00000310: a988 4a38 5af8 2838 ffa0 2938 3d0c 4637
00000320: 2e5a e335 e1c0 b136 a096 ef36 48e6 c237
00000330: 5294 8535 f1dc fc34 72e4 5338 c419 5538
00000340: 3fb2 4035 3021 ac35 d4db c137 5a16 8434
00000350: 32ef a535 26b4 e237 73ce be34 648a aa37
00000360: 7e4a f738 7c82 0635 ecfc 3335 816a 6e35
00000370: 8077 4039 08e9 4e36 47ec f233 faf3 c338
00000380: f925 fa33 a2d6 9a33 a815 a638 78df 3833
00000390: 7b1b 5d33 3d01 8e33 df5f a433 309c f633
000003a0: 3a11 2734 a119 6333 16ad 8334 9a2d 1233
000003b0: 7802 5833 f954 a833 9485 0133 37f8 b334
000003c0: f8e3 e832 7f37 9834 52af d735 339c 7133
000003d0: 3a0d eb32 7b88 2d33 e6d5 ad33 c739 8333
000003e0: 27d7 8e33 123c 8d33 744d 9e33 9ed5 a733
000003f0: ea28 e932 3167 1433 343a 0333 8f2c 1634
1.4489925e-06 7.874779e-07 0.003376182 3.8321778e-07 3.0398877e-07 3.8410113e-07 2.4464632e-07 1.3322334e-06
1.3774394e-06 6.8089446e-07 1.3963299e-06 1.5918253e-06 1.3255154e-06 5.950333e-07 3.7172794e-07 2.743801e-07
6.3864724e-07 3.110908e-06 2.6396003e-06 8.565123e-07 1.8134658e-06 6.586475e-07 8.6150607e-07 3.5572162e-07
1.4454133e-07 8.735515e-07 2.8095835e-06 1.67998e-06 2.2227246e-07 5.63711e-07 7.40231e-07 3.8819542e-07
2.4069007e-07 0.00018500036 3.048954e-06 6.307825e-05 6.756075e-05 6.565121e-05 7.251555e-05 1.3074164e-06
1.7408444e-06 8.812062e-06 1.1380432e-05 4.4221647e-07 4.272293e-07 7.718622e-07 8.842469e-05 7.995575e-05
1.077945e-06 9.330765e-06 3.348678e-05 2.3102787e-07 1.2687204e-07 4.6259003e-05 6.5250856e-07 3.941699e-05
1.7385424e-06 3.742121e-07 6.9113645e-07 2.248971e-07 0.0003068897 4.06938e-06 7.67601e-08 0.0001606198
2.1456891e-07 3.573253e-07 1.7557517e-05 2.610677e-07 2.1385458e-07 1.518475e-07 3.2028112e-07 4.1739673e-07
1.0862777e-07 1.3255902e-07 7.1773945e-07 1.6973856e-07 1.5543449e-06 4.517684e-08 2.2214186e-07 4.0323184e-07
1.3229946e-06 7.1191016e-07 6.9487174e-07 6.9428353e-07 2.2660476e-08 5.963674e-07 5.698017e-07 1.0017406e-07
1.9239177e-07 2.3762418e-06 3.2063557e-08 1.6069015e-07 3.4806575e-07 1.2583327e-07 8.971669e-08 4.0677958e-07
1.6125388e-06 2.3139921e-06 1.7510133e-06 7.64611e-07 7.193757e-07 4.422444e-07 2.153222e-06 3.615744e-06
2.5774493e-06 4.6678173e-07 1.9794431e-06 3.148798e-07 1.8196141e-06 1.2289972e-06 3.032134e-07 4.649882e-06
1.1730093e-06 2.4535816e-06 7.617098e-07 1.8706127e-06 2.8168523e-07 1.2317096e-06 1.2398224e-06 1.5003491e-06
6.401132e-07 1.5664971e-06 6.181096e-07 1.2660624e-06 8.993519e-07 9.4850014e-07 9.754682e-07 7.1378395e-07
4.594319e-06 4.1660805e-06 4.7156586e-06 2.7596707e-06 1.3443168e-06 5.7554166e-07 7.602813e-07 9.477611e-06
5.5494843e-06 1.2028323e-06 9.532144e-06 1.0798227e-06 1.3239285e-06 3.0025853e-06 3.998336e-07 9.047999e-06
3.3375109e-06 3.563381e-06 1.3650737e-06 4.429183e-06 4.5703982e-07 6.3707093e-06 3.6783813e-06 2.6403222e-06
6.1852006e-07 2.463318e-06 7.62165e-07 3.4594755e-06 1.9230756e-06 9.352048e-07 9.5344166e-07 1.0490273e-06
6.2916394e-07 5.7872955e-07 0.0035014222 3.2870307e-07 4.0172503e-07 2.192297e-07 4.5313843e-07 3.8130864e-07
8.969635e-07 2.623454e-07 3.914032e-07 5.2255865e-07 6.1404484e-07 1.7756508e-07 1.27197845e-05 3.5804513e-07
2.1157291e-07 3.9194288e-07 1.3752547e-06 9.994725e-07 8.05159e-07 1.8312812e-07 3.400948e-07 5.7954145e-07
1.4877031e-06 2.0442626e-07 1.1722552e-06 7.137252e-07 5.600193e-07 6.056806e-07 7.571184e-07 1.9275642e-07
2.2242345e-07 0.00010740179 6.313897e-05 3.5533125e-05 4.8287828e-05 4.0285617e-05 4.044268e-05 1.1804569e-05
1.6939064e-06 5.297465e-06 7.14029e-06 2.3233835e-05 9.952439e-07 4.7099414e-07 5.0519076e-05 5.0807153e-05
7.1784956e-07 1.2824657e-06 2.3109758e-05 2.460318e-07 1.2363073e-06 2.7025188e-05 3.554047e-07 2.0330022e-05
0.00011791753 5.010877e-07 6.7050746e-07 8.881689e-07 0.00018355064 3.0832034e-06 1.1311982e-07 9.343769e-05
1.16484394e-07 7.210225e-08 7.9195306e-05 4.3044082e-08 5.1480566e-08 6.6126155e-08 7.654284e-08 1.1483678e-07
1.5559354e-07 5.2875865e-08 2.4526588e-07 3.403475e-08 5.0293664e-08 7.838566e-08 3.015664e-08 3.3521948e-07
2.7112023e-08 2.8352585e-07 1.6069773e-06 5.6254247e-08 2.7363615e-08 4.040383e-08 8.094848e-08 6.1106725e-08
6.651526e-08 6.576751e-08 7.371537e-08 7.8154e-08 2.7143376e-08 3.4552787e-08 3.055375e-08 1.3986049e-07

exp_avg f4 [16]
00000000: de3e c938 8ea8 9b3a 2d12 0039 5793 4b3a
00000010: 69c7 c939 887c ba38 de18 1bb8 1899 4739
00000020: 947b be39 4687 b53a cc1f 90ba b21c b439
00000030: cf8b 893a 3276 b639 14ab 9b3a 6505 cc38
9.596137e-05 0.0011875795 0.00012213802 0.0007765791 0.0003848628 8.892367e-05 -3.697804e-05 0.00019035151
0.00036331697 0.0013849519 -0.0010995804 0.00034353655 0.0010493937 0.00034801807 0.0011876547 9.728483e-05

exp_avg_sq f4 [16]
00000000: 2f10 f438 9a34 8c38 933b ee37 6308 1f38
00000010: 3358 5138 63a3 5638 f427 c738 5680 8a37
00000020: c0e6 0a39 63b7 ea38 9cdf 9339 e959 9c36
00000030: 19fe 2a39 b47c 5538 2d01 8d38 63e3 1338
0.00011637841 6.685518e-05 2.8399552e-05 3.7916365e-05 4.9911625e-05 5.117374e-05 9.496501e-05 1.6510643e-05
0.00013246667 0.00011192148 0.00028204627 4.659629e-06 0.00016307122 5.0899296e-05 6.723623e-05 3.52593e-05

exp_avg f4 [5, 3]
00000000: 0000 0000 0000 0000 0000 0000 16e1 9a3a
00000010: 435b a13a be2b b539 8330 3dba 1a5b 2bba
00000020: a2c3 38b9 8587 b63a f41f 183a ee4f 1db9
00000030: 50ff 1d3b b6fa cf3a 8c4a b03a
0.0 0.0 0.0 0.0011816348 0.0012310523 0.000345556 -0.00072170066 -0.00065367075
-0.00017620486 0.0013925886 0.0005803101 -0.00015002463 0.0024108477 0.0015867564 0.0013449951

exp_avg_sq f4 [5, 3]
00000000: 0000 0000 0000 0000 0000 0000 62aa 0f38
00000010: 4ff9 c337 f65b 9f37 e1e5 7b38 6644 4538
00000020: e640 6438 348d 1f38 0d04 c637 6b63 c537
00000030: 7887 f437 7531 0c38 774f d837
0.0 0.0 0.0 3.4252538e-05 2.3361905e-05 1.89971e-05 6.0057155e-05 4.703216e-05
5.4419877e-05 3.804006e-05 2.3605326e-05 2.3530525e-05 2.915015e-05 3.342466e-05 2.578621e-05

exp_avg f4 [5, 3]
00000000: 0000 0000 0000 0000 0000 0000 6206 d4b8
00000010: e3d3 c93a 90de f4ba 5ea7 d73a 0b76 17ba
00000020: 3003 73b9 b0db 7a3a 2ad9 1d3b e908 d4ba
00000030: 953f 9e3a 9fd0 f33a b123 ddba
0.0 0.0 0.0 -0.00010110137 0.001539823 -0.0018682051 0.0016453078 -0.00057777826
-0.00023175473 0.0009569479 0.0024085739 -0.0016176972 0.0012073392 0.0018601603 -0.0016871599

exp_avg_sq f4 [5, 3]
00000000: 0000 0000 0000 0000 0000 0000 e320 2738
00000010: 2605 c337 d2f8 0938 a05c 6e38 9a37 1138
00000020: e6c3 0538 548b 6b38 c38d fe37 465e 1338
00000030: 8f06 a138 d7f6 3238 c9a3 bd38
0.0 0.0 0.0 3.984653e-05 2.3248209e-05 3.2895077e-05 5.6829886e-05 3.4622477e-05
3.1892116e-05 5.6158126e-05 3.0345172e-05 3.513533e-05 7.6783e-05 4.2668395e-05 9.04273e-05

exp_avg f4 [5, 3]
00000000: 0000 0000 0000 0000 0000 0000 f3c2 4837
00000010: 87c7 123a 8bc7 57b9 6fd0 de3a 19ce 4ab9
00000020: c5fc 833a 1254 fa3a 70b9 bbba fd38 b53a
00000030: 00d5 7bba 7da5 003a 94e7 f3b9
0.0 0.0 0.0 1.1966319e-05 0.000559919 -0.00020578333 0.0016999374 -0.00019340999
0.0010069838 0.0019098541 -0.0014322232 0.0013826188 -0.00096066296 0.0004907472 -0.0004652111

exp_avg_sq f4 [5, 3]
00000000: 0000 0000 0000 0000 0000 0000 ecec 1838
00000010: 79ee 3837 6124 5338 87d6 3e38 6a1f 7c37
00000020: e8ba 7938 9e6c 2738 fe3b 8937 49e3 6a38
00000030: cc75 2638 dfa7 8e37 f0dd 5438
0.0 0.0 0.0 3.6460275e-05 1.1022778e-05 5.03402e-05 4.5499324e-05 1.5027685e-05
5.9540296e-05 3.991706e-05 1.6359609e-05 5.6001623e-05 3.968719e-05 1.700589e-05 5.0751434e-05

exp_avg f4 [5, 3]
00000000: 0000 0000 0000 0000 0000 0000 5097 a538
00000010: 4766 883a fad0 a438 df43 9038 4c84 053a
00000020: 2a60 a6b9 5c97 a238 2164 223a accc 62ba
00000030: 2350 ea39 59e3 333a 11c6 5239
0.0 0.0 0.0 7.895997e-05 0.0010406458 7.859054e-05 6.879097e-05 0.0005093261
-0.00031733635 7.752955e-05 0.000619473 -0.00086517143 0.00044691665 0.00068621855 0.00020100946

exp_avg_sq f4 [5, 3]
00000000: 0000 0000 0000 0000 0000 0000 d37a 4037
00000010: 351b 6c38 0add 1937 4eb6 8137 90fb 8038
00000020: 91d0 1137 8fa7 c237 005d 7538 5ac2 c437
00000030: b711 a337 3aa3 1738 c985 8a37
0.0 0.0 0.0 1.1472689e-05 5.6292123e-05 9.170975e-06 1.546289e-05 6.150373e-05
8.691234e-06 2.3204628e-05 5.8499165e-05 2.3455523e-05 1.9439363e-05 3.6153222e-05 1.651318e-05

exp_avg f4 [16]
00000000: 3cf3 0ab7 2b38 0ebc 3cb0 62bb 0f42 c53a
00000010: 581b 1b3b a9a3 5bba 92c0 49bc be37 e0ba
00000020: ccec acb9 30d1 063b 9db2 fc3b 1ef3 03ba
00000030: f3a4 4e3b fd5f 393a 6848 caba 0960 f03a
-8.282073e-06 -0.008680384 -0.0034589907 0.0015049594 0.0023667421 -0.0008378574 -0.012313979 -0.0017106456
-0.00032982824 0.0020571463 0.007711722 -0.00050334807 0.0031531423 0.00070714933 -0.0015432956 0.0018339168
