vertex-custom-ml/pytorch/custom_jobs/pytorch_tabular/training/tabular_random_model/model.ckpt (torch, 57862 bytes, 38 tensors)

_backbone.linear_layers.0.weight f4 [32, 28]
0	0x3f475b68	0.7787385
1	0x3faccdf0	1.3500347
2	0x400374ef	2.054012
3	0x3f5a41a3	0.85256404
4	0x3e84253b	0.25809655
5	0xbef390f3	-0.47571525
6	0xbffb0af2	-1.9612715
7	0x3e65f9d3	0.22458582
8	0x3e81944f	0.25308463
9	0xbec34099	-0.38135222
10	0xbf4c1013	-0.7971203
11	0x3f825f4d	1.0185333
12	0x3f3f0c29	0.7462793
13	0x3f34e518	0.7066207
14	0xbe1b2bcc	-0.15153426
15	0xbc4af530	-0.012387559
16	0x3f91a83d	1.1379467
17	0x3fd49016	1.6606472
18	0x3f37a7bd	0.71740323
19	0x3fc21033	1.5161194
20	0x3f6e9438	0.93194914
21	0xbfec4f79	-1.8461753
22	0x3f7565f1	0.95858675
23	0x3e6cbdcd	0.23119278
24	0x3fc48a6e	1.5354745
25	0xbf978eb6	-1.1840427
26	0x3f6896d5	0.9085515
27	0x3ee10622	0.4394999
28	0x3feeda02	1.8660281
29	0xbe8ac7e7	-0.27105638
30	0xbfa26a68	-1.2688723
31	0x3fb68ba3	1.4261364
32	0x3f045c0a	0.5170294
33	0xbfc73cfb	-1.5565485
34	0xbf9e7c70	-1.2381725
35	0xbf44de3f	-0.7690162
36	0xbfbff1b8	-1.4995642
37	0xbf891092	-1.0708182
38	0x3f58f2fd	0.8474577
39	0xbe77e9b3	-0.24210243
40	0xbf321c71	-0.6957465
41	0x3fecd073	1.8501114
42	0x3fa91ed6	1.3212535
43	0xbfd84a70	-1.6897717
44	0x3f13a459	0.5767265
45	0x3f372865	0.7154601
46	0x3f38bb19	0.7216049
47	0x3f02c55f	0.51082414
48	0x3f502927	0.81312793
49	0xbf675c72	-0.90375435
50	0x3f48e337	0.784717
51	0x3f451734	0.7698853
52	0x3f56ca32	0.83902276
53	0xbf4c9e99	-0.799295
54	0x3f3903fc	0.72271705
55	0x3f42be0c	0.7607124
56	0x408ded5e	4.4352255
57	0x3ecd121b	0.40052876
58	0xbf468883	-0.7755205
59	0x3b8c37fb	0.0042791343
60	0x3fc23acc	1.5174193
61	0x3f042696	0.5162138
62	0xbfb92753	-1.4465126
63	0x3f70306c	0.93823886
64	0xbe9921b9	-0.2990854
65	0xbf3479ba	-0.7049824
66	0xbe225133	-0.15851288
67	0xbf07ee15	-0.5309766
68	0x3bac9f7c	0.0052680355
69	0xbf35612c	-0.708514
70	0xbf435b67	-0.76311344
71	0x3db464ac	0.08808264
72	0x3f10baf8	0.5653529
73	0x3e625c07	0.22105418
74	0x3ee1537b	0.44009003
75	0x3fbe09f7	1.4846791
76	0xbe2aba4c	-0.16672629
77	0xbe7e048e	-0.24806425
78	0xbda8da28	-0.08244735
79	0x3f0823f8	0.53179884
80	0xbb151866	-0.0022750138
81	0x3dfc18a3	0.123093866
82	0xbef79a98	-0.48360133
83	0xbf124e29	-0.5715051
84	0x3f61486f	0.8800115
85	0xbeb6d887	-0.35712072
86	0xbec8add6	-0.39195126
87	0x3ea2bd2b	0.3178495
88	0x3f934a52	1.1507056
89	0xb9a1c745	-0.0003085678
90	0xbf9d5e21	-1.2294351
91	0xbed9f440	-0.4256916
92	0xbf35489d	-0.70813924
93	0xbfba70da	-1.456569
94	0x3fcf2248	1.6182337
95	0xbf8acc00	-1.0843506
96	0xbf0ce3f7	-0.55035347
97	0x3f2d42b6	0.6767992
98	0x3ee02c9e	0.4378404
99	0x3e87907d	0.26477423
100	0x3fa10e5d	1.2582508
101	0x3f8939df	1.0720786
102	0xbe52a37b	-0.20570175
103	0x3f3a14b7	0.7268786
104	0xbdb8fb31	-0.09032286
105	0xbf6bd279	-0.9211803
106	0x3ebd1add	0.36934558
107	0xbe94af2a	-0.2903989
108	0x3f4a4a43	0.79019564
109	0xbf0034fe	-0.5008086
110	0x3fbff916	1.499789
111	0x3f055963	0.5208952
112	0x3f70a7b9	0.94005924
113	0xbf7afe8f	-0.98044676
114	0xbf3496b4	-0.70542455
115	0x3fa6f158	1.3042402
116	0x3e5a590b	0.2132303
117	0xbf0665d0	-0.52499104
118	0xbe9b2b39	-0.30306414
119	0xbfda26d9	-1.7043105
120	0xbed9e974	-0.42560923
121	0xc01d1746	-2.4545455
122	0x3e8178c7	0.25287458
123	0xbf0e0a66	-0.55484617
124	0xbf6d6082	-0.92725384
125	0x3f8bf4a1	1.093403
126	0x3fbc39be	1.4705122
127	0xbfa89cd1	-1.3172857
128	0x3f7b6102	0.981949
129	0x3f844855	1.0334574
130	0x3f029dbf	0.5102195
131	0x3f7c5fa0	0.9858341
132	0x3eaeb066	0.34118956
133	0xbfa0c1ee	-1.2559183
134	0x3f227f0f	0.63475126
135	0xbf7ce8f0	-0.98792934
136	0x3f23d9c3	0.64004153
137	0x3f764f19	0.96214443
138	0x3f182faa	0.5944773
139	0xc027a5e4	-2.6195002
140	0x3ecf541d	0.4049386
141	0xbf26d744	-0.6517222
142	0xbf0f5c54	-0.56000257
143	0x3f93196c	1.1492133
144	0x3f341c18	0.7035537
145	0xbf9b582d	-1.2136284
146	0xbfc7d05a	-1.5610459
147	0xbf92b209	-1.1460582
148	0xbf56e40f	-0.8394174
149	0xbf994fa9	-1.1977435
150	0x3fb411c4	1.4067922
151	0xbef5ce47	-0.4800894
152	0xbf4c5b16	-0.79826486
153	0x3f89027a	1.0703881
154	0x3f767fbf	0.96288675
155	0xbfe73a8f	-1.8064746
156	0x3f87a7e0	1.0598106
157	0x3fe82094	1.8134942
158	0x3f7b7f14	0.9824078
159	0x3f8011e3	1.0005459
160	0x3f948334	1.160254
161	0xbfad1289	-1.3521281
162	0x3fa034a2	1.2516062
163	0x3b17f710	0.0023188032
164	0x3f82893c	1.0198131
165	0x3fa9e949	1.3274318
166	0x3f405bd4	0.7514012
167	0xbf15d871	-0.5853339
168	0x3f8866ee	1.0656412
169	0xbf70a89b	-0.9400727
170	0xbf4146d1	-0.7549868
171	0x3fb3035a	1.3985398
172	0x3fc39c69	1.5282108
173	0xbf434c8e	-0.7628869
174	0xbfadef1b	-1.3588594
175	0xbf8663df	-1.0499228
176	0xbfbb2754	-1.4621377
177	0xbfd00806	-1.6252449
178	0x3fbab494	1.4586358
179	0xbba5903d	-0.005052595
180	0xbf56a9d5	-0.83852893
181	0x3f80fa6b	1.0076421
182	0x3f6003a1	0.8750554
183	0xbf50a349	-0.81499153
184	0x3fc17728	1.5114489
185	0x3fba8442	1.4571612
186	0x3edfaef7	0.43688175
187	0x3f2d1928	0.6761651
188	0x3d9a5512	0.07535757
189	0xbf747a41	-0.95499045
190	0x3ea61c15	0.324433
191	0x3f58e024	0.8471701
192	0x3f3480ee	0.7050923
193	0xbf8340a1	-1.0254098
194	0x3fb7724a	1.4331753
195	0x3f68e892	0.90979874
196	0x3eab9fd4	0.33520377
197	0x404da68c	3.2132902
198	0x401e3680	2.4720764
199	0xbce8bc65	-0.028410146
200	0xbfaa27f8	-1.3293447
201	0xbdd1f29d	-0.10251353
202	0xbf860003	-1.0468754
203	0xbf82da2a	-1.0222828
204	0xbfbad994	-1.459765
205	0xc00e853f	-2.2268827
206	0xbf87be81	-1.0605012
207	0x3f33780a	0.7010504
208	0xbeec768a	-0.46184188
209	0x3f41cd5f	0.75703996
210	0xbe45e970	-0.1932733
211	0x3e119f36	0.1422089
212	0x3fc78a7a	1.5589135
213	0x3f95d5fa	1.1705925
214	0x3f0210df	0.50806993
215	0x3fcc6c11	1.5970479
216	0x3fb0a417	1.3800076
217	0xbfe16c40	-1.761116
218	0x3fce4dbf	1.6117476
219	0xbf8f055c	-1.117351
220	0x3f4abd60	0.79195213
221	0xbee1478b	-0.43999895
222	0x3f876a92	1.0579398
223	0x3eb6005b	0.35547146
224	0x4019d32e	2.4035144
225	0xbf59cb78	-0.85076094
226	0x3f854f92	1.0414908
227	0xbf06b5cb	-0.52621144
228	0x3f99524a	1.1978238
229	0xbdcbac9b	-0.09945031
230	0xbfc9b5c7	-1.5758599
231	0xbf1fb1ea	-0.6238085
232	0xbf974a8e	-1.1819627
233	0xbe51fb1f	-0.20505951
234	0x3f21d31d	0.6321276
235	0x3f448414	0.76764035
236	0xbf0a6b34	-0.5406983
237	0x3fa6a582	1.3019259
238	0x3f554dcb	0.8332183
239	0xbea80912	-0.3281942
240	0x3f66913f	0.9006538
241	0x3fb5a170	1.4189892
242	0x3f77dd53	0.9682209
243	0x3fb7644e	1.4327486
244	0x3e7d93ea	0.24763456
245	0xbfb57b07	-1.417817
246	0x3fc37eaa	1.527303
247	0x3b0bd114	0.0021334337
248	0x3fd536fc	1.6657405
249	0x3e9c13ef	0.30483958
250	0x3fc7638d	1.5577255
251	0xbf9e6586	-1.2374732
252	0x3f8f86af	1.1212977
253	0xbfa31527	-1.274083
254	0xbf207805	-0.62683135
255	0x3f0cf7ac	0.5506542

_backbone.linear_layers.0.bias f4 [32]
0	0xbffae164	-1.9600034
1	0xbf7afaa0	-0.98038673
2	0xbf63ac7b	-0.8893506
3	0xbf5ba94f	-0.8580522
4	0xbf3e7277	-0.7439341
5	0xbf798fc4	-0.97484994
6	0xbf4bad0a	-0.7956091
7	0xbfe78a7f	-1.8089141
8	0xbfe7fd84	-1.8124242
9	0xbfa5efd9	-1.2963821
10	0xbfeb158c	-1.836595
11	0xbfb470f3	-1.4096969
12	0xbfdcb2f6	-1.7242115
13	0xbffad1cb	-1.9595274
14	0xc01b8209	-2.4298117
15	0xbf63d540	-0.8899727
16	0xbfbda34a	-1.4815457
17	0xbf67cd66	-0.9054779
18	0xbfbfcdcd	-1.498468
19	0xbfd47965	-1.6599547
20	0xc0086449	-2.131121
21	0xbfa1fef6	-1.2655933
22	0xbfd7ffeb	-1.6874975
23	0xbfb7d40d	-1.4361588
24	0xc0146926	-2.3189178
25	0xc03f0c32	-2.9851193
26	0xc0035a6e	-2.0523944
27	0xbfede4c3	-1.8585438
28	0xbf2da271	-0.6782599
29	0xbffdffc2	-1.9843676
30	0xc0104e2d	-2.2547715
31	0xbed9a7f3	-0.42510948

_backbone.linear_layers.3.weight f4 [16, 32]
0	0x3ffa5aae	1.9558923
1	0x3e667130	0.22504115
2	0xbf513be6	-0.8173202
3	0xbea06cb0	-0.31332922
4	0x3f84842a	1.0352833
5	0x3f347126	0.7048515
6	0x3f81b066	1.0131958
7	0x3f2c7001	0.67358404
8	0x3f9e7b3f	1.2381362
9	0x3fd5dbf0	1.6707745
10	0x401336c7	2.3002183
11	0x3fce1a07	1.6101693
12	0x3fe861c2	1.8154833
13	0x3f988575	1.1915728
14	0x400519f7	2.0797098
15	0x3f14ec3b	0.5817296
16	0x3f385321	0.72001845
17	0xbfeea7d8	-1.8644972
18	0x3f3016e7	0.68784946
19	0x3f47a1a4	0.7798102
20	0x3ff12a43	1.8841022
21	0x3fcc22bb	1.5948099
22	0x3f0ec6ca	0.5577208
23	0x3fa7cee4	1.3110013
24	0x3fb23dbb	1.3925089
25	0x4009cea9	2.1532385
26	0x401199a1	2.2750018
27	0x3fc88c90	1.5667896
28	0x3dc53ab1	0.09630335
29	0x3fe45728	1.7839098
30	0x3fa6e5b8	1.3038855
31	0xbf7d2d06	-0.98896825
32	0x401afe87	2.421785
33	0xbf44144b	-0.76593465
34	0xbf29e05f	-0.6635799
35	0xbf4caa80	-0.7994766
36	0xbf10cbc7	-0.5656094
37	0xbf52022b	-0.8203456
38	0xbf0ae7b2	-0.5425979
39	0x3f16a7b5	0.5884965
40	0x3d9cef15	0.07662789
41	0xbef67196	-0.48133534
42	0xbf212f06	-0.6296238
43	0xbdde9ce4	-0.10869768
44	0x3d1b4e15	0.03791626
45	0x3e17c2bf	0.14820383
46	0xbf631237	-0.8869967
47	0xbe913137	-0.2835786
48	0xbedcaa10	-0.43098497
49	0xbd425eca	-0.04745368
50	0xbf031c25	-0.5121482
51	0x3f0aba60	0.54190636
52	0x3fd72c8f	1.6810473
53	0xbf7e42a2	-0.99320424
54	0x3f8482e6	1.0352447
55	0xbf9d8e36	-1.2309024
56	0xbf462909	-0.77406365
57	0x3e73b05d	0.23797746
58	0x3fad2183	1.3525852
59	0x3f5dd6e1	0.86656004
60	0xbf3ed154	-0.7453816
61	0xbed1d33e	-0.40981477
62	0x402e142a	2.7199807
63	0xbf7c9365	-0.98662406
64	0xbf0e8f15	-0.55687076
65	0xbf487f09	-0.7831884
66	0xbfd17e69	-1.6366702
67	0xbe721dcd	-0.2364418
68	0x3f0ad67a	0.54233515
69	0x3e79f68a	0.24410453
70	0xbf129040	-0.5725136
71	0xbfd2331e	-1.642185
72	0x3fe4720b	1.7847303
73	0x3edbc525	0.42923847
74	0xbf6e2bc2	-0.9303552
75	0xbeb4a6f3	-0.35283622
76	0xbf1ea90d	-0.619767
77	0xbf08a6fb	-0.5337979
78	0x3e95eff8	0.29284644
79	0xbebd6fcf	-0.36999366
80	0xbf921d7b	-1.1415247
81	0xbfa89db8	-1.3173132
82	0xbf731d32	-0.94966424
83	0xbef1839a	-0.47170717
84	0x3f195adc	0.59904265
85	0xbf0f38ac	-0.5594585
86	0xbf2e10aa	-0.6799418
87	0x3f465f30	0.77488995
88	0x3f4099c0	0.75234604
89	0xbf09965c	-0.53745055
90	0x3d8a3f59	0.06750364
91	0xbebdfaa9	-0.371053
92	0xbf257812	-0.6463634
93	0xbe34512d	-0.17609091
94	0x3e213a4e	0.15744898
95	0xbf5aa5db	-0.85409325
96	0xbf324c8b	-0.69648045
97	0xbf1c5c5b	-0.61078423
98	0xbf89e28d	-1.0772263
99	0xbdaecaf0	-0.08534801
100	0x3f2355a2	0.6380254
101	0x3eebfb75	0.46090284
102	0xbdd34065	-0.10315017
103	0xbf293ea2	-0.66111195
104	0xbf6928d6	-0.91077936
105	0x3f42e466	0.7612976
106	0xbf2e214a	-0.68019545
107	0xbed93e82	-0.42430502
108	0xbf0ad80f	-0.5423593
109	0xbf364032	-0.71191704
110	0x3fb77e74	1.4335465
111	0xbeb15149	-0.34632328
112	0xbee15ad3	-0.44014606
113	0xbfab73fc	-1.3394771
114	0x3ed3561e	0.4127664
115	0xbe3078a8	-0.17233527
116	0x3fb1fb16	1.390475
117	0xbf2f84a2	-0.68561757
118	0xbea99237	-0.33119366
119	0xbf001dc2	-0.50045407
120	0x3f4ff73c	0.81236625
121	0x3ed7db9a	0.4215973
122	0xbd9cdd5d	-0.07659409
123	0xbf80887c	-1.0041652
124	0xbf25ad31	-0.64717394
125	0x3dcdb9a0	0.10045171
126	0x3df492e5	0.119420804
127	0xbeb82b7a	-0.3597067
128	0xbedce940	-0.43146706
129	0xbf41a4ab	-0.7564189
130	0xbf90dd51	-1.131754
131	0xbf3abcc7	-0.729443
132	0xbe317ea5	-0.17333467
133	0x3f042340	0.5161629
134	0xbeacf329	-0.33779266
135	0xbf72635a	-0.9468285
136	0xbf5ccb59	-0.86247784
137	0x3db5f32f	0.08884274
138	0xbf47d49d	-0.780588
139	0xbe9d8bb1	-0.3077064
140	0xbf308a46	-0.6896099
141	0xbf4a0cb6	-0.78925645
142	0x3f3f8678	0.7481456
143	0xbf6eaeca	-0.93235457
144	0xbf83e9d9	-1.030574
145	0xbfbfa2e5	-1.4971586
146	0x3f0272ea	0.50956595
147	0xbf3ca15a	-0.736837
148	0x3ef46c5d	0.47738925
149	0xbeda17f0	-0.42596388
150	0xbee70793	-0.45122966
151	0xbf53e1d9	-0.8276649
152	0x3f1232c7	0.5710873
153	0xbeddf22c	-0.43348825
154	0xbebcebc4	-0.36898625
155	0xbf228701	-0.6348725
156	0xbf6518b1	-0.894908
157	0xbe55cb0b	-0.20878236
158	0x3e0baf43	0.13641076
159	0xbf17c240	-0.59280777
160	0x3fa66adf	1.3001364
161	0x3b8ed02c	0.004358312
162	0xbf9a0fb5	-1.2036043
163	0x3f68c094	0.9091885
164	0x3fef8760	1.8713188
165	0x3fbf048b	1.4923261
166	0x3f8212d4	1.0161996
167	0x3f1b8215	0.60745364
168	0x3fb8daf8	1.4441824
169	0x3fe8954c	1.8170562
170	0x3fd09083	1.6294101
171	0x3f353834	0.70788884
172	0x3f87b6d5	1.0602671
173	0x3fd4af0b	1.6615919
174	0xbea2bf87	-0.3178675
175	0x3f6f0fc3	0.93383425
176	0x3f6f8d5e	0.93575084
177	0xc02ac044	-2.667985
178	0xbe6abe26	-0.22924098
179	0x3fbfaa32	1.4973814
180	0x3fd15daf	1.6356715
181	0x3f50fd0a	0.81636107
182	0x3fa42394	1.2823358
183	0x3f88f505	1.0699774
184	0x4011cbdb	2.2780674
185	0x3fcefd79	1.6171104
186	0x3ff45639	1.9088813
187	0x3faf65f2	1.3702986
188	0x3ee75145	0.4517919
189	0x3fbf82d0	1.4961796
190	0x3fd36882	1.6516268
191	0x3f8a4240	1.0801468
192	0x4009a87d	2.1509087
193	0x3fb0090e	1.3752763
194	0xbff08192	-1.8789542
195	0x3f9c7b4f	1.2225131
196	0x3f44c303	0.76860064
197	0x3fe6bc83	1.8026279
198	0x3f9aa4bb	1.2081522
199	0xbf45427f	-0.7705459
200	0x3eac8028	0.33691525
201	0x400387bb	2.0551593
202	0x3fb0fa45	1.3826376
203	0x3d42b0d7	0.04753193
204	0x3fcb386b	1.5876592
205	0x3fa35587	1.2760476
206	0x3f974d37	1.1820439
207	0x3f43bb30	0.764575
208	0x4002c0c6	2.043016
209	0xbfdcc07a	-1.7246239
210	0x3f871f1f	1.0556372
211	0x402d5f72	2.7089505
212	0x3f748474	0.9551461
213	0x3fb2a7e2	1.3957484
214	0x402d5097	2.7080438
215	0x3fa34fd9	1.2758743
216	0x3d37e135	0.04489251
217	0x3f8c2a38	1.0950384
218	0x3f961b51	1.1727086
219	0x3f0e3591	0.55550486
220	0x3f93cee5	1.1547514
221	0x3f8e5c2d	1.112188
222	0x406abb6d	3.6676896
223	0x3f30426e	0.68851364
224	0xbe6aebee	-0.22941563
225	0xbe0a142c	-0.13484257
226	0xbf8d6f9b	-1.1049684
227	0x3e8447f7	0.25836155
228	0x3f84c7bf	1.0373458
229	0xbea03fd4	-0.31298697
230	0x3d7030aa	0.05864016
231	0xbf816eb9	-1.0111915
232	0xbee39016	-0.44445866
233	0x3fde38c6	1.7361076
234	0xbebe8a3c	-0.3721484
235	0x3fef58ed	1.8699013
236	0x3ee7fe39	0.45311144
237	0xbd585c9e	-0.0528227
238	0x3fdd333f	1.7281264
239	0xbe42bd86	-0.1901761
240	0x3e3287a3	0.17434554
241	0xbf6a8994	-0.9161618
242	0x3ec4b3fa	0.3841856
243	0x3f78c6ca	0.9717833
244	0x3f999f81	1.2001802
245	0x3f883bda	1.0643265
246	0x3ea9e037	0.33178875
247	0x3e465124	0.1936689
248	0x3f47f513	0.7810833
249	0x4003d1ca	2.0596795
250	0x3f0ab96a	0.5418917
251	0x3ee886bd	0.45415297
252	0xbe334a91	-0.17508914
253	0x3fdef5de	1.7418783
254	0x3f160304	0.5859835
255	0xbf894155	-1.0723063

_backbone.linear_layers.3.bias f4 [16]
0	0xc03970d4	-2.8975115
1	0xbff17dd9	-1.8866531
2	0xc02a02f0	-2.6564293
3	0xc05e2d29	-3.4715064
4	0xc057c04c	-3.3711119
5	0xc07cc4d2	-3.949513
6	0xbf6145bb	-0.87997025
7	0xc025a6c6	-2.588304
8	0xc01c036c	-2.4377089
9	0xbffb5e1c	-1.9638095
10	0xc03269db	-2.787711
11	0xc02b31bd	-2.6749108
12	0xc02b9cf9	-2.6814559
13	0xc05e00bb	-3.4687946
14	0xc001f27c	-2.030425
15	0xc04b4469	-3.1760504

_embedding_layer.cat_embedding_layers.0.weight f4 [5, 3]
0	0xbeaaaf31	-0.33336785
1	0xbeaa0742	-0.33208662
2	0x3f087e48	0.5331769
3	0xbd62739c	-0.055286035
4	0xc0065132	-2.0987058
5	0xbefe4a34	-0.49665987
6	0xbe83337f	-0.25625226
7	0xbffab434	-1.9586244
8	0xbf1121b2	-0.5669204
9	0xbe080a13	-0.13285093
10	0xc00fb096	-2.245153
11	0xbf19aeb5	-0.60032207
12	0xbf62d88f	-0.8861169
13	0xbfe8173a	-1.8132088
14	0xbf69c33c	-0.9131353

_embedding_layer.cat_embedding_layers.1.weight f4 [5, 3]
0	0xbd9c5489	-0.07633311
1	0x3ec36fd6	0.38171262
2	0x3fa7152b	1.3053335
3	0xbe30998e	-0.17246076
4	0xbf7f9158	-0.9983115
5	0x400d34f3	2.2063568
6	0xbf4120f8	-0.7544093
7	0x3ea9961b	0.33122334
8	0x3fa15b6c	1.2606025
9	0xbf971f3b	-1.1806406
10	0x3eb5181b	0.35369954
11	0x3ff32212	1.8994772
12	0xbeb59e82	-0.35472494
13	0xbf835718	-1.0260954
14	0x3f42c8ea	0.7608782

_embedding_layer.cat_embedding_layers.2.weight f4 [5, 3]
0	0xbe661470	-0.22468734
1	0xbfa888cf	-1.3166751
2	0x3f311827	0.6917748
3	0xbf6e1186	-0.9299549
4	0x3f626721	0.8843861
5	0xbf2c660e	-0.67343223
6	0xbf93ca3f	-1.1546096
7	0x3f7f3727	0.9969353
8	0xbf8473cb	-1.0347837
9	0xbf8aa556	-1.0831707
10	0x3fa123c6	1.2589042
11	0xbf712912	-0.94203293
12	0xbf4bd80d	-0.7962654
13	0x3f2ccef6	0.675033
14	0xbf146be3	-0.5797712

_embedding_layer.cat_embedding_layers.3.weight f4 [5, 3]
0	0x3f93bd41	1.1542131
1	0x3f908fec	1.1293921
2	0xbe4f2d94	-0.2023223
3	0x3f041906	0.5160068
4	0xbf443fc1	-0.7665978
5	0xbe8fb5e8	-0.2806847
6	0x3f097e1e	0.53708065
7	0xbe51abdd	-0.20475717
8	0xbf0c6d24	-0.54854035
9	0x3f86b8ee	1.0525186
10	0x3d74ad39	0.05973551
11	0xbf0d9b42	-0.5531503
12	0x3e677339	0.22602548
13	0xbec1e88d	-0.37872735
14	0xbf083ef2	-0.53221047

_embedding_layer.normalizing_batch_norm.weight f4 [16]
0	0xbfdba955	-1.7161051
1	0xbfb1e981	-1.3899385
2	0x3fd9d5df	1.7018393
3	0x3e81f66c	0.25383317
4	0xbe681ee4	-0.22668034
5	0x3ebd0c2b	0.36923346
6	0x3f46e7a3	0.776972
7	0xbe87d017	-0.26525947
8	0x3e167242	0.14692023
9	0xbfae2cfc	-1.3607478
10	0x3f83de6d	1.0302254
11	0xbeae1d67	-0.34006807
12	0xbf9e8bd4	-1.2386422
13	0xbf4d584c	-0.80212855
14	0x3c22db36	0.009939959
15	0xbe3f94b1	-0.18709065

_embedding_layer.normalizing_batch_norm.bias f4 [16]
0	0xbf8cd3db	-1.1002153
1	0xbde53730	-0.11192167
2	0xbf226b5b	-0.6344506
3	0xbed2bae3	-0.41158208
4	0x3eb815ef	0.35954234
5	0x3e50244f	0.2032635
6	0xbec83018	-0.39099193
7	0x3f2e073b	0.6797978
8	0x3e1d1b2c	0.15342396
9	0x3f99cbf5	1.2015368
10	0xbf1a69b4	-0.6031754
11	0xbf285ecb	-0.6576964
12	0x3dc2e7b2	0.095168486
13	0xbe5982cd	-0.21241303
14	0xbfba5647	-1.455758
15	0x3f00235b	0.5005395

_embedding_layer.normalizing_batch_norm.running_mean f4 [16]
0	0x3b50e926	0.0031877249
1	0x3aa9399b	0.0012910845
2	0x3b1e8b9c	0.00241921
3	0xbaa21d16	-0.0012368287
4	0xbb93396e	-0.00449293
5	0xba38027d	-0.0007019414
6	0x3b9a86fb	0.004715798
7	0x3b06352d	0.0020478473
8	0x3b503a52	0.0031773043
9	0x3a9befea	0.0011897061
10	0x3b45fddb	0.0030211124
11	0xbb2ef37c	-0.002669542
12	0x3b69e625	0.0035690155
13	0x38d52d06	0.00010165018
14	0xbb1c404b	-0.0023842033
15	0x3b206f71	0.0024480487

_embedding_layer.normalizing_batch_norm.running_var f4 [16]
0	0x3f802950	1.0012608
1	0x3f7f77e1	0.99792296
2	0x3f7e14d3	0.99250525
3	0x3f7dfe46	0.99216115
4	0x3f802515	1.0011317
5	0x3f80c355	1.0059611
6	0x3f7e3075	0.9929269
7	0x3f7e6f38	0.99388456
8	0x3f7e6e22	0.993868
9	0x3f8000ec	1.0000281
10	0x3f800c28	1.000371
11	0x3f7f3329	0.9968744
12	0x3f7ecc43	0.9953043
13	0x3f7fc906	0.9991611
14	0x3f7de17c	0.99172187
15	0x3f800ade	1.0003316

head.layers.0.weight f4 [2, 16]
0	0x3f987b36	1.1912601
1	0xbf7576ee	-0.958846
2	0x3f1ba547	0.6079907
3	0x3fa56251	1.2920629
4	0x3f9eacd1	1.2396489
5	0x3f9eab5f	1.2396048
6	0xbe85f838	-0.26165938
7	0x3f00b8b5	0.5028184
8	0xbf13c2b8	-0.5771899
9	0xbf7df15e	-0.9919642
10	0x3f817b84	1.0115819
11	0x3fac680c	1.3469253
12	0x3f141fd2	0.57861054
13	0x3f70c05d	0.94043523
14	0xbf25155f	-0.64485735
15	0xbef85c4d	-0.4850792
16	0xbee9f038	-0.45691085
17	0x3f203121	0.62574965
18	0xbe91fd8d	-0.28513756
19	0xbf5dcfd0	-0.8664522
20	0xbf5e130d	-0.8674782
21	0xbc53d964	-0.012930248
22	0x3f23a339	0.63920933
23	0xbe59eb52	-0.21281174
24	0x3f422f39	0.75853306
25	0x3f142830	0.5787382
26	0xbf14cf16	-0.5812849
27	0xbf7fef05	-0.9997409
28	0x3db8e253	0.09027543
29	0xbf9dbd8b	-1.2323469
30	0x3f81851b	1.0118746
31	0x3d9f4810	0.07777417

head.layers.0.bias f4 [2]
0	0x3e0e4a1e	0.13895461
1	0xbe27d168	-0.16388476

exp_avg f4 [32, 28]
0	0xb9426a67	-0.0001854092
1	0xb843aa4a	-4.6650217e-05
2	0xb8c89659	-9.5647476e-05
3	0xb788f4ef	-1.632652e-05
4	0xb3a9025c	-7.870105e-08
5	0xb6ff9158	-7.6165124e-06
6	0xb80874f8	-3.2533862e-05
7	0x378783e3	1.6154669e-05
8	0xb3af9664	-8.1764284e-08
9	0x39408885	0.00018361404
10	0x373a6491	1.1109879e-05
11	0x37a2062a	1.9314775e-05
12	0xb912162a	-0.00013931902
13	0x37949149	1.7710629e-05
14	0xb6ddaef2	-6.6066796e-06
15	0x3691806c	4.336287e-06
16	0x382670bb	3.9682473e-05
17	0xb732926c	-1.0643718e-05
18	0x37afbe52	2.095025e-05
19	0xb83559f0	-4.3237524e-05
20	0x38969e4f	7.182045e-05
21	0x37900271	1.7167275e-05
22	0x357a83b3	9.3323905e-07
23	0x35a7bb53	1.2496988e-06
24	0x36916119	4.3326404e-06
25	0x3721eb07	9.651069e-06
26	0x36d86570	6.4491105e-06
27	0xb680e355	-3.841162e-06
28	0xba7643e3	-0.0009394271
29	0xb9315a35	-0.0001691364
30	0x3a48c150	0.00076582003
31	0x38e3fa38	0.000108708104
32	0xb8c60193	-9.441669e-05
33	0x37a2441e	1.9343624e-05
34	0x385adb41	5.2179446e-05
35	0xb94c55ce	-0.00019486921
36	0xb8d747cb	-0.000102653714
37	0xb9bcae37	-0.00035987954
38	0x398af719	0.00026505513
39	0x39ad1e56	0.00033019733
40	0xb925e4f4	-0.00015820918
41	0x37f4367a	2.9112434e-05
42	0x39fb6176	0.00047947065
43	0xb91baa8a	-0.00014845483
44	0x38abace5	8.1861195e-05
45	0x3a31cf03	0.00067828613
46	0x3956e55b	0.00020494072
47	0x38c5b757	9.427842e-05
48	0x39acf1ea	0.00032986637
49	0xb9886d3e	-0.00026021333
50	0x39a3595c	0.0003115636
51	0xb995f05f	-0.00028598585
52	0x398187ec	0.00024706067
53	0xb9965d98	-0.00028679962
54	0x37a4350d	1.9575027e-05
55	0x393c33bf	0.00017948354
56	0xbadea276	-0.0016985673
57	0xb99c5614	-0.00029818772
58	0xbab092f9	-0.0013471536
59	0xb9c44fa9	-0.00037443385
60	0x3a01d19e	0.0004952195
61	0x39f9a399	0.0004761487
62	0xbac88621	-0.0015298763
63	0x3a891811	0.0010459443
64	0x3981f5da	0.0002478797
65	0x3a46277b	0.00075589836
66	0xb9c9398d	-0.00038380586
67	0xb9d44ff9	-0.00040495375
68	0x3a3c98c2	0.00071943935
69	0x392c13bf	0.00016410554
70	0xba4e076f	-0.0007859384
71	0x38d70ec7	0.000102547514
72	0xb942e138	-0.00018585182
73	0xba4cb55e	-0.0007809008
74	0xb930a835	-0.0001684733
75	0xba6e55c6	-0.0009091761
76	0x3a8c4929	0.0010702956
77	0x3a997a3b	0.0011709401
78	0xb9d6f8fe	-0.00041002774
79	0x39fa9528	0.00047794846
80	0xb982bb1d	-0.00024934942
81	0x39a83b4c	0.00032087637
82	0x39162211	0.00014317805
83	0xb9821a8b	-0.00024815308
84	0xb8efc6f6	-0.000114334674
85	0xb85e66ee	-5.3024785e-05
86	0xb88c98d0	-6.704184e-05
87	0x387c5933	6.0164555e-05
88	0xb83fc674	-4.5722772e-05
89	0xb7a30fcb	-1.9438468e-05
90	0xb76e9bee	-1.4222211e-05
91	0xb8da435c	-0.00010407597
92	0xb7b77677	-2.1870464e-05
93	0x398a9f53	0.00026440117
94	0x38a930b9	8.067623e-05
95	0x38e9a683	0.00011141321
96	0xb8c3ec3c	-9.342327e-05
97	0x38b30590	8.536421e-05
98	0x395dee7d	0.00021165046
99	0xb881d5a3	-6.190992e-05
100	0x3851514b	4.9905193e-05
101	0x399f6d23	0.00030408156
102	0x38d4e6b2	0.00010151918
103	0x3815e124	3.5734047e-05
104	0x3916fc03	0.00014398996
105	0xb915ac0e	-0.00014273843
106	0x3926a996	0.0001589417
107	0xb921ccc6	-0.0001543044
108	0x390fef83	0.00013726768
109	0xb8b7ec3f	-8.770124e-05
110	0x383426e3	4.295156e-05
111	0x38a19d57	7.706385e-05
112	0x3867c5b0	5.5258803e-05
113	0x38acb042	8.23443e-05
114	0xb884e930	-6.337685e-05
115	0x38986f57	7.2686635e-05
116	0xb8983905	-7.2585455e-05
117	0xb820abce	-3.830698e-05
118	0xb89342a6	-7.0219205e-05
119	0xb9166c57	-0.00014345474
120	0xb829b1fc	-4.04585e-05
121	0x3a2273b4	0.00061970507
122	0x3926eb39	0.00015918621
123	0x390a659c	0.00013198558
124	0x386729d3	5.5113644e-05
125	0x37b919e7	2.206578e-05
126	0x398d7921	0.00026983864
127	0xb8a3bb54	-7.807338e-05
128	0x3849b927	4.809457e-05
129	0x39c867e8	0.0003822439
130	0x3902137f	0.00012405029
131	0x385bae6a	5.2376105e-05
132	0x39332bc4	0.00017087074
133	0xb8d4d270	-0.00010148145
134	0x395900f7	0.00020695092
135	0xb942c42a	-0.00018574359
136	0x39304cb9	0.0001681325
137	0xb8ea2aaa	-0.00011165936
138	0x384a98f8	4.8303016e-05
139	0x38c6b1b7	9.474478e-05
140	0x38033b58	3.1288102e-05
141	0xb80d10e7	-3.363276e-05
142	0xb7f351c9	-2.9005942e-05
143	0x37993526	1.826377e-05
144	0xb765bb32	-1.36930485e-05
145	0xb601dd91	-1.9351467e-06
146	0x370d5f10	8.426388e-06
147	0xb7d2105b	-2.5041567e-05
148	0xb4f5ca5c	-4.5782042e-07
149	0xb5d6b264	-1.5996161e-06
150	0x38193c22	3.6534046e-05
151	0x37798eef	1.4874836e-05
152	0xb64ef4b2	-3.0838823e-06
153	0x37886d78	1.6263439e-05
154	0x38737bf0	5.805114e-05
155	0xb79a9dff	-1.8431803e-05
156	0x36ebb7c2	7.024938e-06
157	0x38b5fd1d	8.6778986e-05
158	0x37da75b4	2.6042435e-05
159	0x37bd27c3	2.2549071e-05
160	0x37a57a98	1.972662e-05
161	0xb8741b84	-5.819976e-05
162	0x382bf9ed	4.100234e-05
163	0xb8117c8d	-3.468669e-05
164	0x380515af	3.1729865e-05
165	0xb7e77438	-2.7591464e-05
166	0x373f720c	1.1411041e-05
167	0x37ae331b	2.0766214e-05
168	0xb8cd1f46	-9.780987e-05
169	0xb809323a	-3.2710122e-05
170	0xb88fab92	-6.850729e-05
171	0x38697caa	5.566763e-05
172	0xb83089e6	-4.2090098e-05
173	0xb7640a5f	-1.3592274e-05
174	0x37dc5c4e	2.6269026e-05
175	0xb8bbb4b9	-8.950517e-05
176	0xb76fe0b0	-1.4297824e-05
177	0x39616c3a	0.0002149799
178	0x390496a9	0.00012644626
179	0x38ce8e77	9.8493816e-05
180	0xb88d3c71	-6.734662e-05
181	0x388c9d11	6.704976e-05
182	0x3951f572	0.00020023229
183	0xb88297c0	-6.227149e-05
184	0x387fe122	6.100641e-05
185	0x3994aa4b	0.00028355638
186	0x38d9c842	0.00010384667
187	0x38320f56	4.245279e-05
188	0x38fabecc	0.00011956468
189	0xb91e32d5	-0.0001508699
190	0x3920b813	0.00015327362
191	0xb91c2c85	-0.00014893904
192	0x390aaec9	0.00013225818
193	0xb8ab8da4	-8.180298e-05
194	0x3830b0a8	4.2126194e-05
195	0x38937dea	7.0329595e-05
196	0xbae34a82	-0.0017340931
197	0x3b3a1d9a	0.0028398992
198	0xbb2b339b	-0.0026123289
199	0xba1220f7	-0.000557437
200	0x39b19cb6	0.0003387683
201	0xb940a423	-0.00018371693
202	0x39493ea6	0.00019192192
203	0x3a38b2db	0.00070456945
204	0x38a74dfe	7.977708e-05
205	0x3b0c458e	0.0021403763
206	0xbb3fa815	-0.0029244472
207	0x39b13937	0.000338027
208	0x39ab05fd	0.00032620123
209	0xb9bd8cd5	-0.00036153817
210	0xba9233c4	-0.0011154343
211	0x39bee88c	0.00036412885
212	0xb8ad807f	-8.273217e-05
213	0xbacd8ed1	-0.0015682821
214	0xb9f16031	-0.0004603877
215	0xb9935bfe	-0.00028106564
216	0xba2937b3	-0.0006455138
217	0x39fde7d4	0.00048428646
218	0xba496e11	-0.00076839427
219	0x3a45b037	0.00075412117
220	0xba32f276	-0.00068262906
221	0x39deac09	0.00042471316
222	0xb971437d	-0.00023008692
223	0xb9cc997c	-0.00039024267
224	0xba4703c6	-0.000759181
225	0xb9eeae54	-0.00045524782
226	0x38cd65e4	9.79414e-05
227	0x3925bbe2	0.00015805618
228	0x370471d4	7.894316e-06
229	0xb7a10f1c	-1.9199731e-05
230	0x38158605	3.5649184e-05
231	0xb6e39845	-6.7828537e-06
232	0xb7d146b2	-2.4947662e-05
233	0xb604bcb3	-1.977937e-06
234	0x380ff557	3.4322347e-05
235	0x37e59f33	2.737306e-05
236	0xb8b0868d	-8.417396e-05
237	0x36336288	2.6730431e-06
238	0xb8dde11a	-0.000105800296
239	0x37ff1991	3.0410274e-05
240	0x3848a1f9	4.7834565e-05
241	0x3732e73c	1.0663465e-05
242	0x37a8802f	2.008685e-05
243	0xb829bd89	-4.046926e-05
244	0x387b13dd	5.9861562e-05
245	0x38a27caa	7.7479825e-05
246	0xb70e82b6	-8.494293e-06
247	0x374ac2ee	1.2085524e-05
248	0xb7d232ff	-2.5057698e-05
249	0x3826de71	3.978465e-05
250	0xb6ae12bb	-5.1877846e-06
251	0xb7d45880	-2.531358e-05
252	0x380c05b3	3.338391e-05
253	0x37cbcdf1	2.4295385e-05
254	0xb76bebf8	-1.4062032e-05
255	0x37bc1940	2.2423104e-05

exp_avg_sq f4 [32, 28]
0	0x35bdd3fe	1.4143295e-06
1	0x353e0b46	7.079692e-07
2	0x35e2540d	1.6862774e-06
3	0x34fa7704	4.6652724e-07
4	0x346bc194	2.1956504e-07
5	0x34953fae	2.7799746e-07
6	0x33ca978b	9.4339235e-08
7	0x357c385a	9.395932e-07
8	0x32e42bcf	2.6562615e-08
9	0x368cb5c3	4.193485e-06
10	0x342a7af9	1.5877221e-07
11	0x361462ea	2.2111294e-06
12	0x348c09c5	2.608414e-07
13	0x350fb230	5.353095e-07
14	0x35954d7e	1.1123918e-06
15	0x356bda7b	8.7862253e-07
16	0x363b13b5	2.7876642e-06
17	0x36a5c390	4.9401497e-06
18	0x34c77329	3.7150429e-07
19	0x3640a67e	2.870714e-06
20	0x34d0bcff	3.8880532e-07
21	0x34aa4f8d	3.1722848e-07
22	0x3606edac	2.01059e-06
23	0x354d0574	7.6376386e-07
24	0x3552a546	7.84716e-07
25	0x3643c3df	2.9171276e-06
26	0x3511f235	5.4369167e-07
27	0x356ab479	8.7434415e-07
28	0x3728b4a8	1.0055643e-05
29	0x36f9d25c	7.4452673e-06
30	0x37a350d2	1.9468749e-05
31	0x35dabbed	1.6296959e-06
32	0x36f25a40	7.2226685e-06
33	0x3634a8fc	2.6920452e-06
34	0x3594e10d	1.1092358e-06
35	0x36bf9516	5.7095995e-06
36	0x360a29d3	2.0587947e-06
37	0x37af5cb1	2.0904788e-05
38	0x367829b4	3.6979154e-06
39	0x3602b164	1.9474764e-06
40	0x364bf218	3.0390274e-06
41	0x35bb085e	1.3935021e-06
42	0x3674c5c9	3.647396e-06
43	0x363eba63	2.8420698e-06
44	0x3780daff	1.5360767e-05
45	0x3863bc22	5.429623e-05
46	0x350ecbf4	5.3195913e-07
47	0x3818d584	3.6438476e-05
48	0x3625f8e9	2.47318e-06
49	0x37e8a78a	2.7734572e-05
50	0x37a2d073	1.9408972e-05
51	0x356545a2	8.5410477e-07
52	0x376ea0d0	1.42233475e-05
53	0x37d79e15	2.570361e-05
54	0x37a1e781	1.9300498e-05
55	0x3739415e	1.1042079e-05
56	0x37ebeeb2	2.8125334e-05
57	0x389a63bf	7.3618714e-05
58	0x3768a392	1.3866362e-05
59	0x384793a3	4.7582795e-05
60	0x3862270d	5.3918968e-05
61	0x36a7962e	4.994471e-06
62	0x37b7a636	2.1892698e-05
63	0x38c299a0	9.279256e-05
64	0x368f6b56	4.2742276e-06
65	0x386836c6	5.5364122e-05
66	0x3705d8dc	7.977909e-06
67	0x398a02f7	0.0002632362
68	0x37bfaaf3	2.2848579e-05
69	0x384699b9	4.7350044e-05
70	0x395dfbd5	0.00021170017
71	0x392e8194	0.00016642205
72	0x3791b3b4	1.7369028e-05
73	0x3a03a124	0.0005021265
74	0x369d38ed	4.6855916e-06
75	0x36b389e1	5.350667e-06
76	0x3763312f	1.3541706e-05
77	0x392e72c1	0.00016636682
78	0x37b4b00f	2.1539656e-05
79	0x395c2a81	0.00020996669
80	0x380c5dde	3.346602e-05
81	0x385e27c3	5.2965956e-05
82	0x364c5eda	3.045358e-06
83	0x3757c177	1.2860043e-05
84	0x3612d1c9	2.1877806e-06
85	0x35ced9c1	1.5411571e-06
86	0x362bedf2	2.5619488e-06
87	0x34dcc675	4.112259e-07
88	0x359915bf	1.1405717e-06
89	0x34b0e856	3.29516e-07
90	0x33d4738a	9.893036e-08
91	0x3460bc97	2.0930234e-07
92	0x3505a827	4.9791055e-07
93	0x3661f091	3.366764e-06
94	0x34f1a825	4.501209e-07
95	0x352ab839	6.3598014e-07
96	0x34f9818e	4.6474128e-07
97	0x34bbce47	3.498155e-07
98	0x3534bc93	6.7329637e-07
99	0x360a7385	2.0630844e-06
100	0x35e42c71	1.7000258e-06
101	0x36f067f6	7.16466e-06
102	0x3533ec0a	6.702618e-07
103	0x368fa2c8	4.2806823e-06
104	0x34c5d03c	3.684562e-07
105	0x366dd455	3.5439346e-06
106	0x36009d1e	1.916494e-06
107	0x34d9916c	4.0525208e-07
108	0x35fae78c	1.869384e-06
109	0x37488b04	1.1953296e-05
110	0x351ba1a1	5.79772e-07
111	0x368e356f	4.2381503e-06
112	0x37459515	1.1776826e-05
113	0x368e980a	4.2496295e-06
114	0x3751f9fe	1.2515577e-05
115	0x35cd721c	1.53069e-06
116	0x36bbdd5f	5.5988053e-06
117	0x36bd0543	5.6332515e-06
118	0x34bb04d2	3.4834972e-07
119	0x35a7f3bb	1.2513404e-06
120	0x367d0f1e	3.7708737e-06
121	0x3732f9ed	1.0667817e-05
122	0x367e3ddc	3.7884956e-06
123	0x3613fa49	2.2050392e-06
124	0x358c2b22	1.0443366e-06
125	0x34afe363	3.2761736e-07
126	0x36576c81	3.2100654e-06
127	0x361e95b0	2.3630964e-06
128	0x36888267	4.0682967e-06
129	0x37bc3a6d	2.2438553e-05
130	0x3673079c	3.621425e-06
131	0x37af2533	2.0878948e-05
132	0x35d67928	1.5979504e-06
133	0x3790e2b1	1.72717e-05
134	0x368a0cae	4.1141966e-06
135	0x3635b35a	2.7075498e-06
136	0x3709715c	8.19223e-06
137	0x35562d39	7.978702e-07
138	0x37d6d1a3	2.5608408e-05
139	0x34206eeb	1.4941513e-07
140	0x378338e0	1.5642901e-05
141	0x36b24eb7	5.313977e-06
142	0x37647c8a	1.36188555e-05
143	0x3602b8e8	1.947914e-06
144	0x36ae9be6	5.203753e-06
145	0x363d4735	2.8204643e-06
146	0x3458abdd	2.0179091e-07
147	0x35ead93d	1.7497583e-06
148	0x3688b059	4.0736454e-06
149	0x3755f325	1.2752401e-05
150	0x361f8053	2.376754e-06
151	0x35f00a8a	1.7884461e-06
152	0x3621392f	2.4024155e-06
153	0x3647214a	2.9672688e-06
154	0x36dc1c02	6.5597715e-06
155	0x359af0e8	1.1544007e-06
156	0x360ce838	2.0996795e-06
157	0x37a8d9db	2.0128608e-05
158	0x37144556	8.837631e-06
159	0x37994e2c	1.8275423e-05
160	0x35aded2c	1.295853e-06
161	0x377a2657	1.4910088e-05
162	0x376d70ab	1.4152533e-05
163	0x35ab647c	1.2769738e-06
164	0x3725d79b	9.884966e-06
165	0x3459659a	2.0246662e-07
166	0x37e12463	2.6839034e-05
167	0x347306b6	2.263358e-07
168	0x3789b556	1.6416114e-05
169	0x36009acb	1.9163588e-06
170	0x36c46698	5.8531987e-06
171	0x34ed08c9	4.4151082e-07
172	0x360f0ebf	2.1317244e-06
173	0x362ab01e	2.5434488e-06
174	0x34a7b8e9	3.1240714e-07
175	0x362c68cb	2.5690995e-06
176	0x34de5328	4.1411226e-07
177	0x3712294c	8.711893e-06
178	0x3609bdc5	2.0525051e-06
179	0x35ff1356	1.9004608e-06
180	0x358fa8b1	1.0703426e-06
181	0x35e2baf7	1.6892726e-06
182	0x366b7cc3	3.509035e-06
183	0x36042fef	1.9697434e-06
184	0x35cf7503	1.5456757e-06
185	0x3788fc22	1.6329872e-05
186	0x3709e228	8.218492e-06
187	0x378f98eb	1.7118136e-05
188	0x3580e3e3	9.603067e-07
189	0x376e0b9d	1.4188609e-05
190	0x37f2147c	2.8858187e-05
191	0x37151c26	8.887646e-06
192	0x370b61aa	8.307785e-06
193	0x37649258	1.3623932e-05
194	0x370ba73e	8.323985e-06
195	0x36ab9980	5.114067e-06
196	0x3682f87e	3.90323e-06
197	0x370c452c	8.360756e-06
198	0x36d13de3	6.23589e-06
199	0x3601ff6c	1.9371173e-06
200	0x348da4f0	2.6383304e-07
201	0x34b2a299	3.327339e-07
202	0x350c838f	5.2345507e-07
203	0x35cf0eaf	1.5426975e-06
204	0x34ab3835	3.1892128e-07
205	0x367a2f0a	3.7280283e-06
206	0x370b5151	8.303979e-06
207	0x36014a40	1.9265717e-06
208	0x35b19306	1.3230317e-06
209	0x35a119cb	1.2002942e-06
210	0x365cb2de	3.288667e-06
211	0x35f9f5ab	1.8623444e-06
212	0x35855a72	9.935595e-07
213	0x37147874	8.849533e-06
214	0x361aa52d	2.3043933e-06
215	0x357601d5	9.164481e-07
216	0x35672148	8.6102636e-07
217	0x35c0b2b3	1.4357123e-06
218	0x359ca5ba	1.1671139e-06
219	0x35ad7f65	1.2926581e-06
220	0x3566b3d8	8.5943384e-07
221	0x356972bf	8.696624e-07
222	0x34c9f9ff	3.7621064e-07
223	0x3508f1ba	5.1015707e-07
224	0x367acadf	3.737099e-06
225	0x360aab35	2.0663258e-06
226	0x35fc0de6	1.8779508e-06
227	0x3535a250	6.766395e-07
228	0x34956508	2.7826923e-07
229	0x34a3d744	3.0517742e-07
230	0x350c412d	5.224891e-07
231	0x34f0bd95	4.4841423e-07
232	0x340a5074	1.288152e-07
233	0x3623fbbd	2.4435424e-06
234	0x3483065a	2.4405273e-07
235	0x356bf155	8.7895506e-07
236	0x3499549b	2.856003e-07
237	0x350bf2c8	5.213483e-07
238	0x35916ae6	1.0834453e-06
239	0x3590e266	1.0794727e-06
240	0x365b1a7c	3.264896e-06
241	0x36bb43d8	5.5809323e-06
242	0x34a67cc6	3.1010694e-07
243	0x36811c32	3.847782e-06
244	0x34c9aca8	3.7564791e-07
245	0x35b51452	1.3491465e-06
246	0x35838cd7	9.80125e-07
247	0x348aa9bc	2.5828e-07
248	0x3572478c	9.025614e-07
249	0x35e87b14	1.7321167e-06
250	0x35f9ee74	1.8621345e-06
251	0x355e1a04	8.27393e-07
252	0x37138fe5	8.795386e-06
253	0x368f5ab8	4.272293e-06
254	0x37690708	1.3889519e-05
255	0x35ccf519	1.5270517e-06

exp_avg f4 [32]
0	0x36b56bd3	5.4067727e-06
1	0xb9aca70b	-0.00032930853
2	0x39eff1dc	0.00045765832
3	0xb917f9d0	-0.00014493545
4	0xb93b570d	-0.00017866139
5	0xb82c60bf	-4.1098097e-05
6	0xb9123189	-0.00013942098
7	0x3a4890e4	0.0007650985
8	0x380422ea	3.150377e-05
9	0xb81c0839	-3.7200956e-05
10	0xb9dbf495	-0.00041953163
11	0x380aab59	3.3061344e-05
12	0xb8524710	-5.0134084e-05
13	0xb864012b	-5.4360524e-05
14	0x39b4cbac	0.00034484023
15	0xb910581d	-0.00013765735
16	0xb8724bec	-5.7768004e-05
17	0x390d0032	0.0001344688
18	0x39c05888	0.00036687055
19	0xb854d8d0	-5.074666e-05
20	0x387d9c1f	6.04653e-05
21	0xb990c9fd	-0.00027616313
22	0x38436eb6	4.659473e-05
23	0xb8efd375	-0.00011435795
24	0xb8989c6b	-7.27706e-05
25	0xb8133f15	-3.510628e-05
26	0x37853aea	1.588227e-05
27	0x38f13b00	0.00011502765
28	0xb90a1834	-0.00013169722
29	0xb7ae9096	-2.0809744e-05
30	0x37c70f29	2.3729708e-05
31	0xb7dd76d7	-2.6400592e-05

exp_avg_sq f4 [32]
0	0x36bb8c11	5.58934e-06
1	0x3887ba6e	6.472027e-05
2	0x3918562a	0.00014527948
3	0x370eb471	8.505872e-06
4	0x381f6a75	3.80077e-05
5	0x3837b53c	4.3799388e-05
6	0x381429a7	3.532474e-05
7	0x3695f763	4.4693456e-06
8	0x36c925f0	5.9946833e-06
9	0x37ed8a7f	2.8317094e-05
10	0x36894e2f	4.09202e-06
11	0x3794dc19	1.7745466e-05
12	0x36bc7e06	5.6175077e-06
13	0x36863551	3.999718e-06
14	0x37926456	1.7451279e-05
15	0x37bf28ad	2.2787915e-05
16	0x365991ee	3.2420462e-06
17	0x37fa5870	2.9843504e-05
18	0x36988846	4.5458173e-06
19	0x366395ad	3.3912759e-06
20	0x36831db9	3.9075644e-06
21	0x38224663	3.8689363e-05
22	0x36e6d641	6.8794766e-06
23	0x37669d16	1.3745643e-05
24	0x3852bf69	5.0246166e-05
25	0x37f60e93	2.9332272e-05
26	0x37cc9a21	2.4390467e-05
27	0x36979a0a	4.518083e-06
28	0x37441c5a	1.16891115e-05
29	0x371a2979	9.188771e-06
30	0x36638928	3.3905471e-06
31	0x370ffee7	8.582813e-06

exp_avg f4 [16, 32]
0	0x37364f95	1.08665745e-05
1	0x3840bb6b	4.5950914e-05
2	0x39e6c0d0	0.00044012675
3	0xb7446356	-1.1705639e-05
4	0xb857c18e	-5.1440256e-05
5	0xb752fc01	-1.257565e-05
6	0xb7869b33	-1.6046315e-05
7	0x37f93246	2.9706523e-05
8	0x38dc32d5	0.00010499886
9	0xb7a67e89	-1.9847665e-05
10	0xba1fb490	-0.00060922746
11	0xb746f94f	-1.1859766e-05
12	0xb72aaca6	-1.01729875e-05
13	0xb8b23ae6	-8.498672e-05
14	0xb824d446	-3.9298342e-05
15	0xb66b7af3	-3.5089295e-06
16	0xb7d6e5a0	-2.5617715e-05
17	0x39be9b10	0.00036355155
18	0x3a056e81	0.0005090014
19	0xb76f1ebc	-1.4252666e-05
20	0xb6698099	-3.479456e-06
21	0xb8c6b322	-9.474742e-05
22	0x38d3fc19	0.00010108221
23	0xb727cd35	-1.0001754e-05
24	0xb679bb20	-3.7212812e-06
25	0xb6e1ee73	-6.7332817e-06
26	0xb5015a79	-4.81879e-07
27	0x37ba50cc	2.2210552e-05
28	0xb62cdc5d	-2.5758266e-06
29	0xb7b1aea0	-2.118136e-05
30	0xb639f75b	-2.7711128e-06
31	0x38ef70f3	0.000114174465
32	0xb898cbe9	-7.285906e-05
33	0xb8ae73e1	-8.318551e-05
34	0x3a872cef	0.0010313074
35	0xb8b8cb6a	-8.8116925e-05
36	0xb7cc0110	-2.431919e-05
37	0xb8c84640	-9.549828e-05
38	0xb8cedc87	-9.863922e-05
39	0x3a734793	0.000928038
40	0xb9248c58	-0.00015692541
41	0xb8dfbf95	-0.000106691536
42	0x38a00f10	7.6322e-05
43	0xb8aa11b9	-8.109533e-05
44	0xb8fab4b8	-0.000119545904
45	0xb8a87e29	-8.0343634e-05
46	0xb9431873	-0.00018605757
47	0xb8e88620	-0.00011087605
48	0xb85a2de1	-5.201798e-05
49	0xba1d2536	-0.00059946196
50	0xb8b9ad5f	-8.85378e-05
51	0xb90331c0	-0.00012511667
52	0xb8ae3ce2	-8.308307e-05
53	0xb888ac62	-6.517094e-05
54	0xb9642c11	-0.0002176019
55	0xb8fbb299	-0.00012001879
56	0xb9043375	-0.0001260767
57	0xb920f033	-0.0001534827
58	0xb8b290b6	-8.514656e-05
59	0x373025ff	1.0499264e-05
60	0xb8acd5fb	-8.241456e-05
61	0xb8e53508	-0.00010929449
62	0xb8ac5025	-8.216527e-05
63	0xb82a1507	-4.055074e-05
64	0xb7e40c1b	-2.7185355e-05
65	0x37e706fd	2.75406e-05
66	0x39f09970	0.00045890687
67	0x364a7630	3.016914e-06
68	0xb86cc6f1	-5.6452063e-05
69	0xb8045aa4	-3.1555668e-05
70	0xb53d1186	-7.0433487e-07
71	0xb83933ec	-4.4155793e-05
72	0xb70f2c8b	-8.533835e-06
73	0xb527eea3	-6.255961e-07
74	0xb8bdd202	-9.051339e-05
75	0xb7c2c0fc	-2.3216468e-05
76	0xb800e97a	-3.073502e-05
77	0xb78a5610	-1.6490958e-05
78	0x38d815d0	0.000103037455
79	0xb6e982f2	-6.959185e-06
80	0xb814148a	-3.530508e-05
81	0x38434ecc	4.656501e-05
82	0x39d84565	0.00041250433
83	0xb83b0aa3	-4.459418e-05
84	0xb7e131b8	-2.6845242e-05
85	0xb7837df0	-1.5675061e-05
86	0xb80d7662	-3.3727272e-05
87	0xb76eb218	-1.4227371e-05
88	0xb8979b5e	-7.2291805e-05
89	0xb888da52	-6.525651e-05
90	0xb80a7643	-3.3011904e-05
91	0xb8443e19	-4.6787874e-05
92	0xb7a239af	-1.9338766e-05
93	0xb77620ee	-1.467041e-05
94	0xb886ea97	-6.433314e-05
95	0x37a75e3b	1.995183e-05
96	0xb89a6e22	-7.363806e-05
97	0xb848e864	-4.7900146e-05
98	0x3a15e17a	0.00057174976
99	0xb89b9ff9	-7.420773e-05
100	0xb90eba65	-0.00013611613
101	0xb8b3bf28	-8.570991e-05
102	0xb8ad1452	-8.253068e-05
103	0xb8796195	-5.9457107e-05
104	0xb89ae6e0	-7.386296e-05
105	0xb88fb928	-6.8532594e-05
106	0xb9821037	-0.00024807613
107	0xb83940ec	-4.41679e-05
108	0xb8868092	-6.413566e-05
109	0xb8cd6a2c	-9.794938e-05
110	0xb8b7cda6	-8.764425e-05
111	0xb8723889	-5.774995e-05
112	0xb8c02398	-9.161903e-05
113	0x39bf5488	0.0003649334
114	0xb926b533	-0.00015898496
115	0xb8fb749d	-0.000119903336
116	0xb8b02b7e	-8.400435e-05
117	0xb8d5689f	-0.00010176119
118	0xb891eff8	-6.9588365e-05
119	0xb876f8e2	-5.888276e-05
120	0xb8de9e26	-0.00010615242
121	0xb9347d9b	-0.0001721293
122	0xb892136d	-6.965441e-05
123	0xb889ea39	-6.5762964e-05
124	0xb8181f75	-3.626892e-05
125	0xb89ea101	-7.5640164e-05
126	0xb8f1b8fe	-0.00011526233
127	0xb8e28417	-0.000108011234
128	0xb7ab30f6	-2.0407588e-05
129	0xb7c98ff0	-2.4028093e-05
130	0x3a20103b	0.0006105934
131	0xb86d117a	-5.652148e-05
132	0xb908b754	-0.00013038266
133	0xb86d323c	-5.6551988e-05
134	0xb87690fe	-5.8786005e-05
135	0xb7e3469c	-2.7093389e-05
136	0xb873ebae	-5.815521e-05
137	0xb8668f11	-5.4969514e-05
138	0xb97e2148	-0.00024235726
139	0xb84a3a4a	-4.821484e-05
140	0xb88375c7	-6.2685045e-05
141	0xb8b7b370	-8.759543e-05
142	0x37aab357	2.034909e-05
143	0xb8850c5c	-6.344236e-05
144	0xb895223a	-7.111249e-05
145	0x39f3ccc5	0.00046501137
146	0xb93f9fd2	-0.00018274717
147	0xb8892999	-6.540417e-05
148	0xb84785c4	-4.7569876e-05
149	0xb8c077e1	-9.1776026e-05
150	0xb84edc0e	-4.931917e-05
151	0xb85827ba	-5.153541e-05
152	0xb850711b	-4.9696402e-05
153	0xb878a9d2	-5.9285965e-05
154	0xb81297cb	-3.495048e-05
155	0xb8821325	-6.202449e-05
156	0xb812f72a	-3.5039302e-05
157	0xb8849cc5	-6.323451e-05
158	0xb8482670	-4.7719514e-05
159	0xb8e0a17b	-0.000107112304
160	0x35b69906	1.3604592e-06
161	0x382333d9	3.8910515e-05
162	0x3a2dd822	0.00066316326
163	0xb732606f	-1.06320795e-05
164	0xb82dbbe7	-4.1421412e-05
165	0xb748194a	-1.1926817e-05
166	0xb7496109	-1.2003126e-05
167	0x35a6eaff	1.2436357e-06
168	0xb8a04396	-7.6419834e-05
169	0xb730d6d4	-1.0540436e-05
170	0xb9333b05	-0.00017092757
171	0x3799d778	1.8339357e-05
172	0xb6c4bcd2	-5.8632368e-06
173	0xb8bc15f0	-8.968625e-05
174	0xb7581619	-1.2879748e-05
175	0xb72719f5	-9.960019e-06
176	0xb7bbae2c	-2.2373242e-05
177	0x3942afa7	0.00018566717
178	0x39970e3e	0.00028811576
179	0xb75f63bf	-1.331506e-05
180	0xb7126535	-8.725842e-06
181	0xb802e381	-3.1206295e-05
182	0xb81243f3	-3.4872395e-05
183	0xb71c61fd	-9.321139e-06
184	0x335b79e6	5.1100777e-08
185	0xb7711bdd	-1.4371207e-05
186	0xb63c7f8f	-2.8088432e-06
187	0xb883b44a	-6.280148e-05
188	0xb4a17ab5	-3.0077868e-07
189	0xb79f83c1	-1.901563e-05
190	0x36d6443f	6.385642e-06
191	0x36e70a85	6.885561e-06
192	0x35d9c000	1.6223639e-06
193	0x3646e724	2.963884e-06
194	0xb9faa4c7	-0.00047806485
195	0x377da118	1.5117483e-05
196	0x3813f1ca	3.5272715e-05
197	0x377deec7	1.513557e-05
198	0x376f771a	1.4273241e-05
199	0x36e9fada	6.973144e-06
200	0x39262a5d	0.00015846775
201	0x379917cb	1.82501e-05
202	0x39147dd5	0.00014161256
203	0x378f8b2e	1.7111739e-05
204	0x374f10c1	1.2342062e-05
205	0x3898a0e7	7.277895e-05
206	0x3820c21f	3.8327762e-05
207	0x376817af	1.3833792e-05
208	0x37880e52	1.6219132e-05
209	0xb96f572d	-0.00022825292
210	0xb98e4668	-0.00027136807
211	0x378fb88f	1.713287e-05
212	0x3731fbe6	1.0608672e-05
213	0x37e4cb1a	2.7274295e-05
214	0x3808250b	3.2459426e-05
215	0x3727dc5b	1.0005281e-05
216	0x374d09a4	1.2221197e-05
217	0x37b762cf	2.1861311e-05
218	0x3716c1aa	8.985788e-06
219	0x387f4875	6.086422e-05
220	0x362e0b15	2.593447e-06
221	0x37ac7278	2.0557301e-05
222	0x36f1ce42	7.2063713e-06
223	0xb87d7626	-6.0429935e-05
224	0x36948d47	4.4271906e-06
225	0xb6ac16e0	-5.1286625e-06
226	0x39a219ef	0.0003091837
227	0xb76010f2	-1.3355386e-05
228	0xb81c5ec9	-3.7281574e-05
229	0xb782d751	-1.5597472e-05
230	0xb77f142a	-1.5203879e-05
231	0xb69754c6	-4.5100196e-06
232	0x36a41442	4.889939e-06
233	0xb760ac1a	-1.3391511e-05
234	0x390caa7b	0.0001341495
235	0xb77fdaa6	-1.52500925e-05
236	0xb75382cc	-1.2607034e-05
237	0xb801da10	-3.0959083e-05
238	0xb7fb796b	-2.9978071e-05
239	0xb7587f99	-1.2904312e-05
240	0xb7844570	-1.576796e-05
241	0x390752a7	0.00012905394
242	0x3a3ffb3e	0.000732351
243	0xb7b6dc10	-2.1798565e-05
244	0xb7084b21	-8.123724e-06
245	0xb7e80d74	-2.766282e-05
246	0xb78c7478	-1.6743536e-05
247	0xb743aee4	-1.1663626e-05
248	0xb7936056	-1.7568625e-05
249	0xb7ff259b	-3.041588e-05
250	0xb6bc03ff	-5.603302e-06
251	0xb7b85d80	-2.1978049e-05
252	0x35f30966	1.8107646e-06
253	0xb7d72d19	-2.5650997e-05
254	0xb6b8d1b5	-5.5080404e-06
255	0x39534e78	0.0002015176

exp_avg_sq f4 [16, 32]
0	0x35c151c6	1.440342e-06
1	0x35521ff0	7.827757e-07
2	0x3b5bf004	0.0033559809
3	0x34cc82c3	3.8093103e-07
4	0x34a24461	3.0224604e-07
5	0x34ccfc41	3.81815e-07
6	0x3482900f	2.4319203e-07
7	0x35b1be30	1.324288e-06
8	0x35b7c5d2	1.3692136e-06
9	0x3535af8d	6.7683214e-07
10	0x35bd3eb9	1.4099852e-06
11	0x35d46005	1.5823176e-06
12	0x35b0d83c	1.3175954e-06
13	0x351ec8f2	5.9152e-07
14	0x34c66c02	3.695896e-07
15	0x34926ed2	2.7275252e-07
16	0x352a6c17	6.3487226e-07
17	0x3650cd30	3.111385e-06
18	0x363015df	2.6238774e-06
19	0x35648c10	8.5140437e-07
20	0x35f1f1dc	1.802629e-06
21	0x352fd210	6.549826e-07
22	0x3565e069	8.563571e-07
23	0x34bdd6d0	3.536029e-07
24	0x341a492d	1.4368989e-07
25	0x356919dd	8.68369e-07
26	0x363b6be5	2.7927974e-06
27	0x35e022d0	1.6699432e-06
28	0x346d3d2d	2.20946e-07
29	0x35166b54	5.603554e-07
30	0x354585f7	7.3583163e-07
31	0x34cf2e7e	3.8590582e-07
32	0x348074e3	2.3926904e-07
33	0x3940d370	0.00018389313
34	0x364bfc19	3.0396097e-06
35	0x38837e33	6.270073e-05
36	0x388cd65b	6.715647e-05
37	0x3888db48	6.52583e-05
38	0x38972a7e	7.208156e-05
39	0x35ae6e92	1.299619e-06
40	0x35e84198	1.7304437e-06
41	0x3712f512	8.759338e-06
42	0x373dcb87	1.1312665e-05
43	0x34ec00df	4.395906e-07
44	0x34e400dd	4.2468938e-07
45	0x354df6e6	7.6727736e-07
46	0x38b85490	8.789555e-05
47	0x38a6ad03	7.947723e-05
48	0x358fd154	1.0715253e-06
49	0x371bac73	9.278871e-06
50	0x380b9d07	3.3286426e-05
51	0x34769a92	2.2966768e-07
52	0x34077007	1.261361e-07
53	0x3840dcfe	4.5982182e-05
54	0x352e1c47	6.48612e-07
55	0x38245662	3.9181097e-05
56	0x35e7f2f3	1.7281549e-06
57	0x34c7b9f9	3.720195e-07
58	0x35386bed	6.8702394e-07
59	0x34700ecf	2.2357129e-07
60	0x399fef85	0.000305053
61	0x3687bab2	4.0450477e-06
62	0x33a3ebdd	7.633182e-08
63	0x39276a03	0.00015965854
64	0x34655c44	2.1360853e-07
65	0x34beb5fa	3.5522663e-07
66	0x37926df7	1.7455763e-05
67	0x348b55bd	2.595315e-07
68	0x34645be3	2.1267583e-07
69	0x34222796	1.5101827e-07
70	0x34aaf1ba	3.1840847e-07
71	0x34df3989	4.157885e-07
72	0x33e80df7	1.0805882e-07
73	0x340d8746	1.318086e-07
74	0x353fa568	7.139374e-07
75	0x34355b99	1.6890262e-07
76	0x35cf6c87	1.5454287e-06
77	0x33418a76	4.5062244e-08
78	0x346d4521	2.2097494e-07
79	0x34d74023	4.0093536e-07
80	0x35b08a70	1.3153312e-06
81	0x353ec016	7.106004e-07
82	0x3539957c	6.91354e-07
83	0x353958c7	6.904706e-07
84	0x32c316a5	2.2711285e-08
85	0x351f25f3	5.928734e-07
86	0x3518172e	5.6658143e-07
87	0x33d5f7c2	9.963652e-08
88	0x344e2ffd	1.9202703e-07
89	0x361e8f20	2.3627144e-06
90	0x330a58bf	3.2211343e-08
91	0x342c0653	1.6021049e-07
92	0x34b9d25d	3.4611995e-07
93	0x340662bb	1.251564e-07
94	0x33c1e0cd	9.028154e-08
95	0x34d92afe	4.045068e-07
96	0x35d7238f	1.6029097e-06
97	0x361a5c5a	2.3001544e-06
98	0x35eb1be0	1.7516977e-06
99	0x354c05f8	7.600461e-07
100	0x353ffcf0	7.152112e-07
101	0x34ec0484	4.396171e-07
102	0x360fa2ef	2.14035e-06
103	0x367132af	3.59413e-06
104	0x362bef9e	2.5620461e-06
105	0x34f91c6c	4.6400544e-07
106	0x360415c1	1.9682195e-06
107	0x34a80d04	3.130191e-07
108	0x35f2c3e3	1.8087416e-06
109	0x35a3f9dd	1.2217166e-06
110	0x34a1dd51	3.0149616e-07
111	0x369b1753	4.6220753e-06
112	0x359c81e4	1.1660709e-06
113	0x36242803	2.4461194e-06
114	0x354b4548	7.572421e-07
115	0x35f991fe	1.8594435e-06
116	0x3496564c	2.8002466e-07
117	0x35a4567e	1.2244125e-06
118	0x35a56954	1.2324113e-06
119	0x35c82b8a	1.4913833e-06
120	0x352acddc	6.36295e-07
121	0x35d0fffb	1.5571708e-06
122	0x3524efd1	6.144374e-07
123	0x35a8ea10	1.2585097e-06
124	0x356ff979	8.939747e-07
125	0x357d1822	9.428496e-07
126	0x35822589	9.696679e-07
127	0x353e78f6	7.0956537e-07
128	0x36993ceb	4.566847e-06
129	0x368af444	4.1411568e-06
130	0x369d9734	4.696567e-06
131	0x36381737	2.743165e-06
132	0x35b35df5	1.3363884e-06
133	0x3519936d	5.7211474e-07
134	0x354ade52	7.557438e-07
135	0x371e0e93	9.420927e-06
136	0x36b91897	5.5162923e-06
137	0x35a07a31	1.1956491e-06
138	0x371ef940	9.475567e-06
139	0x3590113d	1.0733853e-06
140	0x35b0a235	1.316023e-06
141	0x36484c6d	2.9846808e-06
142	0x34d56d48	3.9753854e-07
143	0x3716e460	8.993869e-06
144	0x365ea41c	3.3176102e-06
145	0x366dfa5c	3.546148e-06
146	0x35b621fa	1.3569945e-06
147	0x3693bae5	4.402699e-06
148	0x34f3ea49	4.5432742e-07
149	0x36d47cff	6.332644e-06
150	0x36756010	3.656376e-06
151	0x36302124	2.6245334e-06
152	0x35250af7	6.1483246e-07
153	0x36245334	2.4486335e-06
154	0x354b601c	7.576325e-07
155	0x3666c603	3.4387929e-06
156	0x3600488a	1.911571e-06
157	0x35798c19	9.29636e-07
158	0x357e6aef	9.477798e-07
159	0x358bf62a	1.042795e-06
160	0x3527e1e8	6.2541085e-07
161	0x351a6c4e	5.7527075e-07
162	0x3b641899	0.00348047
163	0x34af6ac7	3.267398e-07
164	0x34d6688f	3.9936683e-07
165	0x3469fe9e	2.1792445e-07
166	0x34f1d2f0	4.5043225e-07
167	0x34cb7f29	3.7904218e-07
168	0x356f56b0	8.9160585e-07
169	0x348c01c4	2.6078317e-07
170	0x34d0eadc	3.8913902e-07
171	0x350b6fb3	5.194408e-07
172	0x3523d8d4	6.103776e-07
173	0x343d8bbd	1.7652833e-07
174	0x37542045	1.2643698e-05
175	0x34bf1406	3.559109e-07
176	0x3461d8a0	2.1033566e-07
177	0x34d2d556	3.927077e-07
178	0x35b77bce	1.3670594e-06
179	0x3585587c	9.935025e-07
180	0x3556d7b7	8.003512e-07
181	0x34437ace	1.8205466e-07
182	0x34b57f05	3.3806296e-07
183	0x351aa3df	5.7607934e-07
184	0x35c67b72	1.4788077e-06
185	0x345a367f	2.0322658e-07
186	0x359c65b6	1.1652508e-06
187	0x353e7219	7.094655e-07
188	0x35156e18	5.5667033e-07
189	0x35219da6	6.020658e-07
190	0x354a0705	7.526108e-07
191	0x344dbf91	1.9161804e-07
192	0x346d6741	2.2109909e-07
193	0x38dfe3ce	0.000106759006
194	0x3883a03d	6.2764135e-05
195	0x3814250f	3.5320463e-05
196	0x3849525c	4.7998838e-05
197	0x3827f57a	4.004452e-05
198	0x38289d1b	4.0200637e-05
199	0x3744dcda	1.1733931e-05
200	0x35e1fe11	1.6837749e-06
201	0x36b0b094	5.265765e-06
202	0x36ee287a	7.097665e-06
203	0x37c1bbaf	2.309479e-05
204	0x3584c7de	9.892935e-07
205	0x34fb5ad6	4.6818485e-07
206	0x38529fd3	5.021675e-05
207	0x3853d343	5.0503073e-05
208	0x353f8b6a	7.135592e-07
209	0x35ab3e79	1.2758675e-06
210	0x37c0b2dc	2.2971471e-05
211	0x34834d2a	2.4456796e-07
212	0x35a4f139	1.2289157e-06
213	0x37e158d2	2.686345e-05
214	0x34bdaa8c	3.5328083e-07
215	0x37a9851c	2.0208354e-05
216	0x38f5cf9b	0.0001172118
217	0x3505b5ae	4.981074e-07
218	0x3532e9cb	6.665038e-07
219	0x356cfdc9	8.8286157e-07
220	0x393f509d	0.0001824521
221	0x364dac28	3.0647589e-06
222	0x33f17e8c	1.1245456e-07
223	0x38c2c7bf	9.2878465e-05
224	0x33f8a82c	1.157899e-07
225	0x3399e9d4	7.167151e-08
226	0x38a517f2	7.872273e-05
227	0x3337c54e	4.2787455e-08
228	0x335bd820	5.1186476e-08
229	0x338d28a8	6.5732195e-08
230	0x33a364a8	7.608588e-08
231	0x33f52415	1.1415265e-07
232	0x342611c8	1.5466424e-07
233	0x3361bf55	5.256091e-08
234	0x3482ec37	2.4386256e-07
235	0x33115024	3.383333e-08
236	0x3356b935	4.9994203e-08
237	0x33a75748	7.79242e-08
238	0x3300ca37	2.9986236e-08
239	0x34b2e4ba	3.3321504e-07
240	0x32e79205	2.6958341e-08
241	0x34979ae6	2.8238645e-07
242	0x35d66529	1.5973684e-06
243	0x33702cc8	5.5920083e-08
244	0x32e9a9b6	2.7201946e-08
245	0x332c8700	4.0169652e-08
246	0x33accc04	8.0464844e-08
247	0x3382716c	6.074228e-08
248	0x338dfd2c	6.611876e-08
249	0x338c6650	6.5378686e-08
250	0x339d5c74	7.327699e-08
251	0x33a6d5b6	7.768851e-08
252	0x32e7c4b1	2.6981384e-08
253	0x331386d3	3.4348727e-08
254	0x330274db	3.0374263e-08
255	0x34154825	1.3902952e-07

exp_avg f4 [16]
0	0x387bb3ac	6.0010396e-05
1	0x3a11cfd8	0.0005562282
2	0x3954ce03	0.00020294641
3	0x39ff0dd7	0.00048647702
4	0x3988d07f	0.00026095283
5	0x389700c4	7.200384e-05
6	0xb89baa11	-7.422653e-05
7	0x38f75ac2	0.00011794783
8	0x3907713d	0.00012916788
9	0x3ac86e62	0.0015291686
10	0x3b425648	0.0029653478
11	0x398505bf	0.00025372018
12	0x3b8a90f8	0.0042287074
13	0x399c6c62	0.0002983539
14	0x3a13581d	0.0005620735
15	0x37b98e9a	2.2120123e-05

exp_avg_sq f4 [16]
0	0x38f29a9c	0.000115682575
1	0x388b5e25	6.645572e-05
2	0x37ecda00	2.8234906e-05
3	0x381e1588	3.7690188e-05
4	0x38501840	4.961365e-05
5	0x38555ae3	5.0867802e-05
6	0x38c5f6f0	9.439688e-05
7	0x3789ac46	1.6411894e-05
8	0x390a1208	0.00013167423
9	0x38e99a96	0.000111391
10	0x39949664	0.0002834081
11	0x369b72d3	4.6327273e-06
12	0x392ac7bd	0.00016286872
13	0x385436dd	5.0595834e-05
14	0x388c2964	6.68343e-05
15	0x381300df	3.5048342e-05
